data/NN_trained_models/trained_net_8609.tar (torch_old, 10449 bytes, 6 tensors)

weight f4 [24, 12]
0	0x3dfd5c6b	0.12371143
1	0x3fe676c8	1.8004999
2	0x3e824438	0.25442672
3	0x3f0185a8	0.5059457
4	0x3f987055	1.1909281
5	0x3f1d0fe1	0.61352354
6	0x3f044d5f	0.5168056
7	0x3f22657f	0.6343612
8	0x3f0403f1	0.51568514
9	0x3fc85cd5	1.565333
10	0xbf604573	-0.8760597
11	0x40229a20	2.540657
12	0xbf7d1ffe	-0.9887694
13	0xbf678e82	-0.90451825
14	0x3f3d7689	0.74008995
15	0xbd46c946	-0.048531793
16	0xc0285558	-2.630209
17	0x3ed184ac	0.40921533
18	0x3ff40574	1.9064164
19	0x405710ba	3.360396
20	0x3de3f790	0.11131203
21	0x3f17c3e9	0.5928331
22	0x3f9424d0	1.1573734
23	0x3f762888	0.96155596
24	0x3ee4ed7d	0.4471244
25	0x3f8bdec4	1.0927358
26	0x4028c968	2.6372929
27	0xbef4387c	-0.47699344
28	0xbe159ec4	-0.14611346
29	0x3e9038be	0.2816829
30	0x3ff1fe42	1.8905718
31	0x3f4c13c0	0.79717636
32	0x3fcf2f1c	1.6186252
33	0x3e5edd00	0.21763992
34	0xbf0a613c	-0.5405462
35	0x3fe1cda5	1.7640883
36	0xbef908a0	-0.48639393
37	0xbe39e0fe	-0.18152234
38	0x3f70687d	0.93909436
39	0xbfe2d537	-1.7721318
40	0x3f77065b	0.9649407
41	0x4048e554	3.138997
42	0x3e44664a	0.19179645
43	0xbfef3974	-1.8689408
44	0xbe88d337	-0.26723644
45	0xbfb577f2	-1.417723
46	0x3e99719e	0.29969496
47	0x3fdac632	1.7091734
48	0x3fdc886d	1.7229134
49	0x3f0c74e1	0.54865843
50	0x3fba2468	1.454236
51	0x3e85b992	0.2611814
52	0xbf21c8dc	-0.6319711
53	0x3f9f536e	1.2447336
54	0xbf1993d6	-0.59991205
55	0xbf461c49	-0.7738691
56	0x40019c7a	2.0251756
57	0x40053e28	2.0819187
58	0x3f011a31	0.5043059
59	0xbf180e7b	-0.59397095
60	0xbfc10735	-1.5080324
61	0x3f6d51bb	0.92702836
62	0xbf82d425	-1.0220991
63	0x3faf1f65	1.3681456
64	0xc0211390	-2.516819
65	0xbf6f42c4	-0.9346125
66	0xc00bcb03	-2.1842659
67	0x401db00e	2.4638705
68	0xbf9e29cf	-1.2356509
69	0x3db63996	0.088977024
70	0xbef001d1	-0.46876386
71	0x3fe28ba2	1.7698863
72	0x3fd7dc41	1.6864091
73	0x3ee5f43c	0.449129
74	0xbcab25ed	-0.020892108
75	0xbf25aa27	-0.64712757
76	0xbe8612bc	-0.26186168
77	0xbf5645ae	-0.8370007
78	0x401bf8d0	2.4370613
79	0xbf732228	-0.94973993
80	0xbf246566	-0.6421722
81	0x3e44c34a	0.19215122
82	0xbf6fc94e	-0.9366654
83	0x4061a595	3.5257313
84	0xbf0e4cdc	-0.5558603
85	0x3fa8355c	1.3141284
86	0xbdc447e5	-0.09584025
87	0xbfe8fa47	-1.8201379
88	0xc01cea06	-2.4517837
89	0xbf4e12f2	-0.8049766
90	0xbde60d48	-0.11233002
91	0xbe15ffbb	-0.14648335
92	0xc059c848	-3.4028492
93	0x3fb7ffa1	1.4374887
94	0x3ea2835f	0.31740853
95	0xbf060262	-0.52347386
96	0x3faf5967	1.3699158
97	0x40314ef2	2.7704434
98	0xbeadfa2a	-0.33979923
99	0xbf183af6	-0.5946497
100	0x3f3b2208	0.730988
101	0x3f99e8eb	1.2024206
102	0xbf0c985f	-0.5492
103	0x3f5e1566	0.867514
104	0x3f86dc29	1.0535938
105	0xc007a1d9	-2.1192534
106	0x3ec67cab	0.3876699
107	0xbf36e187	-0.7143788
108	0x40859e59	4.1755795
109	0x3e5815f4	0.21102124
110	0x3e125fca	0.14294353
111	0x3efacae1	0.4898291
112	0x3ffee32d	1.9913079
113	0xc026e3ce	-2.607654
114	0x3f6b2331	0.9185057
115	0xbf7afcd4	-0.98042035
116	0xbf0f8e9c	-0.5607698
117	0x3f22c9cb	0.6358916
118	0xbe3e00ae	-0.18554947
119	0x3fccf7c1	1.6013108
120	0xbfb0915a	-1.3794358
121	0xbfba248c	-1.4542403
122	0xbfa32ad3	-1.2747444
123	0xbf162374	-0.5864785
124	0xbfc7d88e	-1.5612962
125	0xbf3550e0	-0.7082653
126	0x3ef6c2c9	0.48195484
127	0xbf50a743	-0.8150522
128	0xbfd69196	-1.6763179
129	0xbfeb2029	-1.836919
130	0xbfc179dc	-1.5115314
131	0xbfed6648	-1.8546839
132	0xbf5d7e21	-0.8652058
133	0xbf2c9943	-0.6742136
134	0x3eceb4d2	0.4037233
135	0x408116f6	4.034053
136	0xbeaa89e2	-0.3330832
137	0xbf8f6510	-1.1202717
138	0x3c591c4e	0.013251377
139	0xbfaaa464	-1.3331418
140	0x401fb020	2.4951248
141	0x3f3242e5	0.6963332
142	0xbfa65e0a	-1.2997448
143	0x3d5a5e12	0.05331237
144	0xbdec2969	-0.11531336
145	0x3e22e118	0.15906179
146	0x3ed10066	0.40820616
147	0xc02e1197	-2.7198236
148	0xbffec879	-1.9904929
149	0xbf8671de	-1.05035
150	0x4029eaec	2.6549635
151	0x3fb47585	1.4098364
152	0x3df43373	0.11923876
153	0xbf9eb496	-1.239886
154	0x3e5bc5f2	0.21462229
155	0x3f22d0bc	0.63599753
156	0x3f98467d	1.1896511
157	0x3fdb18eb	1.7116979
158	0x3f1788c1	0.59193045
159	0x3f80fd5c	1.0077319
160	0x3feb0432	1.8360655
161	0xbfd590ea	-1.6684849
162	0xbf8e7cf1	-1.1131879
163	0xbe778843	-0.24173073
164	0x3d667be8	0.05627051
165	0x401237f6	2.2846656
166	0x3fd89853	1.6921486
167	0x3c12b15a	0.008953417
168	0xbf8ba233	-1.0908874
169	0x3f20c9f9	0.62808186
170	0x3f5e83e6	0.8692001
171	0x3f812348	1.0088892
172	0x3f0e1874	0.5550606
173	0x3f7af7c6	0.9803432
174	0xbfd6d253	-1.6782936
175	0x3f7ba3c4	0.9829676
176	0x3e47bf34	0.19506532
177	0x3fc9d04b	1.5766691
178	0xbf910fd8	-1.133296
179	0xc05351c9	-3.3018668
180	0xc0421142	-3.0323033
181	0xbe90f8f6	-0.28314942
182	0xc034367e	-2.815826
183	0xbef4323b	-0.47694573
184	0xbf797244	-0.9743998
185	0xbe6b8309	-0.22999205
186	0x3ed60a8b	0.4180492
187	0x3ff2df58	1.8974409
188	0xbfa0727c	-1.2534938
189	0xbfb30d8e	-1.3988512
190	0xbf1d9429	-0.615542
191	0xbfd114c4	-1.6334462
192	0xbf120317	-0.57035965
193	0x4014ba3f	2.3238676
194	0x3e49bdab	0.19701259
195	0xbfff4de5	-1.9945647
196	0x3f8b5ce2	1.088772
197	0xbf2ce033	-0.675296
198	0xbfcf9f00	-1.6220398
199	0x3f5a130a	0.851853
200	0xc002b6ca	-2.0424066
201	0x3fb674c0	1.4254379
202	0xbf35f086	-0.71070135
203	0xbff86706	-1.940644
204	0xc007232c	-2.1115217
205	0x3e8bcd37	0.27305004
206	0x3fe299c4	1.7703176
207	0x4037900e	2.8681674
208	0x3e11c2e0	0.14234495
209	0x3fa1aec7	1.2631463
210	0xbfc7fec0	-1.5624619
211	0xbf8b8ccd	-1.0902344
212	0x3f12f07f	0.5739822
213	0x3e565a42	0.20932868
214	0x3f8805a3	1.062672
215	0x3e63e0e4	0.22253758
216	0x3f8a9013	1.0825218
217	0xbf6af340	-0.9177742
218	0x3ede098e	0.43366665
219	0xbe627f3a	-0.22118846
220	0x3f4004f6	0.7500757
221	0x400ae3f8	2.170164
222	0xbe0cdc25	-0.13755853
223	0xbf5e9471	-0.86945254
224	0x4000e001	2.013672
225	0x3fec1e0e	1.8446672
226	0x4033e8cf	2.8110845
227	0x3f7dfbb1	0.99212176
228	0x3f6c0050	0.92187977
229	0xbfa1d6a4	-1.2643628
230	0x3f9980b7	1.1992406
231	0x3d40fce3	0.04711617
232	0x4027decd	2.6229737
233	0xbfaaff84	-1.3359227
234	0xbfccd679	-1.6002952
235	0xbf0d9d28	-0.55317926
236	0x3f5a4d17	0.8527388
237	0xc0047f4f	-2.0702703
238	0xbfcd2ff7	-1.6030263
239	0xbfe328d5	-1.7746836
240	0x3ee38f25	0.44445148
241	0x3f09b4da	0.5379158
242	0x40430994	3.0474596
243	0xbfb2888e	-1.3947923
244	0x3f8486b4	1.0353608
245	0xbe258faf	-0.16168092
246	0x3f84ea83	1.0384067
247	0xc01ad8d8	-2.419485
248	0x3fd3ce30	1.6547298
249	0x3feece7e	1.8656766
250	0xbeeb072c	-0.4590391
251	0x3fb4a205	1.4111944
252	0xbfbb9a90	-1.4656544
253	0x3fa0511f	1.2524756
254	0xbed222b4	-0.410421
255	0x3ff5059f	1.914234

bias f4 [24]
0	0x3fc67fbb	1.550773
1	0xbece0722	-0.40239817
2	0xbff97ebc	-1.9491801
3	0x3fd338f7	1.6501759
4	0xc01179ff	-2.273071
5	0xbdfaf6a3	-0.122540735
6	0xc012c61d	-2.2933419
7	0xbdd4c0f8	-0.10388368
8	0x3fbcc654	1.4748025
9	0x3f839ec1	1.0282823
10	0x3f151e3b	0.58249253
11	0xbfccb206	-1.5991828
12	0xbed1ac07	-0.4095156
13	0x3f8c45e7	1.0958833
14	0x4032bf72	2.792935
15	0x3f54a2c5	0.83060867
16	0x3efbefef	0.49206492
17	0x3e035672	0.12825945
18	0x3f75402c	0.95801044
19	0xbf4b261d	-0.7935503
20	0xbfa7666c	-1.3078132
21	0xbfc5b336	-1.5445316
22	0xbed860a6	-0.42261237
23	0x3edeafed	0.43493596

weight f4 [24, 24]
0	0xbe5e9203	-0.21735387
1	0xbf14a8b2	-0.5806991
2	0xbdca10ec	-0.09866509
3	0xbf8e4079	-1.1113425
4	0x3e7adc1d	0.24498029
5	0x3e57ccc3	0.21074204
6	0x3e14d612	0.14534786
7	0xbfcc1848	-1.594491
8	0xbeb3f7bd	-0.35149947
9	0xbea61480	-0.32437515
10	0x3f9d60bd	1.2295147
11	0x3f560d3c	0.83613944
12	0x3f104b9c	0.5636537
13	0xbf1ba6ae	-0.6080121
14	0x3f317a23	0.6932699
15	0x3f62506f	0.8840398
16	0xbf8778df	-1.0583762
17	0xbfb4034c	-1.4063506
18	0x3f5afbbe	0.8554038
19	0x3f082601	0.5318299
20	0xbf92dc59	-1.1473495
21	0xbfd78cbb	-1.6839823
22	0xbd5d8d64	-0.05408992
23	0x3f8a0564	1.0782895
24	0x3f51b5a7	0.81917804
25	0xbf4113fb	-0.7542111
26	0xbeb39cee	-0.35080665
27	0xbf56fb5d	-0.839773
28	0x3f78502e	0.96997344
29	0xbe8fa0a2	-0.2805224
30	0x3e8b4a84	0.27205288
31	0xbee0f6d7	-0.43938324
32	0xbf7387f1	-0.95129305
33	0xbf0b04a8	-0.5430398
34	0x3f0a8688	0.5411153
35	0xbf7ab2a8	-0.9792886
36	0x3f520885	0.8204425
37	0xbefc2c0d	-0.49252358
38	0x3e857e89	0.260731
39	0x3f53172a	0.8245722
40	0xbe8647ca	-0.26226646
41	0xbe28ef8c	-0.1649763
42	0x3f2ee353	0.6831562
43	0x3fbd2dac	1.4779563
44	0xbd823bfe	-0.06359099
45	0xbf17caf4	-0.59294057
46	0x3f3f2a5d	0.74674016
47	0x3f242320	0.64116096
48	0xbfd9f65f	-1.7028311
49	0x3e993038	0.299196
50	0xbdbcf562	-0.092264906
51	0x3eb7b969	0.35883644
52	0x3f5af115	0.8552411
53	0xbe897642	-0.26848036
54	0x3f4fa414	0.8110974
55	0xbf10986c	-0.5648258
56	0xbdd45841	-0.103683956
57	0xbec1e2d0	-0.37868357
58	0x3e0feb6c	0.1405465
59	0x3e0fd89a	0.1404747
60	0xbf01ebe5	-0.5075057
61	0xbe7fef17	-0.2499355
62	0xbf6758d4	-0.90369916
63	0xbe02c083	-0.1276875
64	0x3e9b2351	0.30300382
65	0xbed97162	-0.42469317
66	0xbe5b6f16	-0.21429095
67	0x3e5df41f	0.21675156
68	0x3ec64ca5	0.3873035
69	0x3f481578	0.7815776
70	0xbee12005	-0.4396974
71	0xbf148a3e	-0.5802344
72	0xbf619c64	-0.8812926
73	0x3df2128a	0.11819942
74	0x3e80bfd6	0.2514636
75	0xbe51f3cd	-0.20503159
76	0x3f5b03ef	0.8555288
77	0x3d25a88b	0.04044394
78	0xbf8aa6e7	-1.0832185
79	0xbf1e6192	-0.6186763
80	0x3e71f113	0.23627119
81	0x3ecfb934	0.40570986
82	0x3f39b6cb	0.72544545
83	0x3ff937a9	1.9470111
84	0xbf8998f4	-1.0749803
85	0xbebfbe4c	-0.37449872
86	0xbe928bec	-0.28622377
87	0xbf0244e5	-0.50886375
88	0xbcfe8241	-0.03106797
89	0xbef1f36a	-0.47256023
90	0xbf24cb23	-0.6437246
91	0x3ed08361	0.40725234
92	0x3ed7fe7c	0.42186344
93	0xbe39a0ee	-0.18127796
94	0xbf7655ee	-0.9622487
95	0x3d3df630	0.04637736
96	0x3de42469	0.11139757
97	0xbf5267ab	-0.82189435
98	0xbeab80f1	-0.33496812
99	0xbecd30a7	-0.4007618
100	0x3f00aeec	0.5026691
101	0xbf13ac1c	-0.57684493
102	0xbecc9af6	-0.39961976
103	0xbf6daf8c	-0.9284599
104	0xbecf2305	-0.40456405
105	0xbf2e7da2	-0.6816045
106	0x3f04f03d	0.51929075
107	0xbe82394a	-0.25434333
108	0x3e5781ff	0.21045683
109	0xbf1b8743	-0.6075327
110	0x3e893a4f	0.26802298
111	0x3f333537	0.70003074
112	0xbf72a7ee	-0.9478749
113	0x3e411c83	0.18858533
114	0x3dc18949	0.09450013
115	0x3f859069	1.0434695
116	0xbf6cca16	-0.9249586
117	0xbf0052d2	-0.50126374
118	0xbec7a2e9	-0.38991478
119	0x3d15a0fe	0.036530487
120	0xbeb2f990	-0.34956026
121	0x3f4da474	0.8032906
122	0xbb312dd4	-0.0027035372
123	0x3dd544f2	0.10413541
124	0x3f703cf9	0.93843037
125	0x3f5009ec	0.8126514
126	0x3eba8cf2	0.36435658
127	0x3f8a5f2f	1.0810298
128	0xbf75f4d4	-0.96076703
129	0xbf86bd30	-1.0526485
130	0x3e31ad4a	0.17351261
131	0xbecba17a	-0.39771634
132	0xbf11fe46	-0.57028615
133	0xbe955ebe	-0.29173845
134	0xbfc3de7e	-1.5302274
135	0xbde42f30	-0.11141813
136	0x3e188b7b	0.14896958
137	0x3fd574fe	1.6676328
138	0xbf861a81	-1.0476838
139	0x3f367f90	0.71288395
140	0x3eea4067	0.4575226
141	0x3f59e65e	0.8511714
142	0x3d91eac4	0.07124856
143	0xc02bfc27	-2.6872652
144	0xbef28f1a	-0.47374803
145	0xbf13686f	-0.5758123
146	0x3e80e9b6	0.25178307
147	0xbdacb95e	-0.084337935
148	0x3ed2013d	0.4101657
149	0x3d576442	0.052585848
150	0x3eba3021	0.36364844
151	0xbe18ebf0	-0.14933753
152	0xbf14ba89	-0.5809713
153	0x3caf0f20	0.021369517
154	0xbe0e5a15	-0.13901551
155	0x3f4ddcb2	0.8041488
156	0xbd94a2ce	-0.07257615
157	0xbe87c10f	-0.2651448
158	0xbe06d0fb	-0.13165657
159	0xbe24b626	-0.16085109
160	0x3ea9452a	0.3306058
161	0xbe37e55d	-0.17958589
162	0xbece4df5	-0.40293851
163	0x3e394a66	0.18094787
164	0x3da76f09	0.08175475
165	0xbe9f777f	-0.31145856
166	0xbf0a4d4d	-0.540242
167	0xbebd2ca7	-0.3694813
168	0x3f9934bf	1.1969222
169	0xbe5026bd	-0.20327277
170	0xbc11c1f0	-0.008896336
171	0x3e154da3	0.14580397
172	0x3fdaecd0	1.710352
173	0xbebad83c	-0.364931
174	0x3f712113	0.9419109
175	0x3f23c2d9	0.6396919
176	0xbe64f3f4	-0.22358686
177	0xbf6a19c6	-0.9144558
178	0xbf571747	-0.84019893
179	0xbe3b214b	-0.18274419
180	0xbe8f15dc	-0.27946365
181	0xbe0caa60	-0.13736868
182	0xbf6e078c	-0.92980266
183	0xbdd0b270	-0.10190284
184	0x3fab48ce	1.3381593
185	0xbe8c6d52	-0.27427155
186	0xbeeef00a	-0.4666751
187	0x3f63e8e1	0.8902722
188	0x3debcae6	0.11513309
189	0x3f837997	1.0271481
190	0x3e4ed3b3	0.20197944
191	0xbfbd9b57	-1.4813031
192	0x3ec2e81e	0.38067716
193	0xbfc5cf9d	-1.5453984
194	0xbf939d39	-1.1532356
195	0xbf83e1d8	-1.0303297
196	0xbe141b6f	-0.1446359
197	0x3eee0c7b	0.46493897
198	0x3d47f2c7	0.048815515
199	0xbfa935d6	-1.3219554
200	0xbfa27812	-1.2692893
201	0x3f937379	1.1519614
202	0x3f31fd5c	0.6952722
203	0xbf1b4493	-0.6065151
204	0x3f666122	0.8999196
205	0xbf11e4aa	-0.5698954
206	0x3e7e1213	0.24811582
207	0x3fbc666b	1.4718755
208	0xbeca0566	-0.39457244
209	0xbea3e418	-0.3200996
210	0x3fbdc548	1.482583
211	0x4003310a	2.049868
212	0xbf9cea9d	-1.2259098
213	0xbfa315b8	-1.2741003
214	0x3fc5eade	1.5462301
215	0x40290f95	2.641576
216	0x3f1dbe19	0.6161819
217	0xbf873ab6	-1.0564792
218	0xbe26fc06	-0.16307077
219	0xbfb012ff	-1.3755797
220	0x3fd63655	1.6735331
221	0xbf2be85e	-0.6715144
222	0x3fd4e8c3	1.6633533
223	0x3f56d997	0.83925766
224	0xbfeed81d	-1.8659703
225	0xbf1513b2	-0.5823318
226	0xbf3ed2df	-0.74540514
227	0xbfccce0c	-1.600038
228	0x3f0f5006	0.5598148
229	0xbeb6ef79	-0.35729578
230	0xbf256c00	-0.6461792
231	0xbd5df10c	-0.05418496
232	0xbd16d453	-0.036823582
233	0x3f7ccbe1	0.98748595
234	0x3ebb776f	0.36614558
235	0x3f6ab95c	0.91689086
236	0xbf29958e	-0.6624383
237	0xbdba2a86	-0.09090142
238	0xbf089e28	-0.5336633
239	0xbf4469bd	-0.76723844
240	0x3ef00304	0.468773
241	0xbf5f8005	-0.8730472
242	0xbe1b0b1e	-0.1514096
243	0xbf63d570	-0.88997555
244	0x3e6faac3	0.23404984
245	0x3ec7d4b6	0.39029473
246	0x3ec44522	0.38333994
247	0xbee6ae04	-0.45054638
248	0xbf070569	-0.5274263
249	0xbe5361aa	-0.20642725
250	0x3f530c10	0.8244028
251	0xbf551712	-0.8323833
252	0x3f26f746	0.6522106
253	0xbf54d647	-0.8313946
254	0x3f041926	0.51600873
255	0x3f24ec2a	0.6442286

bias f4 [24]
0	0xbeda893a	-0.4268282
1	0xbecdd99a	-0.4020508
2	0xbfe6e042	-1.8037188
3	0xbf290227	-0.6601891
4	0xbf82a0a7	-1.0205277
5	0xbfeb16df	-1.8366355
6	0xbfc235f9	-1.5172721
7	0xbfec5bfb	-1.846557
8	0x3e671049	0.22564806
9	0xbf140a33	-0.5782806
10	0xbeb52822	-0.3538218
11	0xbfc2b7c5	-1.5212332
12	0xc00bd082	-2.1846013
13	0xc0020462	-2.0315175
14	0xbfce40ba	-1.6113503
15	0xbf384072	-0.71973336
16	0xbe90b5d1	-0.28263715
17	0x3d8385ea	0.064220265
18	0xbfae69ca	-1.3626034
19	0xbfeb1edc	-1.8368793
20	0xbfc016c9	-1.5006953
21	0xc0151916	-2.3296561
22	0xbfeb7bfe	-1.8397214
23	0xbfb9491b	-1.4475435

weight f4 [3, 24]
0	0x3ec184aa	0.37796527
1	0x3bc0e57e	0.0058867326
2	0xbe795344	-0.2434817
3	0xbec4f717	-0.38469765
4	0x3ea4b3ed	0.32168522
5	0xbe19a33e	-0.15003678
6	0xbd4ccbdf	-0.049999114
7	0xbccc2647	-0.024920596
8	0x3f2a60c4	0.665539
9	0x3ec7c77a	0.39019376
10	0x3e8a9235	0.27064672
11	0xbdb9a719	-0.090650745
12	0xbf0632a8	-0.52421045
13	0xbe4e0b51	-0.20121504
14	0xbd889be3	-0.06670358
15	0x3e30cf8c	0.17266673
16	0x3ee4d985	0.44697204
17	0x3f2be176	0.671409
18	0x3f3be438	0.7339511
19	0xbd673576	-0.05644747
20	0x3c5f5512	0.013631122
21	0x3f08f5b3	0.5349991
22	0xbe49327a	-0.19648162
23	0x3eb30fdc	0.34973037
24	0xbec4fed2	-0.38475662
25	0xbe3adcf3	-0.18248348
26	0x3e0cae98	0.13738477
27	0xbe1d0288	-0.15332997
28	0xbe76b9d6	-0.24094328
29	0x3f441dc7	0.76607937
30	0xbdd63558	-0.10459393
31	0x3eab88f3	0.3350292
32	0xbf9a0011	-1.203127
33	0xbecd7681	-0.40129474
34	0xbe38a864	-0.18032986
35	0x3d92b45c	0.07163307
36	0x3f2448f2	0.64173806
37	0x3e4240c3	0.18970017
38	0x3f3bef6e	0.73412216
39	0x3d2a64a2	0.041599877
40	0xbe44d14b	-0.19220464
41	0xbf3dfb06	-0.74211156
42	0xbc85bdef	-0.016325919
43	0x3e3715ef	0.17879461
44	0x3e956882	0.29181296
45	0x3d8398be	0.06425618
46	0x3e95172a	0.29119235
47	0x3e67e8b2	0.2264736
48	0x3e25cd5c	0.1619162
49	0xbe224a23	-0.15848593
50	0x3c59b1b8	0.013287
51	0x3e8ec8f6	0.27887696
52	0xbd81b80b	-0.063339315
53	0xb8de34c0	-0.000105956104
54	0x3df23d08	0.11828047
55	0xbe3cba3e	-0.18430421
56	0xbd1a92f6	-0.03773781
57	0xbedd0d6a	-0.43174297
58	0xbc216187	-0.0098499125
59	0xbde2e885	-0.11079506
60	0xbd9cdada	-0.0765893
61	0xbcfe7cbe	-0.031065341
62	0xbecee647	-0.40410063
63	0xbdc14058	-0.09436101
64	0xbea0d6c2	-0.31413847
65	0xbe82bb59	-0.2553356
66	0xbddd2de2	-0.10799767
67	0xbeb4b71c	-0.3529595
68	0xbe54044a	-0.20704761
69	0xbf2079d6	-0.62685907
70	0x3e722e2a	0.23650423
71	0x3c5a78e0	0.013334483

bias f4 [3]
0	0x3e7956d0	0.24349523
1	0xbfe732b9	-1.8062354
2	0x3ee5cc08	0.44882226
