data/NN_trained_models/trained_net_15118.tar (torch_old, 10179 bytes, 10 tensors)

weight f4 [12, 12]
0	0x4099238b	4.7855887
1	0xc114cfac	-9.300701
2	0x3ff780da	1.9336197
3	0xc006d30e	-2.1066318
4	0x3f422630	0.7583952
5	0xc0bf61ff	-5.9807124
6	0xc0242eee	-2.5653644
7	0x4069efc1	3.6552584
8	0xc03be579	-2.935881
9	0xc132f2b3	-11.184253
10	0xc183a1f8	-16.454086
11	0x3f6662c1	0.89994437
12	0xc06837cd	-3.6284058
13	0xc0a86718	-5.2625847
14	0x4069e154	3.654378
15	0x3e4dc0f3	0.20093136
16	0xc040440e	-3.0041537
17	0xbfe8b16b	-1.8179144
18	0xc094a59a	-4.645215
19	0x40f76630	7.731224
20	0x40148bf8	2.321043
21	0xc0959a6e	-4.6751013
22	0xc0af21c7	-5.472873
23	0xc04bc2d1	-3.1837656
24	0xc0a09361	-5.0179906
25	0x3f3a8567	0.72859806
26	0xc00a4664	-2.1605463
27	0xc0faa727	-7.8329043
28	0xc09f4c4c	-4.9780636
29	0xbf579305	-0.8420871
30	0xc01e0523	-2.4690635
31	0x40de3b1e	6.9447165
32	0xc0284c37	-2.6296518
33	0x40df8ca2	6.985917
34	0xbffdbd04	-1.9823308
35	0xc11f4c44	-9.95612
36	0xbfa8cf9c	-1.3188357
37	0xc1516c0e	-13.088881
38	0xc1144b95	-9.268453
39	0xbf935c2a	-1.1512501
40	0x40851517	4.1588244
41	0xc0e6a144	-7.2071857
42	0x3f4669ce	0.77505195
43	0x409833a5	4.7563043
44	0xc01d588e	-2.45853
45	0xc0a87712	-5.264535
46	0x409653fe	4.697753
47	0xc0f81d03	-7.7535415
48	0x41071bd8	8.444298
49	0x4120e321	10.055451
50	0xbf8c86e1	-1.0978662
51	0x4112b6dd	9.169644
52	0xbff0ab17	-1.8802212
53	0x40cebfd4	6.4609165
54	0xbe7e6928	-0.24844801
55	0xbd0266d7	-0.031836357
56	0x4081561a	4.0417604
57	0x409bbbd9	4.8666806
58	0xc081aab6	-4.0520887
59	0x4078d327	3.8878877
60	0x3f994af3	1.1975998
61	0xc10121d1	-8.070756
62	0xbf52a939	-0.82289463
63	0x408aace4	4.333605
64	0xbfc0eeb0	-1.5072842
65	0xc02cdb4d	-2.700885
66	0x40daaa46	6.8332853
67	0x409a5282	4.8225718
68	0x3f8e1f94	1.1103387
69	0x401225e4	2.2835627
70	0x3ff46c52	1.9095557
71	0xc0ede3a6	-7.434039
72	0x4044fd7d	3.0779717
73	0xc094f735	-4.6551766
74	0x40098da8	2.149271
75	0x41275b7f	10.459838
76	0x4091f5c9	4.561253
77	0x3fb3b6a5	1.4040114
78	0x4130792e	11.029585
79	0xbfceea3a	-1.616523
80	0x40144e6c	2.3172865
81	0xc00853c0	-2.1301117
82	0x409bb210	4.865486
83	0x3e995c5b	0.29953274
84	0xbe8798a0	-0.2648363
85	0xbf028fdf	-0.5100078
86	0xc0a87098	-5.2637444
87	0xbeac9015	-0.33703676
88	0xc089de81	-4.308411
89	0x408095db	4.018293
90	0x40adbfcd	5.429663
91	0x40242a6b	2.565089
92	0x404624cb	3.0959957
93	0x3ff750c6	1.9321525
94	0xc0a963ff	-5.2934566
95	0xc1253d81	-10.327516
96	0x409fc8a4	4.9932423
97	0xc00646b8	-2.0980663
98	0x414345e8	12.204567
99	0xbfc772aa	-1.5581868
100	0x401a0e0c	2.4071074
101	0xc0245e29	-2.568247
102	0x40114405	2.2697766
103	0xc01841fe	-2.3790278
104	0x40b19ce9	5.550404
105	0xbf1418dd	-0.5785044
106	0x3ed791b8	0.42103362
107	0x405d4d68	3.4578495
108	0xbfd4cb5b	-1.6624559
109	0xc08aee9a	-4.341626
110	0x4064fe57	3.5780237
111	0xbff88669	-1.9416019
112	0xc0726eaf	-3.7880056
113	0x406a17fd	3.6577141
114	0xc0fa9db2	-7.83175
115	0x4086db95	4.2143044
116	0x4047e2dc	3.1232214
117	0xc03041ca	-2.7540154
118	0xc1322ef6	-11.136465
119	0x4032d1ee	2.794063
120	0x3f8668e2	1.0500758
121	0xc04e3a36	-3.222303
122	0x3f2deb25	0.6793693
123	0xc00fd151	-2.2471507
124	0xc08977e7	-4.2958865
125	0xc100239d	-8.008695
126	0xc09637b7	-4.694301
127	0xc0858899	-4.1729245
128	0xc053d98a	-3.3101525
129	0xbebc0a5a	-0.36726648
130	0x405f45f4	3.4886446
131	0x3fa9e838	1.3273993
132	0xc07e817c	-3.976653
133	0x40b3da95	5.6204324
134	0xbf91f48e	-1.1402757
135	0x3f556d58	0.8336997
136	0xbf4e7e1a	-0.80661166
137	0x408caaea	4.3958635
138	0xbffe0cc2	-1.9847643
139	0xbfe65e4f	-1.7997531
140	0x407b9167	3.9307497
141	0x41075d58	8.460289
142	0x40dc3f35	6.8827157
143	0x40f17652	7.5456934

bias f4 [12]
0	0x3f515b6b	0.8178012
1	0x40663d30	3.5974846
2	0x408b8e6c	4.3611355
3	0x40c7d47c	6.244688
4	0xbf561e53	-0.8364002
5	0x40b8ec39	5.778836
6	0x4088c107	4.273563
7	0xc0a92c80	-5.286682
8	0xbf6011f5	-0.875274
9	0xbf313371	-0.6921912
10	0x41552074	13.320423
11	0x3d001618	0.03127107

weight f4 [12, 12]
0	0x40d188a7	6.547931
1	0x3f88cbf0	1.0687237
2	0x3e52f296	0.20600352
3	0x412d8710	10.845474
4	0xbfed4b6b	-1.8538641
5	0x4105e0c3	8.367373
6	0x4112f817	9.185569
7	0x4050a57a	3.2601
8	0xbff81a61	-1.938305
9	0x4034d11c	2.825263
10	0x40846df9	4.1384244
11	0xc07260b0	-3.7871513
12	0xc13a32fd	-11.637448
13	0xc0bca63e	-5.895293
14	0x4075f09c	3.8428106
15	0xc08d829a	-4.4221926
16	0x4129c0c6	10.609564
17	0xbfda89a5	-1.7073256
18	0xc078adbe	-3.8856044
19	0x40fe0cfe	7.939086
20	0xc02fe024	-2.7480555
21	0xc0a5ac6b	-5.177297
22	0x40876bc7	4.2319064
23	0x3e37aad8	0.17936265
24	0xc09a7136	-4.8263197
25	0xbe598783	-0.212431
26	0xc0b08ca2	-5.517167
27	0xbfd39f34	-1.653296
28	0xc1212a3e	-10.072813
29	0xbff6cc70	-1.9281139
30	0xc0884120	-4.25795
31	0xc10b396f	-8.701522
32	0x4104fadc	8.311245
33	0xbfee28d7	-1.8606213
34	0x4068a388	3.6349812
35	0xc0596643	-3.3968666
36	0xbff55a15	-1.9168116
37	0x3f759945	0.95936996
38	0x40b202a9	5.5628247
39	0x3d959a1e	0.07304786
40	0x40b2a4ac	5.5826015
41	0x40383495	2.8782094
42	0x3f6eafce	0.93237007
43	0x401befa5	2.4365017
44	0xc1203b19	-10.014428
45	0x40c01fac	6.003866
46	0x408992d9	4.2991757
47	0x40ceb58f	6.459663
48	0xc086cec8	-4.212742
49	0xc0780d81	-3.8758242
50	0x3f46baf4	0.7762902
51	0xbfb1a037	-1.3877019
52	0x411b8580	9.720093
53	0xbfc2bb99	-1.52135
54	0xbfea3b06	-1.8299263
55	0x405262ad	3.2872727
56	0xc08d1cf4	-4.4097843
57	0xbfa5ccd6	-1.2953136
58	0xc00564e3	-2.0842826
59	0x40f7e5f3	7.74682
60	0x411647b7	9.3925085
61	0x408670be	4.2012625
62	0xbfbbc38b	-1.466905
63	0x4115d3b7	9.364188
64	0xc1151b11	-9.319108
65	0x410f1a3c	8.943905
66	0x410f4059	8.95321
67	0x3f9de281	1.2334749
68	0x3d4f39a1	0.05059207
69	0x40609a18	3.5094051
70	0x40fc17ed	7.8779206
71	0xc101fcd1	-8.124223
72	0xc0836ba0	-4.106888
73	0xc0757ab7	-3.835615
74	0xbfb333a4	-1.4000134
75	0xc0cc883d	-6.3916306
76	0x4024629f	2.5685194
77	0xc04bdd40	-3.185379
78	0xc02ff374	-2.7492342
79	0x408dcecf	4.431495
80	0x3f412954	0.75453687
81	0xc096cda8	-4.7126045
82	0xc0e3650d	-7.1060853
83	0x40ae3d19	5.444958
84	0xc0c04c93	-6.0093474
85	0xc114ce9a	-9.30044
86	0xc0957006	-4.6699247
87	0x40c3e1d5	6.1213174
88	0xc01704d3	-2.3596694
89	0x40064cd5	2.0984395
90	0x40111139	2.2666762
91	0xbffcd6d7	-1.9753064
92	0x3e476a55	0.19474156
93	0xc10f7be5	-8.967748
94	0xc01ab411	-2.4172404
95	0xc01c48d9	-2.4419463
96	0x4110eb91	9.057511
97	0x40b8369a	5.756665
98	0x3ff25f7c	1.893539
99	0x4117dab7	9.490897
100	0x40b7b0fd	5.740355
101	0x4116128d	9.379529
102	0x40f88737	7.7665057
103	0x408733b6	4.2250624
104	0xc109b318	-8.606224
105	0x40c045ec	6.0085354
106	0x4114a06a	9.289164
107	0xc00f723f	-2.241348
108	0xc1020cff	-8.128173
109	0xbf9513f2	-1.1646712
110	0x408fcade	4.493514
111	0xc07401f8	-3.8126202
112	0x410e576c	8.896343
113	0xc0040780	-2.0629578
114	0xc03909a3	-2.8912132
115	0x4106b3d3	8.418902
116	0xc0bab94a	-5.8351183
117	0xbf0790ba	-0.5295521
118	0x3f6dae9f	0.92844576
119	0x40aa4b48	5.3216896
120	0xbff447db	-1.9084429
121	0x3da25ecd	0.07928238
122	0xba96da86	-0.0011509217
123	0x3f728d64	0.94746995
124	0x4001a45a	2.0256562
125	0xc0b62745	-5.6922936
126	0xc08ccf6b	-4.4003196
127	0x3c3bece7	0.011470056
128	0xbf01c308	-0.5068822
129	0x3fe5f1d6	1.7964427
130	0xc0d3ee59	-6.622845
131	0x4060a046	3.5097823
132	0x407d2b7a	3.9557786
133	0x3fbcac20	1.4740028
134	0xbed1aa35	-0.4095017
135	0xc127590c	-10.45924
136	0xc00be141	-2.1856234
137	0xc143806d	-12.218854
138	0xc0c9bc67	-6.3042483
139	0xc085f3e3	-4.1860213
140	0x40a574eb	5.170522
141	0x40703786	3.753389
142	0x40e63e57	7.19511
143	0x4052e20d	3.295047

bias f4 [12]
0	0x40d9c901	6.8057866
1	0x4103d0f4	8.238514
2	0x40afe287	5.4964023
3	0x4060ee2c	3.5145369
4	0xc01a9f8e	-2.4159884
5	0x40594b33	3.3952148
6	0xc0af7e9f	-5.4842067
7	0x405ee57b	3.4827564
8	0x40c7bfcb	6.242162
9	0x3e31b5ba	0.1735448
10	0xc090162e	-4.5027075
11	0x4112bae8	9.170631

weight f4 [12, 12]
0	0xbe751411	-0.23933436
1	0x3e435d1e	0.1907849
2	0xc0957a52	-4.6711817
3	0x3ed6ec00	0.4197693
4	0x40186b06	2.3815322
5	0xc0b6c25f	-5.711227
6	0x4047e7ee	3.1235309
7	0x405c7019	3.444342
8	0xbf629691	-0.88510996
9	0xbf81e2fa	-1.0147393
10	0x40535a0c	3.302371
11	0xc0e7ed41	-7.2477117
12	0x40b94b22	5.7904215
13	0xc0cd861a	-6.42262
14	0xbf0fc22e	-0.5615567
15	0x408aae15	4.3337502
16	0xbfeaa644	-1.833199
17	0x40463201	3.096802
18	0xc0a77e96	-5.2342024
19	0xc06d194d	-3.7046692
20	0x40cc9ec3	6.39438
21	0xc0002428	-2.0022068
22	0xbf78a6fd	-0.97129804
23	0xbf850ee9	-1.0395175
24	0xc09a5049	-4.8223004
25	0xc08d02b8	-4.406582
26	0x406e9759	3.7279875
27	0xc0f27669	-7.5769544
28	0xc0bdb6c0	-5.9285583
29	0xbed81529	-0.42203644
30	0xbf6e2db2	-0.93038476
31	0x404c6e00	3.1942139
32	0xc10ba63b	-8.728084
33	0xc0c3578c	-6.104437
34	0x3f9975eb	1.1989111
35	0xc02585c8	-2.5862904
36	0xbf7560ee	-0.9585103
37	0xc0abbb46	-5.3666105
38	0xbfebbf86	-1.8417823
39	0xc0b261eb	-5.574453
40	0xc03cf3d3	-2.9523818
41	0xbf619c2c	-0.88128924
42	0xbd5d42d2	-0.054018803
43	0x4083ebf1	4.1225514
44	0xc05e01a0	-3.4688492
45	0xc0c6c0f1	-6.2110524
46	0x3fb8da0b	1.4441541
47	0xc0b76f2c	-5.732321
48	0x40e10e0b	7.032964
49	0xc0a0a2b4	-5.019861
50	0x3f89f989	1.0779277
51	0x401ea277	2.478666
52	0xc0d4f0b7	-6.654384
53	0x408b2e39	4.3493924
54	0xc0c17568	-6.045582
55	0x3e90b988	0.2826655
56	0x40d6cee3	6.7127547
57	0xc0d8242b	-6.754415
58	0xc0794f82	-3.8954778
59	0xc0b68ca9	-5.7046704
60	0x403ef094	2.9834337
61	0x40d9f387	6.8109775
62	0x4104c964	8.299168
63	0x4062d58c	3.5442839
64	0x401029ea	2.2525582
65	0x4091f580	4.5612183
66	0xbfc9d488	-1.5767984
67	0x40a216e6	5.065295
68	0x40822888	4.0674477
69	0x3f9ce99f	1.2258795
70	0xbdb11566	-0.086466596
71	0x4101d980	8.115601
72	0xc08aa5b2	-4.3327265
73	0xbfe369d0	-1.7766666
74	0xbe487846	-0.1957713
75	0x3e81a788	0.2532313
76	0x3e826d2b	0.25473914
77	0xbfe8b030	-1.8178768
78	0xc0007d98	-2.0076656
79	0xc0833d69	-4.1012464
80	0xc01d73ea	-2.4601998
81	0xbf10f11c	-0.56617904
82	0x3f7e12c6	0.99247396
83	0x40837099	4.107495
84	0xbeab676d	-0.33477345
85	0xbe844e0e	-0.258408
86	0xbf591a29	-0.8480554
87	0xbe52e086	-0.20593461
88	0xbd7a3780	-0.061088085
89	0xbf444dc3	-0.76681155
90	0xbd7b6d37	-0.061383452
91	0xbefc7bb6	-0.49313134
92	0xbedb2699	-0.42802885
93	0xbdace6c1	-0.0844245
94	0xbcf57359	-0.029962229
95	0xbf24175e	-0.64098155
96	0xc117d1a5	-9.488683
97	0xc0527e3a	-3.2889543
98	0x3fd9b930	1.700964
99	0xbf1d1d06	-0.6137241
100	0x3f9e4c25	1.2366987
101	0xc1245490	-10.270645
102	0xbb2200e6	-0.0024719774
103	0xc0aa59db	-5.3234687
104	0xc09a7ece	-4.827979
105	0xbf811a1e	-1.0086095
106	0x3eaa109b	0.33215794
107	0x406222e2	3.533379
108	0xc03c24f3	-2.9397552
109	0x404adbd1	3.1696665
110	0x411385e5	9.220189
111	0xc00974ed	-2.1477616
112	0x3f445a6e	0.76700485
113	0xc02e652e	-2.7249255
114	0x4044b037	3.0732553
115	0x3ffaa0d3	1.958033
116	0xc0f05e3a	-7.5115023
117	0x3fe26a4e	1.7688692
118	0x3e2a124a	0.16608539
119	0x40917e43	4.546663
120	0xbf72025a	-0.9453484
121	0xc118d328	-9.551552
122	0xbf7c00d2	-0.9843875
123	0xc000ede3	-2.0145195
124	0xc090c7c2	-4.5243845
125	0x40c16cf3	6.0445495
126	0xc067de89	-3.6229575
127	0xc100528f	-8.020156
128	0xbf6e40ec	-0.9306781
129	0xc0b98707	-5.797733
130	0xc03b7310	-2.9288979
131	0x3fe36e7a	1.776809
132	0xbfb2e0ac	-1.3974814
133	0xbfa1d930	-1.2644405
134	0xc09b7c58	-4.8589287
135	0x40d68be1	6.704575
136	0x3f2900ed	0.6601704
137	0x3f8cb744	1.0993428
138	0xc035a7c6	-2.838365
139	0xc07e3048	-3.9716969
140	0x40ce0911	6.4386067
141	0x40316a7f	2.772125
142	0x3f9d319d	1.2280766
143	0x3ffbc7fb	1.9670404

bias f4 [12]
0	0x3d3d4bd5	0.046214897
1	0x3dee09a8	0.116229355
2	0xbfdf8e6e	-1.7465341
3	0xbec9e7a1	-0.3943453
4	0x3f5d1ca2	0.86371815
5	0x409e24ef	4.9420085
6	0x3d1ba876	0.038002454
7	0xb61b4968	-2.3139528e-06
8	0xc06125ca	-3.5179315
9	0xbecef39d	-0.40420237
10	0xbe9ba975	-0.30402723
11	0xbf8333ad	-1.0250145

weight f4 [12, 12]
0	0x3e921749	0.2853339
1	0x3fc173ea	1.5113499
2	0xbfad4d67	-1.3539246
3	0x3f803191	1.0015126
4	0xc0409276	-3.0089393
5	0x40a31f9d	5.097609
6	0x3e12717e	0.14301106
7	0x3e7f6c41	0.2494364
8	0x3fb3658a	1.4015362
9	0x3f126dae	0.5719861
10	0xbe864fe5	-0.2623283
11	0x408636d4	4.194193
12	0xc0aa823a	-5.328397
13	0xc12645ce	-10.392042
14	0x405023c3	3.2521827
15	0x408576fb	4.170774
16	0x4038bf25	2.8866665
17	0x40031067	2.0478761
18	0xbf43db55	-0.7650655
19	0xbfb2d61f	-1.3971595
20	0x405d8658	3.4613247
21	0x3fffe48f	1.9991626
22	0xc0560cfb	-3.3445423
23	0xc028160f	-2.6263463
24	0xbfe346ca	-1.7755978
25	0x3fbf6822	1.4953654
26	0x3fc64124	1.5488629
27	0xbe130e5c	-0.14360946
28	0x3f53089c	0.8243501
29	0x40512958	3.2681484
30	0x4055ee5b	3.342673
31	0xbaa604b4	-0.0012666197
32	0x4092107d	4.5645127
33	0x40473e24	3.1131678
34	0x4020954d	2.5091126
35	0xbe9119ac	-0.283399
36	0xbf794b07	-0.9738011
37	0xbefbd8af	-0.49188754
38	0xbfc868a7	-1.5656937
39	0xbd6f272e	-0.058386974
40	0xbf1a9158	-0.60378027
41	0xbf429c66	-0.76019895
42	0xbe743a7c	-0.23850435
43	0xbd2a3d60	-0.041562438
44	0xbf5009f0	-0.81265163
45	0xbf873100	-1.0561829
46	0x3d1338fa	0.03594301
47	0xbfa18024	-1.261723
48	0x3ec10a3d	0.37703124
49	0x3fab317f	1.337448
50	0x3f0e379b	0.555536
51	0x3f04e272	0.5190803
52	0x40555c6f	3.3337667
53	0x400f681a	2.2407289
54	0x3c6526cd	0.013986302
55	0x370056a3	7.649566e-06
56	0x3ee5247d	0.447544
57	0x40116759	2.2719328
58	0x3fb7e73f	1.4367446
59	0x3fb64465	1.4239622
60	0xbdf803e8	-0.1211012
61	0x3f336284	0.700722
62	0x3ed8364d	0.42228928
63	0x3eade424	0.3396312
64	0x3f0e093f	0.5548286
65	0x3f82aad3	1.0208381
66	0x3ebf4ef4	0.37364924
67	0x3b4de2c7	0.0031415687
68	0x3e3bbf07	0.1833459
69	0x3f46d820	0.7767353
70	0x3e48f01e	0.19622847
71	0x3f12d258	0.5735221
72	0xc06488a8	-3.5708408
73	0x40959041	4.673859
74	0xc0a68412	-5.203622
75	0xc0232133	-2.5489013
76	0xc0c46510	-6.1373367
77	0xc05210cf	-3.282276
78	0x3fc0c2f8	1.50595
79	0xbd7bce87	-0.061476257
80	0xc01a9a89	-2.415682
81	0xc0816537	-4.0436053
82	0x408d6ad7	4.419292
83	0xbff44848	-1.9084558
84	0xbd70efa2	-0.05882228
85	0xbf64ee57	-0.8942618
86	0xbf348360	-0.7051296
87	0xbf8f77e5	-1.1208464
88	0x3f0b8ea1	0.5451451
89	0xbf2cf9c7	-0.6756863
90	0xbda356bf	-0.0797553
91	0xb79ecd37	-1.8930628e-05
92	0xb978d858	-0.00023731717
93	0xbf6c0073	-0.92188185
94	0x3f01a342	0.50639737
95	0xbfdbbf04	-1.7167668
96	0x3d6e305a	0.05815158
97	0xc02dccbc	-2.715621
98	0xbe801446	-0.25015467
99	0xbe853b02	-0.26021582
100	0xbf218816	-0.63098276
101	0xbff154e7	-1.8854035
102	0xbe99d375	-0.3004414
103	0x3e0433b0	0.12910342
104	0x3e2b8a0a	0.16751876
105	0xbf73bbdb	-0.9520852
106	0xbe68f520	-0.22749758
107	0xbf277e5b	-0.6542718
108	0x3f4d46d9	0.8018623
109	0x400d79d1	2.21056
110	0x3f4563e6	0.7710556
111	0xbe84eed0	-0.2596345
112	0x3f38f5a4	0.7224982
113	0x3fe4de20	1.7880287
114	0x3f378c5c	0.71698546
115	0xb4b0ba96	-3.2918314e-07
116	0xbebbeb80	-0.3670311
117	0x3e95646f	0.29178187
118	0xbd44dcd8	-0.048062176
119	0x4001d9c5	2.0289166
120	0xbe1f840d	-0.15577717
121	0x3f26102c	0.64868426
122	0xbf1b8a40	-0.6075783
123	0xbf446806	-0.7672123
124	0xc06adef3	-3.6698577
125	0xbfc1227b	-1.5088648
126	0xbf36761b	-0.71273965
127	0x384d52be	4.895287e-05
128	0xbfdf85bf	-1.7462691
129	0xc05ef72c	-3.4838362
130	0xbf04d730	-0.5189085
131	0xbe9f059b	-0.31058964
132	0xc05e0897	-3.4692743
133	0x3fb1cdc5	1.3890921
134	0x3e27bc08	0.16380322
135	0xbfaa3826	-1.3298385
136	0x40a5c15a	5.1798525
137	0xc0c231a1	-6.068558
138	0x40533632	3.3001828
139	0xbed190f1	-0.40930894
140	0xbf879747	-1.0593041
141	0xc1260049	-10.37507
142	0x4074f402	3.827393
143	0x40484da8	3.1297398

bias f4 [12]
0	0x403b0aae	2.9225268
1	0x3fbd3ea6	1.4784744
2	0x402c5d4b	2.6931942
3	0xbfc791df	-1.5591391
4	0x405a8b48	3.414751
5	0x3fad03f5	1.3516833
6	0xc08225d9	-4.06712
7	0xc047f85d	-3.124534
8	0xbfef64ab	-1.8702596
9	0x402114f8	2.5169048
10	0xc02588a0	-2.586464
11	0xbfb34195	-1.4004389

weight f4 [3, 12]
0	0x3f576627	0.8414025
1	0xbea29842	-0.31756788
2	0xbf108859	-0.5645805
3	0x3ebe92cb	0.3722137
4	0x3f019914	0.50624204
5	0xbeb9ecc9	-0.36313465
6	0x3d96328a	0.07333858
7	0x3f7cc408	0.9873662
8	0xbd09a73a	-0.033606745
9	0xbddd09f8	-0.10792917
10	0xbe5a73e6	-0.21333274
11	0x3f368583	0.7129747
12	0xbec70028	-0.38867307
13	0x3f25afa1	0.64721113
14	0x3f6ce28c	0.92533183
15	0xbe0f64b7	-0.14003263
16	0xbe8cc213	-0.27491817
17	0xbd97169e	-0.07377361
18	0xbf6ab4eb	-0.9168231
19	0xbeec92c2	-0.46205717
20	0x3f99adff	1.2006224
21	0xbf30df90	-0.6909113
22	0xbd592da2	-0.053022034
23	0xbfc9df30	-1.5771236
24	0xbeeb5fec	-0.4597162
25	0x3e23ef70	0.16009307
26	0xbd9d2444	-0.07672933
27	0xbf25e26f	-0.64798635
28	0xbeefe470	-0.4685397
29	0x3ed3230d	0.4123768
30	0x3f1e8934	0.61928105
31	0xbea24163	-0.3169051
32	0xbf03f5b5	-0.51546794
33	0x3ea93d49	0.3305457
34	0x3e62a72e	0.22134086
35	0xbc8018d6	-0.015636843

bias f4 [3]
0	0x3f56eea6	0.839579
1	0xc019d0ea	-2.403376
2	0x3f067cf8	0.5253444
