data/NN_trained_models/trained_net_3866.tar (torch_old, 7674 bytes, 4 tensors)

weight f4 [24, 12]
00000000: 3536 1b3f b9a3 cebe faf3 e7be c5bc 423c
00000010: 771b a9be 0cff 4d3e ff41 4c3f 1f3a 403e
00000020: abe5 963e 3128 18bf b0ca 91be 8b5e 783e
00000030: 338e 56bd 87a5 1a3f 6794 51be 8c7f 953e
00000040: eb01 7dbf 1fce 69be 1478 57be 79c9 353e
00000050: 2419 d5be 9a7a f03e 85d5 43be ad20 113f
00000060: e173 a7be a9ab 8f3e 5511 d33d 38d7 263f
00000070: ef60 803d 7c66 293e 74de f3be 149e b2be
00000080: 39d0 ad3e b9e5 a73e 7884 f83e bf2a 1fbe
00000090: de52 d6be ca25 dcbe 296f b53e 43eb ca3d
000000a0: 13fa 853e 79ac 9cbe b269 34be 5772 fa3d
000000b0: 161c 093f 9c49 023f 0fe4 473e bbf0 583e
000000c0: f839 0bbf 7cee 42be 0180 d1bf b806 403f
000000d0: e4d0 95be 5ecb 813d 6bca 17be ad81 b53f
000000e0: 7775 5bbe b884 5abd 9eaf b33d e1e9 08bf
000000f0: ca52 f6be 3e50 9b3e 75ec 10bf 04a3 b93f
00000100: 8fbf a6bc 67e8 5d3e a5eb 7ebe 77f8 ef3e
00000110: 472f c83d b329 813d da97 01be 5124 3bbe
00000120: 4c05 79be 3832 e1be 62b2 b73e cd26 813f
00000130: 8cf8 4d3e 8f5b fe3d 0bdc 04bf 395a 53bd
00000140: 70bf 0d3f cdfe 0cbe aa02 003e 3a9e b03e
00000150: 996a 99be 17b5 d93e 889f 2a3f 9b86 28be
00000160: 8574 023c 3b1c 0c3e 0744 a3be a5ff 18bf
00000170: 78f0 353e c346 94be 78e5 8abd 47e4 493f
00000180: 5c3c 90be f1d3 d2be 7014 313e 1766 bc3e
00000190: 48b8 47be 6d70 ac3e c499 aa3d 955b 40bd
000001a0: 455f 613f f4a1 173f 6d8a 3abe 658f cb3e
000001b0: 2c12 9d3e a301 013f b97d a9be 5bee db3e
000001c0: 4422 0bbf 7e7c 8dbe 6e4d 1d3f 28e7 21bf
000001d0: 78b5 0e3f 84d4 f4bd b034 b5be 11e1 3f3f
000001e0: 6ad2 a43e 81c4 1cbf 8ce9 e0bd 8b8d 7c3d
000001f0: e0e9 2ebe f46b 3bbe 9696 8ebd 0114 09bf
00000200: e5b4 c63c 9af5 abbe be12 023d 2980 003e
00000210: d956 debe 488e af3d 47a1 af3e f27b 91be
00000220: 2361 8f3f 1ed1 2bbe 1204 b8bd 0654 133d
00000230: 3ee5 c2be 7ce8 dc3e 7de9 9dbd 1203 a13e
00000240: a5a3 af3d e276 27bf 5ee5 bb3e 9927 81be
00000250: 2853 673e a3b8 963d 23af fe3e 8b8d 683e
00000260: fa7e 963e d772 703e a632 b43e 9953 133d
00000270: 1549 053f 2fa1 18bd dde4 3dbf 7b82 323e
00000280: 8f77 113d 7bc5 c83e 1234 94be 66ec a63d
00000290: 259c 563e 109f 703c 5412 c4bd bb4a c23e
000002a0: 894a 90bd 9575 9b3e 790e ddbe 5ee2 36be
000002b0: 4a3b 0d3e f6d6 bc3c 8692 c6be 17b4 943d
000002c0: 8713 713e c6dc c2be b586 a13e 7dd6 c7be
000002d0: 797c a83e abe3 943e ee56 e93e e3e0 903d
000002e0: bb82 dc3d f19e 44bd 2fa4 bb3d 3383 bdbe
000002f0: 71b4 373e e838 e03e df8f dcbd 9261 283d
00000300: d93c 13be 82fe 703e 306e 5fbc 2c5d 94bd
00000310: 2bf2 863d daeb 093f c86b 1d3f aa7c 383f
00000320: 3ddc 773e 14be eb3d e9b1 91be d0dd 093e
00000330: e214 82be 4aa6 0fbf 0545 f13d 8c72 473f
00000340: a3c6 10be f5fa 0dbe 735b f4be 10a0 373f
00000350: 3e71 09bf cd2c 7a3c a473 0dbf 7c2e 3abe
00000360: 14c2 44bf d1c9 8dbe 2064 afbe 130c a8be
00000370: abef 48be 144f 5e3f 9f35 40bf 4fa9 513f
00000380: 701b 2ebe bdaf 803e 2b9f f43e 3aec e83a
00000390: cdcd 843d 1320 28bf 9091 de3b 19bd 153f
000003a0: 260f 82be 9710 bb3e f6f2 303a d99a ab3e
000003b0: 681c 053b 5a98 ca3e aa87 98be f023 a3bd
000003c0: afe1 143e 3c8d 5b3d 9104 acbd 06cc 39bf
000003d0: b861 90be c63e 04be 274d 433f caba 3e3f
000003e0: 4ed3 7dbe 40af c8be 2c4d e9be 1ae5 5e3e
000003f0: 8977 ae3e fb5a 04be 9fda 98bd a523 09be
0.6062959 -0.40359285 -0.45303327 0.0118858265 -0.33028767 0.20116824 0.797882 0.18772171
0.29472098 -0.5943633 -0.2847495 0.24254815 -0.052381705 0.60408825 -0.20466767 0.29198873
-0.9883105 -0.22832535 -0.210419 0.17752637 -0.41620743 0.46968538 -0.1912442 0.56690484
-0.32705596 0.28060654 0.1030604 0.6517215 0.062684886 0.16543001 -0.47630656 -0.3488623
0.33947924 0.32792452 0.48538566 -0.1554365 -0.41860098 -0.4299758 0.3543637 0.09908154
0.26167354 -0.30600336 -0.17618445 0.1222884 0.5355848 0.5089357 0.19520591 0.21185581
-0.5438533 -0.19036287 -1.6367189 0.7501025 -0.29260933 0.06337617 -0.1482331 1.4180199
-0.21431528 -0.053349227 0.08773731 -0.5348187 -0.48110038 0.30334657 -0.56610805 1.4502873
-0.020355014 0.21670686 -0.24894579 0.4686925 0.097746424 0.063067816 -0.12655583 -0.18275572
-0.24318427 -0.43983626 0.35878283 1.0089966 0.20114344 0.12419807 -0.5189826 -0.051599715
0.55370235 -0.13769074 0.12501016 0.34495717 -0.2996414 0.42520973 0.66649675 -0.16457598
0.007962351 0.13682644 -0.31887838 -0.5976508 0.17767513 -0.28960237 -0.06782049 0.7886395
-0.2817105 -0.41177323 0.17292953 0.36796638 -0.19503891 0.33679524 0.0833011 -0.04696234
0.88035995 0.59231496 -0.18216868 0.3975784 0.30677927 0.5039312 -0.3310373 0.42955288
-0.5434916 -0.27634043 0.61446273 -0.6324334 0.5574565 -0.11954597 -0.3539176 0.749528
0.32191783 -0.6123734 -0.109820455 0.061658423 -0.17081404 -0.183029 -0.06962316 -0.5354615
0.02425618 -0.33585817 0.031756155 0.12548889 -0.43425635 0.0857206 0.34302732 -0.28414875
1.1201519 -0.1677899 -0.08985151 0.035968803 -0.38065523 0.43146122 -0.0771055 0.31447655
0.085761346 -0.65415776 0.3669843 -0.25225523 0.22590315 0.073594354 0.49742994 0.22710244
0.2939375 0.23481308 0.35194892 0.035968397 0.5206464 -0.03726309 -0.7417734 0.17432587
0.03551441 0.39213166 -0.28945976 0.08150558 0.20958002 0.014686361 -0.09573808 0.3794764
-0.070454665 0.30363145 -0.43175104 -0.1785979 0.13792148 0.02305172 -0.38783664 0.07260912
0.23542605 -0.38059062 0.31548086 -0.3903083 0.32907465 0.29079947 0.45574135 0.07074144
0.10767122 -0.04800314 0.09162175 -0.3701416 0.17939927 0.43793416 -0.10769629 0.041108675
-0.1437868 0.23534587 -0.013637111 -0.072443336 0.065891586 0.53875506 0.61492586 0.7206522
0.24205108 0.11510864 -0.28456047 0.13463521 -0.25406557 -0.5611311 0.117807426 0.7790916
-0.14138274 -0.13865264 -0.4772602 0.7172861 -0.5368842 0.01526947 -0.5525458 -0.18181795
-0.7685864 -0.27693036 -0.34256077 -0.32821712 -0.19622676 0.86839414 -0.7508182 0.8189897
-0.17002654 0.25134078 0.47777686 0.0017770596 0.06484566 -0.6567394 0.0067922547 0.58491665
-0.25402182 0.36536095 0.0006750071 0.33516577 0.002031112 0.3956936 -0.29791003 -0.07965839
0.14539216 0.05360149 -0.083993085 -0.7257694 -0.28199553 -0.12914571 0.762896 0.7450377
-0.24787638 -0.39196205 -0.4556669 0.21767083 0.34075573 -0.12925331 -0.07463574 -0.13392504

bias f4 [24]
00000000: 84dd 6abf 91b5 80be 37c9 2fbf c523 293f
00000010: bc38 7bbe 4084 01bf 736e 08bf bbad 2bbe
00000020: 1368 703f 69fe 86bd f6e2 18be 3057 1b3f
00000030: 897f 533c b374 993e abc3 6fbf 44a5 4fbe
00000040: 6a60 dbbd 40ee e8be 9592 1d3e 4ac7 0d3e
00000050: 4aff 1a3f a9f3 02bf 2a6a 4e3e 5f52 a23e
-0.91744256 -0.25138524 -0.68666404 0.66070205 -0.24533361 -0.5059242 -0.5329353 -0.16765492
0.93908805 -0.06591494 -0.14930329 0.6067991 0.012908825 0.29971847 -0.9365794 -0.20277888
-0.10711749 -0.4549427 0.15387948 0.13845554 0.6054579 -0.51153046 0.20157686 0.3170347

weight f4 [3, 24]
00000000: 6a3f 8b3c 5b7b 36bf d1f9 16bf d9f0 843e
00000010: a855 3a3f 8804 b03e 5eea 6cbf ebb4 7ebe
00000020: ff06 4a3f a22c 9fbe ac71 cd3e 0983 173d
00000030: d774 153f 498b 02bf 586c 5abf 3a0a 17be
00000040: 8fea cabe 1e6a 3a3f 38ec f03e 4080 ba3e
00000050: 3c10 0d3f 262e 91bd 0f26 28bf 364d 133f
00000060: 6b19 353f 615e cb3e a65a 543f 044d 0ebf
00000070: 8b22 16bf ce0e 953e 6ce4 5ebd 4e84 323f
00000080: 0b87 c7be 31f2 6fbe 9c93 6ebe 8e4a 6abf
00000090: 5476 203d d61f ecbd dc7a 203f e51a 3b3e
000000a0: a930 57bd 8455 90be bea2 5a3e ff9c 44bf
000000b0: a460 0abf b22a 6f3f c988 933e b0f9 a5be
000000c0: ad85 29bf f478 293e abcb 83be ac86 b33c
000000d0: 9ebd 0cbf 99af 9dbe 83a3 103f df33 94be
000000e0: 293b 77be acb0 193f 7164 bbbe 0a82 fa3e
000000f0: 3b05 dbbe 434a f03e 8ed0 673d 52a6 62be
00000100: 50ec 9d3e 1013 d1be 1fc2 15bf 193b e23d
00000110: 14fd 973e dbcd f2be 35eb 943e 7992 1cbf
0.016998012 -0.71281976 -0.5897494 0.25965002 0.7278695 0.34378457 -0.92545116 -0.24873702
0.78916925 -0.3108874 0.40125787 0.0369902 0.5838141 -0.5099378 -0.8532157 -0.14749995
-0.3963208 0.7281817 0.4705522 0.36425972 0.55102897 -0.0708888 -0.6568307 0.5753969
0.7074191 0.39720443 0.8295082 -0.55586267 -0.5864646 0.29112858 -0.05441706 0.6973313
-0.38970217 -0.23432232 -0.23298496 -0.9152001 0.039175346 -0.1152951 0.6268747 0.18271978
-0.05253664 -0.28190243 0.21351144 -0.7680206 -0.5405371 0.9342452 0.28815296 -0.3241706
-0.662196 0.16550046 -0.25741324 0.021914802 -0.5497683 -0.30798033 0.564995 -0.28945825
-0.24143662 0.60035205 -0.36600068 0.48927337 -0.42777428 0.46931657 0.056595378 -0.22133759
0.30844355 -0.40834856 -0.5849933 0.11046428 0.2968527 -0.4742268 0.290857 -0.61161

bias f4 [3]
00000000: d6d0 013e 637f 5bbe b4f8 0d3e
0.12677321 -0.21435313 0.13864404
