data/NN_trained_models/trained_net_10455.tar (torch_old, 7714 bytes, 8 tensors)

weight f4 [6, 12]
0	0xbe092fe0	-0.13397169
1	0xbef83a85	-0.48482147
2	0xbedd1597	-0.43180534
3	0xbf07118f	-0.5276117
4	0xbea241ed	-0.31690922
5	0x3e2d2ec4	0.16912371
6	0x3e414f4d	0.18877907
7	0xbf86e835	-1.0539614
8	0xbe8f1fe5	-0.2795402
9	0x3e2f0d27	0.17094861
10	0x3ed7c833	0.42144927
11	0xbca4af0c	-0.020103
12	0x3eb8dfce	0.3610825
13	0xbf27f29b	-0.6560456
14	0xbf5e5418	-0.86847067
15	0xbe5b62bf	-0.21424387
16	0xbf8e0df8	-1.1098013
17	0x3e89d2e8	0.2691872
18	0x3f268514	0.6504681
19	0x3f003d14	0.500932
20	0xbf6efffa	-0.9335934
21	0x3d8c4d9b	0.068507396
22	0x3ece1488	0.4025004
23	0x3e508eb4	0.20366937
24	0x3d95cb6d	0.07314191
25	0xbeefd214	-0.46839964
26	0xbe20a481	-0.15687753
27	0x3dc3a52f	0.09552991
28	0xbef8f81a	-0.48626786
29	0x3f517dd4	0.81832623
30	0x3edd2aee	0.43196815
31	0x3de1902e	0.11013828
32	0x3e57c071	0.21069504
33	0xbf4b60b5	-0.7944444
34	0xbf6248aa	-0.88392127
35	0xbdacc067	-0.08435135
36	0xbf031f46	-0.51219594
37	0xbf2db012	-0.67846787
38	0xbfac8f71	-1.3481275
39	0x3f711d78	0.9418559
40	0xbe6716b6	-0.22567257
41	0x3f3fd81b	0.74939126
42	0xbd312c04	-0.043254867
43	0x3f827c17	1.0194119
44	0xbeab80a7	-0.3349659
45	0x3dfd2027	0.12359648
46	0xbe3a6f48	-0.18206513
47	0xbf47bef4	-0.78025746
48	0x3e4f10f5	0.20221312
49	0x3f8a1290	1.0786915
50	0xbecd9db4	-0.4015938
51	0xbcea85ad	-0.028628195
52	0x3ed21c08	0.4103701
53	0x3ed5807e	0.41699594
54	0x3ebe48cc	0.37164915
55	0xbf3eb308	-0.7449193
56	0x3f0d5761	0.55211455
57	0xbec1f6b1	-0.37883523
58	0xbd4079b2	-0.046991058
59	0x3ee50dc0	0.44737053
60	0x3f34c175	0.7060769
61	0xbdb73cee	-0.08947168
62	0xbe5dde8b	-0.21666925
63	0xbfc6c8f8	-1.5530081
64	0xbda16438	-0.07880443
65	0xbec635ae	-0.3871283
66	0x3f254956	0.64565027
67	0x3e7e9a5c	0.24863571
68	0xbee72d6f	-0.4515185
69	0xbe918fb1	-0.2842994
70	0xbe58cc43	-0.2117167
71	0x3e8e5cad	0.2780508

bias f4 [6]
0	0xbe3b4a4c	-0.18290061
1	0x3f014e83	0.50510424
2	0xbf13f7cb	-0.5779998
3	0xbd7fd256	-0.06245645
4	0x3f7db8c1	0.9911004
5	0x3e910f02	0.28331763

weight f4 [6, 6]
0	0xbf49362c	-0.78598285
1	0x3fc2204f	1.516611
2	0xbd798791	-0.0609203
3	0xbf9b2e16	-1.2123439
4	0x3faa4997	1.3303708
5	0xbfc5372f	-1.5407466
6	0x3fdcc9f6	1.7249134
7	0x3eeef2d8	0.4666965
8	0x3fb17a8b	1.3865522
9	0x3fb65622	1.4245036
10	0xbe55195d	-0.20810457
11	0x3eb35754	0.35027564
12	0xbf6838bd	-0.90711576
13	0xbff2936d	-1.8951241
14	0xbe3859d8	-0.18003023
15	0x3fd4338b	1.657823
16	0xbf9720dd	-1.1806904
17	0x3f6ebe3b	0.9325902
18	0x3f866549	1.049966
19	0x3e91d798	0.28484797
20	0x3fa3be7b	1.2792505
21	0x3f856864	1.0422482
22	0xbf689151	-0.90846735
23	0x3fa93546	1.3219383
24	0xbfdc22d0	-1.7198124
25	0xbef65ced	-0.48117772
26	0xbf138963	-0.5763151
27	0x3fa52f83	1.2905124
28	0x3e4cccc2	0.19999984
29	0x3f7a966c	0.97885776
30	0x3fa5a6c4	1.2941518
31	0xbea64266	-0.32472533
32	0x3ed1fc27	0.4101269
33	0x3f1ff473	0.62482375
34	0xbf2c6c9d	-0.6735323
35	0x3f8e9adc	1.1141009

bias f4 [6]
0	0x3f06775a	0.52525866
1	0x3dbaa267	0.09113007
2	0x3f3e8e4b	0.7443587
3	0x3ed4daad	0.41573086
4	0x3f61e92d	0.88246423
5	0x3eee1c91	0.4650617

weight f4 [6, 6]
0	0xbf19041c	-0.59771895
1	0xbf147a1f	-0.5799884
2	0x3fbfb743	1.4977802
3	0x3f879f15	1.0595423
4	0x4003c679	2.0589888
5	0x3f4dfc16	0.8046278
6	0xbf2a3807	-0.6649174
7	0x4019e5ff	2.4046628
8	0xbeb302c7	-0.34963056
9	0x3fdbd475	1.7174212
10	0xbf3f5ed6	-0.74754083
11	0x3f607461	0.8767758
12	0x3fa7697b	1.3079065
13	0xbe132b4f	-0.1437199
14	0xbf80745f	-1.0035514
15	0xbfde2824	-1.7356
16	0xbf14fc14	-0.5819714
17	0xbfbc98bb	-1.473411
18	0xbff318f4	-1.899199
19	0x3f521fee	0.8207997
20	0x3fafd640	1.3737259
21	0x3fa16be9	1.2611057
22	0x3f4417de	0.7659892
23	0x3fe38e24	1.7777753
24	0x3eb6a426	0.3567211
25	0xc0192c3b	-2.3933246
26	0xbd82dc64	-0.063896924
27	0xbfa60ac5	-1.2972037
28	0x3f5c43e5	0.860411
29	0xbf6aa2f2	-0.91654885
30	0xbfcb1c40	-1.5867996
31	0x3f35113c	0.7072942
32	0x3fe54ced	1.7914101
33	0x3fdd4735	1.7287356
34	0x3f189b1a	0.59611666
35	0x3fbfe2e5	1.4991118

bias f4 [6]
0	0xbbb652fe	-0.0055640927
1	0x3e700355	0.23438771
2	0xbef7e549	-0.48417118
3	0x3f37e279	0.71829945
4	0x3c47eb58	0.012202106
5	0x3e641702	0.22274402

weight f4 [3, 6]
0	0x3e510727	0.20412885
1	0x3e84fdab	0.25974783
2	0xbf913a88	-1.1345987
3	0x3f5214b7	0.8206286
4	0xbf1c1bda	-0.6098
5	0x3f9dbc8c	1.2323165
6	0xbfa53c26	-1.2908981
7	0x3f551c95	0.8324674
8	0x3e72be6b	0.23705451
9	0xbf36c766	-0.7139801
10	0xbf0f9e56	-0.56100976
11	0xbf53fc79	-0.8280712
12	0x3f43a66d	0.7642582
13	0xbf6a2550	-0.91463184
14	0x3e59951e	0.2124829
15	0xbf606bb7	-0.8766436
16	0x3f3cd1f3	0.7375786
17	0xbf3cd90e	-0.737687

bias f4 [3]
0	0xbe4f541e	-0.20246932
1	0xbeaec1ad	-0.34132138
2	0x3c9d7e4c	0.019225262
