data/NN_trained_models/trained_net_8725.tar (torch_old, 10449 bytes, 6 tensors)

weight f4 [24, 12]
00000000: 555d 063e 7260 ea3e 6cbf 24be 9a50 e4bd
00000010: 31c4 fbbd 6f69 fdbd efeb 033e 4733 f6bc
00000020: 6341 a1be b97f 9abe 8bc6 cf3d 1dcf e1bd
00000030: 84d1 1cbe 0094 1dbe f130 51bc de78 c0bd
00000040: 282d 40be 0f4d 8b3d 9242 843d 6b39 10bd
00000050: d376 f1be 071c 0fbe c303 e6be d752 9abe
00000060: 9b59 473d de4f 60be 4b1a 1d3c 6b83 cc3e
00000070: 5294 e9bc b464 b5bd 8258 1c3e 5b81 383f
00000080: f118 72be 692e 58bd 9fcc f5bd 1f83 543e
00000090: 582b 5ebc 22c7 b1be 76e7 38be c66c a63e
000000a0: 4b54 71be 4f95 37be 0b7b 973e 7c08 5abe
000000b0: e094 efbe ad93 f23d a12a 5fbd 626e 383e
000000c0: d881 9b3e 3d27 e43d 3a4f 13bf 5301 ffbe
000000d0: 1c52 8c3e b13e 6b3e 2ad2 91bd 14c7 783c
000000e0: ed1b df3e 7126 9dbe 7c11 433e ec27 37be
000000f0: 8452 a7be 5705 0fbe c68a 8e3d 1c9a 53be
00000100: e529 253e 063a 7cbe 34bc f9be efcb 903e
00000110: 1e89 223e 901d 9e3e 8328 823e 5312 cebd
00000120: c0d9 a73d ceec abbe faa4 843d 5845 4cbe
00000130: 6603 ce3e 65c7 15be 6198 783e 84fd 59be
00000140: 14db 323e 8ed0 84bb 0af1 9ebc cae4 1dbe
00000150: 3ad5 72be 1492 af3e 234e 363d 2304 9c3d
00000160: 8d45 903e 7231 ae3e 9b1e 563c 3486 f63e
00000170: 3b25 6dbe e424 c03d 7b8a 2ebe e422 53bd
00000180: 8b63 b83d a9c9 8fbe 40ec 58be cb13 30bc
00000190: 2d9c ddbd c24f 513d d3de 443c 0695 b5bc
000001a0: 0bc4 2cbe e1da 46be 658f 093e e234 b9be
000001b0: 13ed 2cbe 0e3c b13a a09f 6dbd 016e 433f
000001c0: b5ae 133e 4b93 19be c1fa e33c f69f c3be
000001d0: 0e38 923e dac1 ec3d 343a 643d c344 2cbe
000001e0: 27f3 353c 17b4 0fbf 68f3 a03e 966c d0be
000001f0: c11c 25be 0568 353e 92d6 68bd 1b0a 6bbe
00000200: b62d 3c3d fd4d 953e 4668 5c3e 3a9a e33e
00000210: 0537 1d3e 9ca5 263e 5ccb 063e 94ba 07bf
00000220: dd58 cbbe f483 8e3e f29f c33e 40ee ba3d
00000230: 7b3f 9f3d 9b68 bcbd 811c 863e 38ee fabd
00000240: fe1d 543e adce b13e aea7 943e 98fb 84be
00000250: 00ae 8fbd 6a85 4ebe 9ff9 a63e 000f e8be
00000260: 4320 3c3e bedf 2c3e 212a 2c3e 7eae 323e
00000270: 9b9f d13d 7e58 b93e 8b32 c4bd e02e f8bd
00000280: 0020 9e3d 0385 d13d aaee 38be b20d 2ebe
00000290: debb b33e 8f19 0e3c fc75 4b3e e48e 02bc
000002a0: 79d9 823e 03be cdbd ef33 e5be facb 71bf
000002b0: 1400 343e 53c2 c9bd 3d0e 0c3d bd93 493d
000002c0: fdd3 d1be 644c c1bd e03d cebe 503a f2bd
000002d0: a5db 3d3e a5d2 29be 411b 573e 5d8c 29bf
000002e0: 0551 983e 0f2f 753e 910e 32be bac7 343d
000002f0: d27b 9fbd 7bde 74bd 9d90 b3be 312e 4e3e
00000300: 4c36 9dbd 22ed d23e 0ad6 82bd 2902 debe
00000310: 60ad f0bc f819 4bbd 2b5e f4bd 6c43 0cbf
00000320: 6818 b93d 7733 cebe 2470 c23e 5d2c a8be
00000330: fc53 10bf 67dc bcbe 0e34 85be 2403 a4bc
00000340: d728 02be 2386 073f af84 31bf ce28 253f
00000350: 2a06 463d 5500 3bbe 13b2 e43d 7bd4 6a3d
00000360: 04d0 e83a 8622 32be 71df e73e 772e 6ebe
00000370: 754c de3e ef24 72be 6e5b 1bbe 66cd 3b3e
00000380: 89ab 5cbd 500d b73d 5fb6 cf3e 782d 12bf
00000390: 04d8 d0be 0cbb 793d a773 99bd 96e8 b73c
000003a0: 0cfe 6ebd cdf5 0d3e 6ed2 82be 1df0 81bd
000003b0: d590 78bc 171b 7bbd 165b 773e 3d7c 303c
000003c0: 8dab b13e 0259 75bd ed59 483f d400 8abe
000003d0: 3400 0bbd 455c 80be d18a cd3e 80af c1be
000003e0: 2893 d23d 9fe9 68be 44d5 4c3e cb1b 223f
000003f0: 7ed0 8fbe 9a22 b8bd 90e1 aebe 8286 d2be
0.13121541 0.45776707 -0.16088647 -0.11148186 -0.1229328 -0.123736255 0.1288297 -0.030053748
-0.314952 -0.3017557 0.10145291 -0.11025832 -0.15314299 -0.15388489 -0.012768016 -0.093980536
-0.18767226 0.06801807 0.0645801 -0.035211008 -0.47160968 -0.13975535 -0.44924745 -0.30141327
0.04866944 -0.21905467 0.009588788 0.39944014 -0.028513107 -0.08857098 0.15268138 0.7207238
-0.23642327 -0.052778635 -0.12001919 0.20753144 -0.013560139 -0.3472224 -0.18057045 0.32504863
-0.23567311 -0.1792805 0.29586062 -0.21292299 -0.4679327 0.11844573 -0.054484013 0.18010858
0.303725 0.111402966 -0.57542765 -0.49805698 0.27406394 0.22973134 -0.07120164 0.015184183
0.43575993 -0.3069339 0.19049639 -0.17886323 -0.32680142 -0.1396688 0.06960063 -0.20664257
0.16129263 -0.24631509 -0.487764 0.2828059 0.15872619 0.3088193 0.25421533 -0.10062089
0.081958294 -0.33579105 0.06476779 -0.19948328 0.40236968 -0.14626844 0.24276878 -0.21288115
0.17466384 -0.004053182 -0.019402046 -0.15419307 -0.23714152 0.34291136 0.04450811 0.076179765
0.28178063 0.340221 0.01306882 0.48149264 -0.23158734 0.09382036 -0.17045014 -0.051546946
0.09003361 -0.28083542 -0.21183872 -0.0107469065 -0.10820804 0.051101454 0.012016016 -0.022165786
-0.1687166 -0.19419433 0.13433607 -0.3617316 -0.16887312 0.0013521926 -0.05801356 0.7633973
0.14422114 -0.14997594 0.02782953 -0.38207978 0.2855839 0.11560412 0.05571957 -0.16823106
0.011105335 -0.5613417 0.31435704 -0.40707844 -0.1612425 0.17715462 -0.056845255 -0.22953074
0.04594203 0.29161063 0.21524152 0.44453603 0.1535302 0.16274112 0.13163513 -0.5301907
-0.39716235 0.27835047 0.38207966 0.09127474 0.0777578 -0.091996394 0.26193622 -0.12252468
0.20714566 0.34727994 0.2903418 -0.259732 -0.0701561 -0.20168081 0.3261232 -0.45323944
0.18371682 0.16882226 0.16812946 0.17449376 0.102355205 0.36200327 -0.09579953 -0.12118316
0.07720947 0.10230448 -0.18059793 -0.16997412 0.3510427 0.008673086 0.19869226 -0.007968638
0.25556543 -0.100460075 -0.44766185 -0.9445187 0.17578155 -0.098515175 0.034193266 0.04921316
-0.40982047 -0.094383985 -0.40281582 -0.118275285 0.18540819 -0.16584261 0.2100649 -0.662298
0.29749313 0.23943733 -0.17388369 0.044135787 -0.07787289 -0.059782486 -0.3507127 0.20134808
-0.07676372 0.41196543 -0.06388481 -0.43361023 -0.029379547 -0.049585313 -0.119320236 -0.5479038
0.09037858 -0.4027364 0.37976182 -0.32846346 -0.5637815 -0.36886904 -0.26016277 -0.020021029
-0.12710892 0.5293905 -0.69343084 0.6451539 0.048345722 -0.18261845 0.111667775 0.057331543
0.0017762189 -0.17395982 0.4528766 -0.23259912 0.43417707 -0.23646902 -0.15171596 0.18340072
-0.053874526 0.08938086 0.40568826 -0.5710063 -0.40789807 0.060969397 -0.07492762 0.022449773
-0.058347747 0.13863297 -0.2555117 -0.06344626 -0.015171249 -0.06130513 0.2415584 0.010771808
0.34701195 -0.059899338 0.78262216 -0.26953757 -0.03393574 -0.25070396 0.4014497 -0.37829208
0.10281974 -0.2274537 0.2000323 0.6332366 -0.28088754 -0.08990975 -0.34156466 -0.41118246

bias f4 [24]
00000000: e95b e0be 4cfa a7bc d0bc 88bd 4388 d43c
00000010: 077c 0abf 7a78 e63e c91e 893d 9f3a d3bd
00000020: 5714 d73d 987f 29be 6e6b 81be 57d4 afbd
00000030: 77bc ef3d 3e06 70be 16a3 943e 096e f53e
00000040: 5c43 b8be 96d7 e5ba 8cef 99be b60c 00bf
00000050: fba9 a93d 1d4f 14bd 11b9 3a3e 3d7d c83e
-0.43820122 -0.020505093 -0.06676638 0.02594388 -0.540955 0.4501379 0.06695325 -0.103139155
0.105019264 -0.1655258 -0.25277275 -0.085854225 0.11705869 -0.23439881 0.29030675 0.47935513
-0.3598889 -0.0017535563 -0.30065572 -0.50019395 0.08284374 -0.03620826 0.1823466 0.3915805

weight f4 [24, 24]
00000000: e717 ccbe 253a 5cbe 8fc7 b03e d51c f3be
00000010: 50de 19bd 32f2 2e3e 9806 a8bd 30f8 3a3e
00000020: e7fb ab3e de0e 82be bf54 9bbe abb2 95be
00000030: d7a0 05bf e61c 6a3d 7eda 8f3e 5394 d53e
00000040: 1ccd 11bf 4648 213e d681 49be 7c72 cabe
00000050: 013f 3bbf 7403 debd 3c72 bcbd 67fe 4f3e
00000060: 27fc 133d d2a7 06be f410 acbe ea09 8e3e
00000070: ff80 853e 69db d2be f4f2 7bbd c93d ddbe
00000080: 6cfd d6be e1c2 203e 3de1 f8bd 9cd2 163e
00000090: 7d4b 213e a377 873e b440 c2bd 5bb7 dcbe
000000a0: 5aaa 6e3e a0d2 ce3e 940d d5be fc8e 233d
000000b0: 4ea8 44be 9250 1c3d d4b6 26be 18fc f0be
000000c0: 06c4 88bd d56a 133e 0a0e 913d 0a0a 48bd
000000d0: b7fa 1ebc fa6a 4c3d 6d1c d0be 8850 103d
000000e0: d025 1ebd f351 a83d 31b5 20be 669f f13c
000000f0: 75a8 df3d bf45 8a3d 4f71 b6bd fc1b ffbd
00000100: 60cb 5cbd 229a aebe 41a7 81bd 31fc a6bd
00000110: 2b3e da3d 6097 a03b a800 43be 38bb 683d
00000120: 1820 b43d 8081 50be 14d4 8b3e 42c6 ca3b
00000130: 6195 2a3e b9bc 6bbe 3aba 083e f98d 92be
00000140: bae0 c53d 178f d3be 2db4 a73e 13b6 ee3e
00000150: b62c d8bd 7fb7 903e 6336 a43e 3be9 a6bd
00000160: 7f28 1bbe 9594 063c bc81 363f 96a1 163e
00000170: 0e46 763d 4ad3 01be a63d 283e 9259 89be
00000180: 64e4 f6bd c48f 493c 7b01 523c 7200 9dbe
00000190: 3413 7c3d 9106 af3d be53 88be b121 013e
000001a0: ea7d 9ebd 23e1 5abd cfff ae3d f494 d23b
000001b0: 232c 303e 7b34 babc 88fd e0bd 382f a4bd
000001c0: 1e51 c5bc ea67 a23c 2d7a 36be 7630 f83d
000001d0: cfdf bc3e 7b28 853e ff4b a3be 859c 333e
000001e0: f96a 63be cc72 fe3c 6309 84be 8ff8 8c3e
000001f0: 0b78 093e 6d72 703e a1c4 9a3e 692b 3abf
00000200: 5a5f fc3d 418a 363c 70a3 eb3e ec5c 10bd
00000210: 021f 853e cc13 b83e 9981 ae3e 5105 84be
00000220: 1389 773d bfe3 c6be 352f 8ebd 2055 4cbe
00000230: cb20 cfbd 9669 a3be 0587 1c3f 5482 663e
00000240: f567 d93e f237 cb3d 2d05 45be 1a90 c93e
00000250: 874d 7a3e 9c9c 2dbc 43ac 61be abc1 ca3d
00000260: d289 e63d f11c fe3d 3f1e 94be 0ffe 663e
00000270: 190e 2f3e b4ff 7b3e c70d f9bd d166 ccbe
00000280: 424f c53e 9b1c ef3e 4084 1c3d 6d60 1c3f
00000290: da96 683d 9281 27be 4c94 59be e082 bfbe
000002a0: 5506 b5bd eb77 df3d 361a f93d dfe5 63bd
000002b0: 1cee a6be 955e 6f3e 67eb 973c 386f d03d
000002c0: c727 123d 91d9 3e3e dea8 163e 8917 d7be
000002d0: a34a 113e 8999 8abe 2462 d3be beaf 933e
000002e0: 4530 ab3d b3f1 a13d 09d9 65be e626 433d
000002f0: d04c bc3e 61b7 8abe c9aa 80be 305a c9bd
00000300: 6d60 9cbe 99cf 873e 49fe 5a3e 548a 8c3e
00000310: 4115 e8bd b2d6 713e bb05 7c3e ccb8 8dbd
00000320: 66c8 123e b5e2 1ebe 8265 0dbc 9010 fabc
00000330: f471 d7be 8530 84be c6cd c03e 72fb 163e
00000340: fb56 8cbe 6eb2 2b3f 2537 ca3e ab1a 3ebe
00000350: 83ed 9cbd 9780 3b3e 0b0e 31be 04d3 ddbe
00000360: 6864 f93c 4e65 e13d 18e5 0dbe af1e 603c
00000370: 5c6b ec3d 5e34 c93e 375f 86bc 4288 bd3e
00000380: 2e22 5c3d 4b68 0f3e aaf2 743e ab8e ccbe
00000390: 83da d93d 7dd9 103d 6e65 e0b8 55a0 8c3e
000003a0: 85b7 09be 2631 da3c 7590 3bbe d860 df3d
000003b0: 5545 be3e fa23 c9bd 1e1d 633e 2d36 153e
000003c0: 31fb eabe 293f 483e 9050 8b3e 5225 aa3e
000003d0: 7498 f2be 85d5 333d 7dcb a9bc b8ff bdbe
000003e0: 95a6 45be 05f0 83be d247 233d 9988 fbbd
000003f0: fc03 e0be 59ba 85be 52a2 8f3e 6259 e33c
-0.39861986 -0.21506555 0.3452725 -0.47482935 -0.03756553 0.17084578 -0.08204383 0.18258739
0.33590624 -0.25401968 -0.30338094 -0.29237875 -0.5219855 0.057156466 0.28096384 0.41714725
-0.569536 0.15750226 -0.19678435 -0.3954047 -0.7314301 -0.108405024 -0.09201476 0.2031189
0.036129143 -0.13149956 -0.33606684 0.2774194 0.2607498 -0.41183022 -0.061510995 -0.432112
-0.4199022 0.1569934 -0.12152336 0.14728779 0.15751453 0.26458463 -0.094849974 -0.4310864
0.23307171 0.4039507 -0.41611922 0.039931282 -0.19204828 0.038162775 -0.16280681 -0.47067332
-0.066780135 0.14396222 0.07082756 -0.0488377 -0.00970333 0.04990671 -0.40646687 0.03523305
-0.03861028 0.082187556 -0.15694119 0.029494952 0.109208025 0.06751584 -0.08908331 -0.124565095
-0.05390489 -0.3410197 -0.06330729 -0.081535704 0.10656389 0.004900858 -0.19043219 0.05681917
0.08795184 -0.203619 0.2731024 0.006188185 0.16658546 -0.2302121 0.1335229 -0.28623942
0.09662004 -0.41320106 0.3275465 0.46623287 -0.10555403 0.28264996 0.32072744 -0.08149954
-0.15152167 0.008214136 0.7129171 0.14710078 0.060125403 -0.12678257 0.16429767 -0.2682615
-0.12055281 0.012302343 0.012817736 -0.30664402 0.06154175 0.08546174 -0.2662639 0.12610509
-0.0773886 -0.053437363 0.08544885 0.006426448 0.17204337 -0.022730103 -0.10985857 -0.08016819
-0.024086531 0.01982494 -0.17820044 0.12118618 0.36889502 0.26007447 -0.31893918 0.17540176
-0.22208776 0.031060599 -0.25788411 0.27533385 0.13424699 0.2348115 0.3022814 -0.7272249
0.12322874 0.011141361 0.4602313 -0.035244867 0.2600022 0.35952604 0.3408325 -0.25785306
0.06043346 -0.3884563 -0.06942598 -0.19954348 -0.10113677 -0.31916493 0.61143523 0.22510654
0.42462125 0.0992278 -0.19240256 0.39367753 0.24443637 -0.010596421 -0.22038369 0.099002205
0.11256756 0.12407864 -0.28929326 0.22557853 0.17095222 0.24609262 -0.12160831 -0.39922193
0.3853703 0.46701512 0.03821206 0.61084634 0.05678449 -0.16358021 -0.21247977 -0.37404537
-0.08839098 0.109115444 0.121632025 -0.055639144 -0.32603538 0.23375924 0.018544866 0.10177463
0.035682466 0.18637682 0.14712855 -0.42010143 0.14188628 -0.27070263 -0.41285813 0.28845018
0.08358816 0.079074286 -0.22446074 0.04764452 0.36777353 -0.27093032 -0.251303 -0.09831655
-0.30542317 0.26525572 0.21386065 0.27449286 -0.11332179 0.23617056 0.24611561 -0.06920013
0.14334258 -0.1551617 -0.008630158 -0.030525476 -0.42079127 -0.25818267 0.37656993 0.14744356
-0.2741011 0.6706914 0.39495197 -0.1856486 -0.07662489 0.18310772 -0.17290513 -0.43325055
0.030443385 0.110056505 -0.13856924 0.013679191 0.11543915 0.39297765 -0.016402824 0.3701802
0.053743534 0.14004628 0.23920694 -0.39952597 0.10637381 0.035363663 -0.00010700045 0.27466074
-0.13448913 0.026634764 -0.18316825 0.10907143 0.3716227 -0.09821315 0.22179076 0.14571448
-0.4589477 0.19555344 0.27209902 0.33231598 -0.47381938 0.0439048 -0.020726914 -0.3710916
-0.19301827 -0.25769058 0.039863415 -0.12281913 -0.4375304 -0.26118734 0.28053528 0.027752582

bias f4 [24]
00000000: 1062 5e3e 0b75 27be 83ee 65bd 8054 273b
00000010: 3e50 9b3b c855 3c3d 9c15 1bbe 3a30 4cbd
00000020: b837 c6bd 99df 8c3d e98a 94bc ec1e 52be
00000030: 9c50 6bbe e55a 29be ac3d 013e eb5d a5be
00000040: c305 a2be b7ca 143e 373f bb3e c692 703c
00000050: 9c94 1f3e c2d7 93bd a30c 143d 1625 cd3c
0.21717095 -0.16353242 -0.056135666 0.0025532544 0.00473979 0.045980245 -0.15144962 -0.04985068
-0.09678596 0.06878585 -0.018132644 -0.20519608 -0.22979969 -0.1653858 0.12621182 -0.32298216
-0.3164502 0.14530455 0.36571667 0.014683431 0.15584034 -0.07218887 0.036144864 0.025042098

weight f4 [3, 24]
00000000: 8f77 ca3e 9b7d e33e 5c47 d3be f072 243f
00000010: 2a70 d4be 1897 cc3e dadd 99be c336 05bf
00000020: e60a 053f c77d babe 7ae1 453f f074 133e
00000030: 15dd 00bf cf83 19bf c623 a03e 5d0f cbbd
00000040: c56f e5be bdfd e2be 0bf9 673e 2306 a73c
00000050: 23f7 91be 6683 01bf ca11 b8be 263e d1be
00000060: 7eb0 6bbf 5fbe 243f 051b 06be 8e0f d3be
00000070: dc28 9bbd 5dd4 f2be 6bc1 343f 7715 a53e
00000080: 329e 8cbe a59c 93be 34ff 67be 6a25 2c3e
00000090: d655 5cbc 1a55 653d 4374 dabe 32e2 d63e
000000a0: 095e bfbe 8f09 8a3e b414 03bf 6da6 8bbe
000000b0: a472 5f3e d419 c83e 8daa 99be 6d52 d9bc
000000c0: fe07 403e 9ca9 07bf ec8f 133e 982a d0be
000000d0: e6f3 f43e c148 953d 6048 b5be 0aa4 9f3e
000000e0: c7cd dcbe 9518 843e 002d 35bf 3fda 09bf
000000f0: 014f 4d3e f17a ba3e d934 dfbd 4e02 2abf
00000100: 044b 9f3e 9599 b3bc d3a5 993e 6dcd c53e
00000110: 08ec a63e ad43 953e fe68 dc3e ee70 c73e
0.3954434 0.44431767 -0.4126538 0.6423788 -0.41491824 0.39959025 -0.30052072 -0.52036685
0.51969755 -0.36424085 0.77297175 0.14400077 -0.50337344 -0.5996675 0.31277293 -0.0991504
-0.44811836 -0.44334212 0.22653596 0.020388668 -0.28508863 -0.50591123 -0.35951072 -0.40867728
-0.9206618 0.64352983 -0.13096245 -0.41222805 -0.07576153 -0.47427645 0.7060763 0.3224294
-0.27464443 -0.28830448 -0.22655946 0.16811147 -0.013448199 0.055989362 -0.42666826 0.41969448
-0.3737643 0.26960418 -0.51203465 -0.2727541 0.21821076 0.39082205 -0.30012932 -0.026528561
0.18753049 -0.5299318 0.1441037 -0.40657496 0.4784233 0.07289267 -0.3540678 0.3117984
-0.43125746 0.25800005 -0.7077179 -0.5384864 0.20049669 0.36421922 -0.10898752 -0.66409767
0.3111192 -0.02192382 0.30009326 0.3863329 0.32601953 0.29153195 0.43048853 0.38953346

bias f4 [3]
00000000: 18a8 553e 0dd1 99be 95a2 693d
0.20864904 -0.30042306 0.057039816
