data/NN_trained_models/trained_net_14977.tar (torch_old, 10179 bytes, 10 tensors)

weight f4 [12, 12]
00000000: 0a3c 393e 215b 043f 0d2c 5d3e fa4f 7f3d
00000010: ee83 033f 8df3 18bf a464 1c3e 5bf5 8c3e
00000020: 67ed f6be 1f07 cabe b062 643e 46aa 65bd
00000030: a76b 95be 6a36 8a3c 20bf 8b3e ef7c 9b3f
00000040: a889 6ebe 3710 cb3d b44e 7fbe bb1f 4dbe
00000050: 1394 943e 4154 1c3e 537b 853e 14fd 95bd
00000060: 3ca9 523b 8930 293e 0a1e a13e f728 97be
00000070: e947 4a3c bd6b 73be 36ea 80be 2b96 193e
00000080: 63b7 283e cdbe 043f fa98 163f 3f3e fbbe
00000090: 9433 3dbe fa83 f3be bf67 54be 3706 703f
000000a0: 8711 95bd 6e1f fd3e ed09 21bd f8a3 1e3f
000000b0: 2bd8 e8bd 56c5 193f 0962 26be 7e05 21be
000000c0: 9a97 853e a205 a13e 05eb 84be 8250 44be
000000d0: ba33 9f3b 27fd e8bd 4d13 93be 1ad5 7d3e
000000e0: d6c7 c4be 4d64 0a3f e003 a1bd 3525 7bbe
000000f0: 3a2f 6f3e d0d4 eebc b266 e3be 7d95 d33e
00000100: ff7c dcbd 0cf4 25be 5f21 1a3e 4171 493f
00000110: ba81 babd 3aa2 12bf 2d7f 25be 13c6 fa3d
00000120: e87f c33d e703 0abf 54ef 353e 8412 b13c
00000130: 476f 103f 855c 3d3e 97fa 4f3e 69ba c23e
00000140: 4803 4b3e 9fff 803c ce84 553e 23a5 e73e
00000150: a6e9 cbbe 083e ed3c 5974 463e b6d6 43bd
00000160: b22e a3be ea67 90be 6177 e73e 3a5b 733e
00000170: e542 02bf 1c1a dbbe e0b0 1abd b5a8 56bf
00000180: df0e e1be 570c 043e a398 78bd b4bd bdbe
00000190: b802 d1be 3355 fc3e af77 f53d fc2a 733e
000001a0: fa6e f2be 18dd 063e d6e8 c9be 0d73 12bf
000001b0: 8a4c a03e 03ae 1a3f ce6a 5abd dff6 87bd
000001c0: 24b2 e73d 2ab4 e13d ccd7 c53e 07dc 5bbe
000001d0: c8d4 273f c438 a83c a365 dc3e a438 87be
000001e0: 9b73 bebe 842f 8f3e 6233 163e 633b 52bd
000001f0: 1f85 0d3d 6b66 1d3e 3a5b 4b3d 7f92 653f
00000200: bd09 8ebe f020 ba3e 4087 bf3d c0f6 d4bd
00000210: 9598 3bbd 5703 efbe a5c1 82be cbd3 8dbe
00000220: 8867 11bf 843e 833e 855d 8a3e 2aa0 2bbe
00000230: 775d 9b3d e94d adbe 63bc ae3e 243c 583e
0.1808931 0.5170155 0.21598835 0.06233213 0.51373184 -0.5974663 0.15272766 0.2753094
-0.48228 -0.39458558 0.22303271 -0.05607059 -0.29183695 0.01687165 0.27294254 1.2147502
-0.23294699 0.09915202 -0.24932367 -0.20031635 0.29019222 0.15266515 0.2607065 -0.073236614
0.0032144329 0.16522421 0.3146823 -0.2952344 0.012346246 -0.23771568 -0.2517869 0.14998691
0.16476206 0.5185364 0.58827174 -0.49070928 -0.18476707 -0.47561628 -0.20742701 0.93759483
-0.07278734 0.4943804 -0.039316107 0.61968946 -0.11369356 0.60066736 -0.16248335 -0.15724751
0.26092225 0.3144961 -0.25960556 -0.19171336 0.004858461 -0.1137641 -0.28725663 0.24788323
-0.38433713 0.54059297 -0.07862067 -0.24525912 0.23357859 -0.029154211 -0.44414288 0.41324988
-0.107660286 -0.16206378 0.15051793 0.78688437 -0.09106775 -0.5727879 -0.16161795 0.12244811
0.095458806 -0.53912205 0.17767078 0.021615274 0.56419796 0.18492325 0.20310436 0.38032845
0.1982547 0.01574689 0.20851442 0.45243177 -0.39826697 0.028960243 0.1938032 -0.047812186
-0.31871563 -0.2820428 0.45208266 0.23765269 -0.5088332 -0.42793357 -0.037766337 -0.83851177
-0.43956658 0.12895332 -0.06069244 -0.37058794 -0.40822387 0.49283752 0.119857185 0.23746866
-0.47350293 0.13170278 -0.39435452 -0.57206804 0.31308395 0.6042177 -0.053324513 -0.06638884
0.113132745 0.11020692 0.38641202 -0.21470653 0.65559053 0.02053488 0.43046293 -0.264104
-0.37197575 0.2796594 0.14668038 -0.051326167 0.034550782 0.153711 0.049647547 0.8967666
-0.27741805 0.36353254 0.09351969 -0.10398626 -0.04579981 -0.46682236 -0.25538364 -0.27700648
-0.567986 0.25633633 0.27024475 -0.16760316 0.075861864 -0.33848503 0.34128103 0.21116692

bias f4 [12]
00000000: fbd0 ecbe e7e5 0bbf 990b 17bf eb70 6bbc
00000010: b024 8bbe eacc aabe bf35 f23e a20e be3b
00000020: 0e91 5fbe ae88 103f df4b df3e 5b37 12bf
-0.4625319 -0.5464768 -0.5900207 -0.014370183 -0.27176428 -0.33359462 0.4730663 0.005800084
-0.21832678 0.56458557 0.43612573 -0.57115716

weight f4 [12, 12]
00000000: ffec 6a3e be8c 2c3f 8c86 b2be cb2c 1bbf
00000010: d4a4 7abe 64f4 b8be c2fb 3d3e 456a 9ebe
00000020: 9154 45be 5ca7 19bc 5f97 4f3f 5503 10bd
00000030: c2a1 44bf c5af 73be 2724 b73e 952d 933e
00000040: 0cf8 40be bb3b 0ebd 8176 f43d f8c0 283f
00000050: 01bd 6c3e cf97 48bf 57d6 61bd 8517 54be
00000060: 7a40 d9be 02e8 94be 8c75 503f 3e10 703f
00000070: 02b0 49bd f507 a0be 4503 5d3e c304 d93e
00000080: 9c47 9ebe e60a 1cbf e7b9 25be 1c0a 45be
00000090: 3306 133e a3b3 483f 5e9d cfbe 1986 fdbe
000000a0: bb7b 84be 6535 afbe aa41 023f 9b5c 14bf
000000b0: 2f5a 62be a06c 253d 177f 223f a5dc bbbe
000000c0: bfbd c23e 9425 dc3e 8317 40be f207 c7be
000000d0: 084c a6be 5b8a babd 38b2 033d d9ac 70be
000000e0: 47f3 53be 87e2 09bf dfe1 8b3e 53d8 29bf
000000f0: 2e40 f9bd ba22 35bf 2647 e0be 5ecc 623e
00000100: a725 bfbe 9f02 223e c989 443e cc49 0c3f
00000110: f010 60be bfb6 0dbf 8051 58bf 7708 1dbe
00000120: b8ff c7be d4d3 77bf d901 c43c 344d b43c
00000130: 3a54 b8be fa8d 413d 40c7 d93e 459b a93e
00000140: 065c b6be d917 e3be 6452 21be 07ab e5be
00000150: 358b 1e3e d129 e63c fc97 3cbf f274 a6bd
00000160: 89d7 f13e 5b45 babd bc13 74bf 6fbc f63e
00000170: 4a52 283f 61e1 083e 0e5f 643e 4fa4 283e
00000180: 2d55 e8bd 63eb 053e 20b1 1bbe d809 3abf
00000190: 57f4 4abe 061a 43bf fae4 f63e 7642 32be
000001a0: 18a7 40be df70 8ebd d54e bc3e 03b8 86be
000001b0: cc04 dd3b 74aa 0b3f 312f 26bf e54b bebe
000001c0: 4887 a73c b53c 0cbf c6ca 253f d60f c7be
000001d0: b5ff 6cbe d942 5a3d ae8d 233f bf78 b3bd
000001e0: 0592 e3bd a0c0 da3e 7348 5ebf 4555 51be
000001f0: dd0c 463e 2468 56bc 5bdf 22be c661 133c
00000200: 033f d53e 42d6 f23e fa35 6a3c fa93 813f
00000210: 4c1c 2f3e 997d 3bbf 56e1 10be 6576 973e
00000220: 78c5 2cbf e933 193f 7435 e83e bd57 8c3e
00000230: 97f2 4abe 5faf 03be 1ec2 12bf e863 9cbd
0.2294197 0.67402256 -0.34868276 -0.60615224 -0.2447694 -0.36123955 0.18553069 -0.30940452
-0.19270541 -0.0093782805 0.8109035 -0.035159428 -0.7680932 -0.2379752 0.3576977 0.28745714
-0.18844622 -0.034724932 0.11936665 0.65919447 0.23118974 -0.7835664 -0.05513605 -0.20712097
-0.42432004 -0.29083258 0.8142936 0.93774784 -0.04924012 -0.3125607 0.21583278 0.42386445
-0.3091401 -0.6095413 -0.16184197 -0.19242138 0.14357834 0.78399104 -0.4054975 -0.4951637
-0.2587565 -0.34220424 0.50881445 -0.57953805 -0.22104715 0.040386796 0.63475174 -0.36691776
0.3803539 0.4299742 -0.18758969 -0.3887325 -0.32479882 -0.091084205 0.032152385 -0.23503436
-0.20698272 -0.5386128 0.27320763 -0.6634571 -0.121704444 -0.70756114 -0.43804282 0.22148272
-0.37333414 0.15821312 0.19193186 0.54800105 -0.21881461 -0.55356973 -0.8449936 -0.1533526
-0.39062285 -0.968076 0.023926662 0.02200947 -0.3600176 0.04725454 0.42534828 0.33126274
-0.35617083 -0.44354132 -0.15754086 -0.44857046 0.15482791 0.028096111 -0.7366941 -0.08127774
0.47234753 -0.0909526 -0.9534261 0.48190638 0.65750563 0.13367225 0.22301885 0.16468929
-0.11344371 0.13078074 -0.15204287 -0.7267127 -0.19819771 -0.76211584 0.4822157 -0.17408165
-0.18813741 -0.06955122 0.36778894 -0.26312265 0.0067449566 0.54556966 -0.6491576 -0.37167278
0.02045025 -0.5478013 0.6476253 -0.3887927 -0.2314442 0.053286407 0.6388806 -0.08763265
-0.111118354 0.42725086 -0.868293 -0.20442684 0.19340844 -0.0130863525 -0.15905516 0.008995479
0.41649637 0.4742909 0.014295096 1.0123284 0.17100638 -0.7323852 -0.14148459 0.29582515
-0.67488813 0.59844834 0.45353281 0.2741069 -0.19819103 -0.12859868 -0.5732745 -0.07636243

bias f4 [12]
00000000: 2c0b 883c 03b0 473e b9ad 233d 60df 073e
00000010: d65c 6c3e 097c b13d 9c35 e63e 81b5 303e
00000020: e5c9 623c 65de 75bc bb2b e93e 72da 00bd
0.01660689 0.19500737 0.039960597 0.13268805 0.23082289 0.08666236 0.44962776 0.17256738
0.013842081 -0.015006636 0.45541176 -0.031458326

weight f4 [12, 12]
00000000: a867 e0bd abf8 553f 6ea7 563f 5d23 363e
00000010: c204 573e c7ab 893f 9b46 913f 2e2d b1be
00000020: af4d 0e3d 2e4a fbbd d743 59bf de6e 9f3d
00000030: f9c7 58bf ed99 923f 3c77 903f b93e 62bf
00000040: ed82 0fbf 4727 173f db02 1f3f 4e54 2ebf
00000050: dc89 3ebf 47fe 57bf 64da b3be 27b9 8d3f
00000060: 69c1 4fbf 5d4e 623f c728 9e3f c005 ccbe
00000070: a8d8 0abf c0f3 6a3e 62ed e73e 724c 1abf
00000080: 386d 16bf 3bc1 5abf f5e3 08bf 58e8 263f
00000090: 05e0 43bd dfb7 733d 78f3 ecbe 925d f8bb
000000a0: 826f 163f 1ebe 15be 4546 01bd 416c 5b3f
000000b0: 87f9 74bd ea64 b33e 79e7 d43d 8069 2dbf
000000c0: c41a 06bf e8df b43e b7f6 e53e 950a 5ebc
000000d0: 7f3c 86be 8ad8 3d3f 0358 053f b8c6 35bf
000000e0: 8942 333e 090c 57bd 23b9 c3be a94b f53e
000000f0: 2bbd 43bf 7043 053f 3ebb 923f afa8 3fbf
00000100: 3866 12bf 5265 fd3e bde5 473e b3c7 63bf
00000110: b55d d4be 2f39 1dbf 7b58 20be ba7a 413f
00000120: 6a8f 56be 9d87 543f 9459 8e3f a7eb bfbd
00000130: a6d1 bebd b2fc 813f 88be 583f 7cb4 05bf
00000140: 7790 993e ef31 4dbd 7e8d 5ebf f42f 253e
00000150: 3573 67be 6f59 283f 1b20 753f 3c3d 1abe
00000160: c5db 15be 5b01 0e3f 4355 3e3f 7e41 38bf
00000170: 0929 d2bc 8644 e5be d6ab a8be dd2e 143f
00000180: fafe 993c d0a0 503f 7b16 843f 944d 873e
00000190: 8b1b 07be 7059 693f 53e9 783f 623d e5be
000001a0: 2d6c ef3b 8044 04bc 7432 1dbf 24dc 3e3e
000001b0: 2068 043f 35c4 1dbf bee1 6cbf 95d8 263f
000001c0: 010d 433f 4eed 8bbe 1650 9bbd 4791 4e3f
000001d0: 5cef f43e eb69 f03e ed4f 773e b2e6 0fbf
000001e0: a9c8 6e3f 9103 69bf 8976 95bf 9b33 223f
000001f0: 6cd8 e33e 933d 17bf 06ed e6be 765e 253f
00000200: e3e2 2e3f 6f66 683f 2220 5f3e 9e95 81bf
00000210: ca2a 3abf 69d9 8b3f cc8e bf3f 94ce 80bf
00000220: 0f27 96be ef2d c43e 90a2 373f 68d8 2abf
00000230: 8835 2dbf af9a 5fbf 6ad7 fcbe e933 893f
-0.10957271 0.8358256 0.8384923 0.17786928 0.20997909 1.0755547 1.1349672 -0.34604782
0.034742054 -0.12270008 -0.8486914 0.07784818 -0.84680134 1.1453224 1.1286387 -0.8837696
-0.5605915 0.5904431 0.6211373 -0.6809739 -0.74429107 -0.8437237 -0.35127556 1.1072129
-0.81154495 0.8840082 1.2356194 -0.39848137 -0.5423684 0.22944546 0.45298296 -0.60272896
-0.58760405 -0.85451096 -0.53472835 0.6519828 -0.047821064 0.059501525 -0.46279502 -0.007579514
0.587639 -0.14623305 -0.031561155 0.8571206 -0.05980828 0.3503793 0.103957124 -0.67739105
-0.5238459 0.35327077 0.4491479 -0.013552328 -0.2621803 0.7415854 0.5208742 -0.71006346
0.1750585 -0.052501712 -0.38227186 0.47909287 -0.7646052 0.52056026 1.1463392 -0.74866766
-0.57187223 0.49491364 0.19521232 -0.8897659 -0.41477743 -0.6141538 -0.15658753 0.7557789
-0.20953146 0.8301943 1.1121087 -0.09371119 -0.09317331 1.0155241 0.8466573 -0.5222852
0.2999303 -0.05009645 -0.8693465 0.16131574 -0.22602542 0.65761465 0.95752114 -0.15062422
-0.14634617 0.5547082 0.7434885 -0.71974933 -0.025654333 -0.44778842 -0.329436 0.5788401
0.01879834 0.8149538 1.031936 0.26426375 -0.131941 0.91152096 0.97231025 -0.44773394
0.0073065967 -0.008072972 -0.6140511 0.18638664 0.5172138 -0.61627513 -0.92531955 0.6517423
0.7619172 -0.27329487 -0.075836346 0.80690426 0.47838867 0.4695581 0.24151583 -0.5621139
0.93274933 -0.91021067 -1.1676799 0.63359994 0.44501054 -0.5907833 -0.4510271 0.6459726
0.6831495 0.907813 0.21789601 -1.0123785 -0.7272154 1.0925723 1.4965453 -1.0063043
-0.29326674 0.38316295 0.71732426 -0.6673646 -0.6765981 -0.87345403 -0.49383098 1.0718967

bias f4 [12]
00000000: c290 7fbd db03 783d 4fa7 4dbc e6b7 783d
00000010: a9b7 f0bd 213d 8c3d e5dd 413e 420a 13bd
00000020: b80a 92be 0ac6 e7bc 60d2 143a a57c 013d
-0.06239391 0.06055055 -0.0125520965 0.060722254 -0.117537804 0.06847597 0.18932302 -0.035898454
-0.28523803 -0.028292675 0.00056771 0.03161301

weight f4 [12, 12]
00000000: 97ed af3e 566c 0bbe c0b8 1abe 1bc2 0e3d
00000010: c665 673e 99fc 83bd ce5c b53e 00eb 17bd
00000020: 4be0 f53c 1a79 943e 34fb fb3d cbc1 61be
00000030: 5584 f33e f539 fd3e 9990 cf3e ab0b 77be
00000040: cbc0 2f3e f1ac 61bd 4aa5 c63e 4c08 313e
00000050: a94e f33e 0e1a 56be 9879 2fbe 090b 1c3f
00000060: e09b 02bf c1ad 58be 063f 2dbf e382 8f3e
00000070: 355a 0cbe 8ee1 7dbe 035c 25be 8558 a8be
00000080: 7763 a2be 226e 0dbb 8863 d43e 2f76 49bf
00000090: 8eff e63d e14d 89be 4933 0dbf 0d8c 993e
000000a0: 3f03 e7be 07a3 0abf e139 1b3e 8d63 1fbe
000000b0: 0d34 91be 5027 fd3e 780c 183f 14b4 18bf
000000c0: 63b1 52bc 789e e5be 4775 abbe a71d 853e
000000d0: 7f58 c43d f9ce c0be 5557 303e 8321 cfbe
000000e0: 2c92 2bbc 15d7 be3e 36e0 3b3e e242 8ebe
000000f0: d2e7 54be 77eb 2dbf ad7a 0dbf 20ef e23e
00000100: b184 9ebe 4b4d f7be 8953 76be cda2 cbbe
00000110: 5d1f 773e 9d07 f03e fcbb 143f 41d2 dabe
00000120: 8eb9 ee3e b605 2a3e 5619 a53e bc53 0cbe
00000130: 2ad6 fdbc 1b98 bf3e 8382 f43e 01c6 3f3e
00000140: 1624 d43e 1621 8abe e2e1 9bbd e13c b63e
00000150: 1236 25bf 2099 2fbf 8405 74be b2c9 123d
00000160: ae0d 7abe c7bc 20bd 2f13 1fbf 7960 f1be
00000170: dce5 3bbe 4252 07bd 8021 be3e 2de7 dabe
00000180: 1e34 ba3d a875 433f b6fd f83e e480 9fbe
00000190: 2051 033e 1814 d93e e064 ac3e e383 e9bc
000001a0: 3d98 963e ab90 b3be 4254 07bf 713e ff3e
000001b0: 41f6 ca3e de87 893e 8ede be3e 65a4 1e3e
000001c0: ea4b c83e a72d d53d bacd 783d 7d83 a53e
000001d0: c0be bdb7 c04f 0d3e a3c0 95be 4cb8 e53d
000001e0: 3d3e cb3e e58a b93e 73a6 193e 14a3 fc3d
000001f0: 9fd0 d33e be00 ccbd 78dc d83e 3b8f bc3e
00000200: 4973 1ebd 5175 afbe 898a dfbe 8407 283f
00000210: ea0c 9ebe 5362 4abe 40cb d9bd 0593 123d
00000220: 569f c6be 09be e9be 35a1 69be bb8d cebe
00000230: f371 b7be 5991 6f3e 4b51 ed3c 02de 56be
0.34360954 -0.13615546 -0.15109539 0.034853082 0.22597417 -0.064446636 0.35422367 -0.037089348
0.030014178 0.28998643 0.123037726 -0.22046582 0.475619 0.4945828 0.40540007 -0.24125545
0.17163388 -0.05509657 0.3879798 0.17288321 0.4752095 -0.20908377 -0.17136228 0.6095434
-0.51019096 -0.21160032 -0.6767429 0.28029546 -0.13706286 -0.24793074 -0.16148381 -0.32880035
-0.3171651 -0.0021580537 0.41482186 -0.7869596 0.11279212 -0.2681723 -0.5515638 0.29989663
-0.45119664 -0.5415501 0.15158798 -0.1556532 -0.28360024 0.49444056 0.59394026 -0.5964978
-0.012859675 -0.44847465 -0.33487913 0.25999185 0.09587192 -0.37657908 0.17220815 -0.40455255
-0.010471862 0.3727347 0.18347248 -0.27785403 -0.20791557 -0.67937416 -0.55265313 0.44323063
-0.3096061 -0.48301157 -0.24055304 -0.39772645 0.24133058 0.46880808 0.5809934 -0.42738536
0.46625942 0.16603741 0.32245892 -0.13703817 -0.03098591 0.37420735 0.47755823 0.18727876
0.4143378 -0.26978368 -0.07611443 0.35593322 -0.6453563 -0.68593025 -0.23830229 0.035836883
-0.24419281 -0.039242532 -0.62138647 -0.47143915 -0.18349403 -0.03303743 0.37134933 -0.42754498
0.09091972 0.76351404 0.48631066 -0.31153023 0.12823915 0.42398143 0.33670712 -0.028505271
0.29413024 -0.3507131 -0.5286294 0.49852327 0.39641002 0.2686147 0.3727917 0.15492399
0.39120418 0.10409098 0.06074307 0.3232688 -2.261938e-05 0.13799953 -0.29248533 0.112167925
0.39695922 0.3623878 0.15004902 0.12335792 0.41370103 -0.09961079 0.42355704 0.36828026
-0.038684163 -0.34269193 -0.4366038 0.6563647 -0.30869228 -0.1976407 -0.1063447 0.03578474
-0.3879344 -0.45652798 -0.22815402 -0.40342507 -0.35829124 0.2339529 0.028969428 -0.20983127

bias f4 [12]
00000000: 9007 773e 9b61 9ebd 35d4 f4bd 5657 58bd
00000010: 9216 0b3e 7126 073e 1244 0abd 59d4 9c3e
00000020: d92f 89be 652d 653d 07e9 f6bc 37ad e93c
0.24123979 -0.077334605 -0.11954538 -0.052817665 0.13582829 0.13198258 -0.033756323 0.30630758
-0.26794317 0.055951495 -0.030140413 0.028524978

weight f4 [3, 12]
00000000: c9f9 4abe 8ed5 fe3e 293e cdbd 014d 1fbf
00000010: cc1b 94be c4db 23bf 02e9 f93d 389b aebe
00000020: 61b2 3a3f e563 503e c44f fd3e 2f8a 1fbe
00000030: 5d95 aebe e783 5dbf faca 503f 6ae4 b53e
00000040: c7d9 dfbd 408c 983e 4d27 05bf 3585 723f
00000050: bd76 1fbf 55f7 b8be d220 98bf 7a20 173f
00000060: 0906 333e 18ab a73e fe3b f2bd 7253 283f
00000070: 626e 06bd 8e12 f33e b41d 913c e11b ccbe
00000080: 74d4 c8be 68f4 d13c 2df1 e63d 163e bcbd
-0.19821848 0.49772304 -0.10021622 -0.62226874 -0.28927457 -0.6400721 0.12202646 -0.34102798
0.72928435 0.20350607 0.4947492 -0.15580057 -0.3409833 -0.8652939 0.8155972 0.3552583
-0.109302096 0.29794502 -0.52013093 0.9473451 -0.62290555 -0.361262 -1.1885016 0.5903393
0.17482771 0.32747722 -0.11827849 0.6575233 -0.032820113 0.47475094 0.017714359 -0.3986502
-0.3922459 0.025629237 0.112764694 -0.091915295

bias f4 [3]
00000000: 2fe7 ae3e 0ca1 f93c b1bb b23d
0.34160754 0.030472301 0.087272055
