data/NN_trained_models/trained_net_17079.tar (torch_old, 25831 bytes, 10 tensors)

weight f4 [36, 12]
000000 96 2f 35 3e e9 2a 6c 3e 7f 0a ab be 18 08 10 be
       0.17693934 0.23063244 -0.33406445 -0.14065588
000010 e2 e8 9a 3d 5c d2 89 3e 5f 8a 47 3e 32 ce 88 be
       0.0756395 0.26918304 0.19486378 -0.26719815
000020 bc d5 23 3e 92 ee 81 bd 3b b3 53 bd 5f 32 d0 bc
       0.15999502 -0.06344332 -0.0516846 -0.025414644
000030 2a c8 a8 be 9b 9c 4d bd 1d 02 aa be 77 06 60 3e
       -0.32965213 -0.05019818 -0.33204737 0.21877466
000040 39 5e 34 be 1c fd 6b bb 1e d6 1f be d3 7c b4 3e
       -0.17614068 -0.003600902 -0.15609023 0.35251483
000050 9d fb ff 3c 37 91 bb 3c e2 97 3f be 9d b6 9e be
       0.031247908 0.022896392 -0.18710282 -0.30998698
000060 c1 6b 0a be c1 cb b2 bb 1b bf 88 3e b3 a5 8f be
       -0.13517667 -0.0054564183 0.26708302 -0.28056106
000070 33 b6 fe be 7e a9 a2 be 99 d7 75 3c b1 3e c8 bd
       -0.49748382 -0.31769937 0.015005016 -0.097775824
000080 cf 4a bd bd fe 40 94 3e fc ce 9d be 7f a7 6e be
       -0.09242784 0.28955835 -0.3082198 -0.23306082
000090 fd 84 eb bd 69 31 84 be 75 2a c3 be 94 03 6b 3e
       -0.11499975 -0.25818947 -0.3811833 0.22950584
0000a0 5d ef 36 be 1d 96 a2 bd e2 6a 67 3e 23 26 bc bd
       -0.17864747 -0.07938788 0.22599366 -0.091869615
0000b0 7b 17 66 be ea ce 39 be d2 80 14 be a0 cf cb b9
       -0.22469895 -0.18145338 -0.14502266 -0.0003887387
0000c0 54 3b cf be 37 93 af bc 14 6f 6b 3c ff 45 12 3e
       -0.4047495 -0.021432502 0.014369745 0.14284514
0000d0 49 41 e5 bd 56 2d 3d be 85 5b 96 3d f5 30 7e 3e
       -0.11194093 -0.18474326 0.07341675 0.24823363
0000e0 ce b2 eb 3d dd ce 1b 3e 97 d5 de be 7f 8a a3 be
       0.11508714 0.15215631 -0.4352233 -0.31941602
0000f0 9c 73 63 be 19 44 04 3e 42 ba 88 be 27 c5 0a 3e
       -0.2221207 0.12916602 -0.26704603 0.1355177
000100 20 37 fc 3d 72 c2 9a 3d 1c 99 78 be 7d 3e 0b be
       0.12315202 0.07556619 -0.24277157 -0.13598056
000110 81 64 b0 3e 1e 17 e2 be 3d e7 0c 3e e6 5d c6 be
       0.34451678 -0.44158262 0.13760085 -0.38743514
000120 91 5f f6 bd ba a6 11 be e8 33 80 3e 58 41 5b be
       -0.120299466 -0.14223757 0.250396 -0.21411645
000130 dc 24 bb be 03 8a 8c 3e 25 59 88 3d d0 7e 15 3e
       -0.3655156 0.27449045 0.06657628 0.14599156
000140 05 c4 49 bd 35 ad 14 be b6 e7 95 be f7 aa 8d 3e
       -0.049259204 -0.14519198 -0.29278344 0.27669498
000150 48 cc 48 be d8 b8 bb bd cc 5e 12 3e 46 d6 b2 bc
       -0.19609177 -0.091661155 0.14293975 -0.02183069
000160 b1 ce b5 3e bf 8d 12 3e 75 f2 cf 3d be 2a dd 3e
       0.35509256 0.14311884 0.10153667 0.43196672
000170 2e f5 a1 3a a2 c6 8b be 5a f4 ac be be b8 c1 3d
       0.0012356394 -0.27299982 -0.33780175 0.09459065
000180 8c db 9b bd eb 60 39 3c 3f d5 29 3e 57 f4 e4 bd
       -0.076102346 0.011314611 0.16585253 -0.111794166
000190 a4 01 9f be cd 8e d0 be a3 1d 68 3d 27 68 36 be
       -0.3105594 -0.40733948 0.05666889 -0.17813168
0001a0 3b 52 22 be 8a fc 1c be 60 9a 7e 3e 8b 16 82 3e
       -0.15851681 -0.15330711 0.24863577 0.25407824
0001b0 0b 48 b7 bc 11 89 ca 3e 53 fe 8c bd 92 ca 47 bd
       -0.02237322 0.39557698 -0.06884446 -0.04877717
0001c0 cf 46 82 bd 0e d2 1b be 54 34 95 be 1c e7 8f 3e
       -0.06361162 -0.15216848 -0.29141486 0.2810601
0001d0 19 2c 86 be 02 42 0f be a8 10 0b 3d c7 80 f8 3d
       -0.2620552 -0.13990024 0.03395143 0.12133937
0001e0 26 1e 90 bd 55 62 71 bc d5 99 91 3e 43 95 27 be
       -0.07037 -0.014732917 0.28437677 -0.16365533
0001f0 4a 97 f5 3d e7 f7 7a 3e 61 93 1b be af 3f 89 be
       0.11991747 0.2450863 -0.1519294 -0.268064
000200 65 cc 14 3d 5c 6d 6f 3e 17 bd 66 3e 79 f0 c4 3d
       0.03632774 0.23381561 0.2253307 0.09616179
000210 31 b3 ce bd 6e 17 54 3e ea 36 ba 3d ba 3e 88 3e
       -0.10092772 0.20712063 0.09092505 0.26610357
000220 ca 6f 5c 3e 33 6e 50 3e ad 50 05 3d 86 56 c6 be
       0.21527019 0.20354538 0.03254764 -0.38737887
000230 3c 21 02 be 83 3d c3 3d c7 b4 cd 3e b5 c4 3d be
       -0.1270799 0.09533217 0.40176985 -0.18532069
000240 94 a6 8c 3e a4 bb 18 3e 9e ef b0 be 6e 12 9c be
       0.2747084 0.14915329 -0.34557813 -0.3048281
000250 21 82 35 3e 36 9b 3e 3e 35 e3 3c 3d 6f 12 50 3e
       0.17725421 0.18613896 0.04611512 0.20319532
000260 a4 b3 57 3e 67 9a 99 be 76 d1 8f bd 2a 80 92 3e
       0.21064621 -0.30000612 -0.070223734 0.28613406
000270 8d 17 e0 3d 49 c4 0a be 00 7e bb 3b 96 1c 93 bd
       0.10941992 -0.1355144 0.0057218075 -0.07183187
000280 51 3c 2a 3d c5 2d 43 be 63 e4 12 3e 6d cc 9d 3e
       0.04156143 -0.19060428 0.14344935 0.30820027
000290 36 22 d7 be 46 78 88 3e 94 7b 66 3e b5 80 d3 be
       -0.42018288 0.2665426 0.22508079 -0.41309133
0002a0 d5 69 9f 3e a6 f2 c0 3d 33 b1 37 be 13 3f 07 3f
       0.3113543 0.094212815 -0.1793869 0.5283062
0002b0 3e 2c 29 be b5 3b 86 3d 5e 41 59 3e 32 4c f8 3e
       -0.16520783 0.06554357 0.21216342 0.48495632
0002c0 83 29 02 be ea d4 31 3e a6 86 94 3d 7b 36 32 bd
       -0.12711148 0.17366377 0.07252245 -0.043508988
0002d0 36 4b 6e bd a4 58 6a bd 9f 2d 69 bc b1 b3 f5 be
       -0.058177195 -0.05721344 -0.014232068 -0.47988656
0002e0 99 d9 22 be 1f 3a ae bd 3c 8d a6 3e 44 8d 69 3e
       -0.1590332 -0.085071795 0.32529628 0.22807795
0002f0 87 49 0a be 53 6b 82 be ac 9f 24 be 87 1b d6 bd
       -0.13504611 -0.25472507 -0.16076535 -0.10454469
000300 74 33 a3 3e bf 19 a2 bd d5 b0 98 bc d4 e4 c7 bd
       0.31875193 -0.07915067 -0.018639008 -0.097604424
000310 df ac 97 3e 7e 98 3b 3d 0e 2e 68 be 26 17 db bd
       0.29624078 0.045799725 -0.22673818 -0.106977746
000320 6f 0b a0 bd 82 7f 4a 3e 25 42 b8 be 93 d9 13 be
       -0.07814681 0.19775203 -0.35987964 -0.14438467
000330 42 23 10 be 52 54 79 3d 0c d0 93 3e a4 e6 c9 3e
       -0.1407595 0.06087143 0.28869665 0.39433777
000340 9c 78 4f be 1f e8 16 be 00 6f d4 bd 06 7e b8 3d
       -0.20260853 -0.14736985 -0.10372734 0.09008412
000350 47 01 86 3d ca ab 8f 3e b2 e4 43 3d 99 54 07 be
       0.065432124 0.28060752 0.047825523 -0.13215865
000360 db fa 37 3d 58 f3 28 be 76 49 45 bd 37 48 19 be
       0.04491697 -0.16499078 -0.04816576 -0.14968954
000370 6f fd d1 bd 74 43 65 be ff 3e 3b be bf 38 72 be
       -0.10253417 -0.22389013 -0.1828575 -0.2365446
000380 f0 f9 79 be af 6c 06 3e f2 07 72 be 24 4b 47 be
       -0.2441175 0.13127397 -0.23635843 -0.19462258
000390 e5 06 8d 3e c3 51 ae be 30 0c 43 3d 91 4e 08 3e
       0.27544323 -0.34046754 0.047619045 0.1331122
0003a0 9e b4 cb 3d 00 1f 20 3d 68 19 9c be 48 47 06 be
       0.09946559 0.039092064 -0.30488133 -0.13113129
0003b0 3b a2 55 be b1 c7 f6 bd 7f 3d 8a be 8d 79 19 be
       -0.20862667 -0.12049807 -0.27000043 -0.14987774
0003c0 11 63 c6 3d e2 bb 87 be 62 b4 a1 be 86 e5 43 3e
       0.09686864 -0.2651053 -0.31582934 0.19130525
0003d0 bd 84 9b 3e 7b fe be bd 84 c3 96 3d ea ab 09 3e
       0.3037471 -0.09325882 0.073615104 0.13444486
0003e0 d0 b5 5c be c8 fb 6c 3e de 86 de 3d 4d 60 7f 3d
       -0.21553731 0.23142922 0.108655676 0.0623477
0003f0 62 f9 04 3e 28 d7 11 3c 43 19 c2 3e 61 9e 16 3e
       0.12985757 0.008901395 0.37909898 0.14708854

bias f4 [36]
000000 f9 c5 d6 3d 36 b4 cb 3c b8 0c ce 3e 1a 91 86 3d
       0.10486979 0.024866205 0.4024408 0.06570645
000010 fb 09 b4 bd a7 92 45 be 73 c4 9d 3e bf 60 70 3c
       -0.08790966 -0.19294225 0.3081394 0.014671504
000020 83 c7 68 3e 0b 3c 18 be 2d 64 40 3d 76 29 bd bd
       0.22732358 -0.14866655 0.046970535 -0.09236424
000030 e8 5e 8c 3e 6f bb 18 3e 6a ad 28 3e 14 10 42 bd
       0.27416158 0.1491525 0.16472402 -0.047378615
000040 7a 23 4c bd 5a f0 22 be 4e 1a 6b 3e 87 14 23 bd
       -0.04983852 -0.15912 0.22959253 -0.0398145
000050 e7 87 c7 bd 6d 75 16 be fb 20 86 3d 52 aa 83 3d
       -0.09742718 -0.14693232 0.06549259 0.064289704
000060 b2 70 26 bd 24 96 51 be 93 29 92 3e f3 df c4 3e
       -0.04063482 -0.2046743 0.28547344 0.3845211
000070 20 77 d6 bd 41 8b c0 be 3a 2e 33 bd db 90 35 3d
       -0.1047194 -0.37606242 -0.043745257 0.044327598
000080 8b e5 e5 3e 90 ec f7 bd 15 69 88 3e 43 5b 0d be
       0.4490169 -0.121056676 0.2664267 -0.13804345

weight f4 [36, 36]
000000 06 41 92 3d c0 23 cd 3b a7 99 91 3e e1 d9 9a 3c
       0.071413085 0.0062603652 0.2843754 0.01890272
000010 14 53 00 3e f5 c3 54 3d 1d 2f 82 3d 66 9d a5 3c
       0.12531692 0.05194469 0.063566424 0.020216655
000020 98 a8 9b 3c 95 6f 68 3e a7 e8 cf bd 0c 43 38 bd
       0.01900129 0.22698815 -0.10151797 -0.044985816
000030 79 81 2d 3e e3 87 fa 3d 9f fb 87 3d c0 d1 10 bd
       0.16943921 0.122329496 0.0663979 -0.035356283
000040 54 37 48 be 2c 6c 4e 3e 9b 0b 4a 3e b1 b0 11 be
       -0.19552356 0.20158452 0.1973099 -0.14227559
000050 31 83 8f be a6 7b ea bc f1 cf 1d bd db 5f d6 3d
       -0.2802978 -0.028623413 -0.038528387 0.10467502
000060 cc 5c 4f be 54 5a 7e be f0 b8 e6 3c f4 15 91 3d
       -0.20250243 -0.24839145 0.028164357 0.07084265
000070 7d 3f 37 3c 09 cc fc bd 01 20 b5 bd cb 96 d2 3d
       0.01118457 -0.12343604 -0.08843995 0.10282668
000080 56 82 e6 3d 25 e6 e2 bd 92 a6 a9 bd 3c 2f 04 3e
       0.11255328 -0.11079053 -0.08283724 0.12908643
000090 b4 21 fe bd 6c dd fc 3d 9f 16 91 3d 8c 30 81 3d
       -0.12408772 0.1234692 0.07084393 0.06308088
0000a0 d6 e9 22 3e de 9f 65 be 08 a2 50 3e b5 18 b0 3d
       0.15909514 -0.22424266 0.2037431 0.085984625
0000b0 4c 7b e8 3d 6d 59 19 be 19 84 23 3e 05 7c de bc
       0.11351642 -0.1497552 0.1596836 -0.027158746
0000c0 7f a1 20 be aa 36 0a 3e 03 36 0f be ed be 57 3e
       -0.15686606 0.13497415 -0.13985448 0.21068926
0000d0 e0 94 c7 3d ac ec 7a 3d b9 8b 0b bb 07 62 e8 3c
       0.097451925 0.061260864 -0.0021292998 0.028367056
0000e0 97 67 4a be 11 4d b4 bd b0 d9 d5 bd 37 54 a3 bb
       -0.19766079 -0.08803762 -0.10441911 -0.0049844044
0000f0 11 ff 1e 3e cb 00 32 3e bd fd 8e 3d 53 59 39 bd
       0.15526988 0.17383115 0.069819905 -0.0452512
000100 f7 bb cb bc 30 9e b9 3d 4e 5a 6b 3d 3d 7f a9 3c
       -0.024869902 0.09063375 0.057459168 0.020690555
000110 e7 c2 2f 3e 07 4e 6c 3d 65 6c 01 3e a9 3f 54 be
       0.17164193 0.0576916 0.12639005 -0.2072741
000120 c7 d9 42 be 57 bd be bd c1 1a b1 3d 04 62 84 bb
       -0.19028388 -0.093134575 0.08647681 -0.0040400047
000130 69 ad 2b be cb a9 70 3e c0 0e 06 3e d1 90 86 3d
       -0.1676537 0.23502271 0.13091564 0.0657059
000140 31 aa 1b 3e ea 90 1b bc 35 00 a6 bd d0 3a be bb
       0.15201642 -0.009494999 -0.08105508 -0.005805351
000150 d4 bb f4 bd f5 52 d3 bc 42 57 00 be 63 01 98 bd
       -0.11949888 -0.025796393 -0.12533286 -0.074221395
000160 fa b6 fd 3d 26 60 52 bc de ac 4c 3e c4 01 c2 3d
       0.12388416 -0.012840306 0.19987819 0.09472993
000170 82 c2 9f be 79 da 99 bc 21 7c cb bd a9 0b 9b 3d
       -0.31203085 -0.018780934 -0.09935785 0.075705834
000180 ac b2 9f 3d d5 14 7a be 54 68 74 3e 3e 0e be 3c
       0.07797751 -0.2442201 0.23867923 0.02320015
000190 28 88 a1 bd 1d 1b 6e be 00 55 c4 3d 61 62 1a bd
       -0.07887298 -0.2325253 0.09586525 -0.037691478
0001a0 a5 67 4a 3e b2 10 99 be 4c 11 d1 3d 64 2f 8d 3e
       0.197661 -0.2989555 0.10208377 0.2757522
0001b0 8e 02 57 3d 64 e7 b0 3d 7b 90 f6 3d 8c 1e 56 3d
       0.05249267 0.08637884 0.12039276 0.052275226
0001c0 72 db 8f bd 28 ba 23 3e 60 85 c6 3d 3d 40 38 3e
       -0.07024278 0.15988982 0.09693408 0.17993255
0001d0 f1 4c 5b bc 6c b1 ed 3d af ee 07 3d 63 9d f4 bd
       -0.0133850435 0.11606106 0.03318661 -0.11944082
0001e0 4c 76 ac bd 7a d7 e5 3d 7c a5 18 3e 17 6f 34 be
       -0.08421001 0.112227395 0.14906877 -0.17620502
0001f0 8e 03 7f be 18 bf 71 3e 96 29 21 3c 40 aa 47 be
       -0.249037 0.23608053 0.009836575 -0.19498539
000200 19 e1 61 bd 0a a6 56 3d a6 bd 00 3d 80 28 26 bd
       -0.05514631 0.05240444 0.031430863 -0.040565968
000210 17 75 31 be 92 1c 0a be 40 74 97 bd 57 d9 66 3e
       -0.17329822 -0.13487461 -0.0739522 0.22543846
000220 bf 68 41 bd 7a 95 85 be 22 c7 98 3d 04 8f bf bd
       -0.047219034 -0.26090604 0.074598566 -0.0935345
000230 4e bc 87 3d 4d 9f 67 be f5 07 26 be 2c b5 1f be
       0.06627713 -0.22619362 -0.16213973 -0.15596455
000240 69 9b 9e 3d 7f 9e 5c 3d 5c 3f 8d 3d f3 4e 0a 3e
       0.07744486 0.05386209 0.068968505 0.13506679
000250 52 f9 d5 3d 0c b6 47 bd 87 9a 69 3e 1f e8 42 3d
       0.10447945 -0.048757598 0.22812854 0.04758465
000260 9b 0a 79 3d 65 01 13 3d 6a 45 3a 3d a8 fc 70 be
       0.06080113 0.03589 0.045476355 -0.2353388
000270 de 15 d1 bd cb 64 89 be bc bf a4 3d 18 23 f5 3d
       -0.10209249 -0.2683471 0.08044383 0.11969584
000280 1b 4e 35 3e b4 25 65 bd 5b cc 2a 3d 9f bd fb 3d
       0.17705576 -0.05594416 0.041698795 0.12292027
000290 2a ee 10 3e 16 d4 95 bd f1 39 88 bc d2 37 75 be
       0.14153352 -0.07315843 -0.016629191 -0.23947075
0002a0 ca 32 32 3e 67 45 d5 3d 05 38 42 bd 67 04 8c 3e
       0.17402187 0.10413628 -0.047416706 0.2734711
0002b0 cf 32 df bd 85 46 f1 bd c7 80 0a 3e 08 06 5a 3d
       -0.10898363 -0.11781029 0.13525687 0.053228408
0002c0 29 75 eb bd 7a 91 2e 3e 2c 54 3e 3e e0 04 23 be
       -0.11496956 0.17047682 0.18586797 -0.15919828
0002d0 f4 a6 4a 3e e2 29 89 bd de a3 ae bc 22 56 68 bd
       0.1979025 -0.06697442 -0.021318372 -0.056722768
0002e0 0d 94 5b bd 18 14 36 3d 01 86 42 3d 83 0c a8 be
       -0.05360799 0.044452757 0.047491077 -0.32822046
0002f0 c0 2c 01 3e ac d5 b4 be ab 6d 8a 3e fe 57 f0 3d
       0.12614727 -0.3531927 0.27036795 0.11735533
000300 7e 43 aa bc 6c 41 69 be c9 5f e6 bd 57 71 3a be
       -0.020784136 -0.22778863 -0.11248738 -0.18207298
000310 57 8e dd 3c 2c 11 18 be a7 2a 26 bd 4f af 88 bc
       0.027045412 -0.148503 -0.04056802 -0.016685156
000320 b6 24 34 3d 08 45 b7 3e be f3 1e be ae d8 7b 3d
       0.043980323 0.35794854 -0.15522668 0.06148594
000330 03 81 9c bc 7c b6 9a 3e c0 a2 17 3e 0a ed 5b 3d
       -0.019104486 0.3021735 0.14808178 0.053692855
000340 9b 2f ca 3c 8c 33 ac 3e 62 6d db bd d0 92 60 be
       0.024680903 0.33633077 -0.107142225 -0.21931005
000350 aa f2 82 3e 26 1c 58 3c bc 12 93 bd 3f 5f 6c 3e
       0.25575763 0.013190305 -0.07181308 0.23083209
000360 65 f2 5d be 52 8e 3f 3e e4 d7 a3 3d 8b d1 5e bd
       -0.21674497 0.18706635 0.08000162 -0.054399054
000370 a4 47 1b 3e c3 b3 71 be a3 5b 65 3e cc d8 67 be
       0.15164047 -0.2360373 0.22398238 -0.22641295
000380 ca 4e ea 3c f4 39 95 3d 4a ce 18 bd 76 ec 91 bc
       0.028602023 0.07286444 -0.037306108 -0.017812949
000390 13 32 4c be 78 91 a7 bd a7 d5 10 be d3 3f b9 3d
       -0.19940977 -0.08182043 -0.14144002 0.09045377
0003a0 7e 9d 2d 3d e1 5c d8 bd 4a 21 32 3d b0 76 f9 3d
       0.042386524 -0.1056459 0.04348878 0.12180841
0003b0 a1 4d 1b 3e 6d 57 38 3e be 82 45 3e bb 70 64 be
       0.15166332 0.180021 0.19288155 -0.22308628
0003c0 92 67 26 3d b2 98 7f 3e d0 cc b1 bd ce 0f 25 3d
       0.040626116 0.24960592 -0.08681643 0.040298276
0003d0 20 51 a2 3d 3a a9 c8 bc a8 a2 00 3e a7 91 61 3e
       0.079256296 -0.024494756 0.12562048 0.22028218
0003e0 94 86 8f 3d a9 4a 25 3e 1b ae 94 3e f3 b4 a2 bc
       0.070080906 0.16141762 0.29039082 -0.019861674
0003f0 6f 00 22 be 6d 7d 5e 3d e5 3a bd 3d a7 7f 5c 3e
       -0.15820478 0.054318834 0.09239749 0.2153307

bias f4 [36]
000000 b3 3b a3 3d 05 d2 bf bd 1c 6b 3f 3e f0 3f f5 3d
       0.07970371 -0.0936623 0.18693203 0.11975086
000010 c2 a1 a3 3d 2d 0c c0 bc e3 d3 99 3d 26 8a 1a bd
       0.07989837 -0.023443306 0.07511117 -0.037729405
000020 8a 2a f5 3d a4 86 3b 3e f0 8d ba 3c 42 b7 0b 3e
       0.11971004 0.1831308 0.02277276 0.13644126
000030 1b f5 7c 3e f2 83 ce 3d c5 6d 86 bb 09 69 c0 bd
       0.24702875 0.1008376 -0.004102441 -0.09395034
000040 c1 1a 4b 3e 09 e2 bc 3b 20 cf ef bd 2f 70 d7 bd
       0.19834425 0.00576425 -0.11709428 -0.10519444
000050 b3 aa 8c bc aa 78 27 bd c6 64 be 3d 12 aa b8 bd
       -0.01717124 -0.04088656 0.09296565 -0.09016813
000060 d4 34 0b bd 14 16 fa 3b 7d 73 1b 3d b5 81 b1 3d
       -0.033985928 0.0076320264 0.037951935 0.08667318
000070 77 d7 66 bd d1 c0 fc 3c 40 e1 bf 3d be 09 3e 3e
       -0.056357827 0.03085366 0.09369135 0.18558404
000080 89 23 18 bd 13 88 01 bd fa b2 e5 3d 7b e4 26 3e
       -0.037143264 -0.03162391 0.11215778 0.16298096

weight f4 [36, 36]
000000 10 f1 e3 bd 3a c6 69 3e 20 47 8e be 33 cb 07 3d
       -0.111299634 0.22829524 -0.2778864 0.03315277
000010 74 02 67 3e e0 40 99 3d c1 5d 92 3e e2 b0 b5 be
       0.2255953 0.07483077 0.28587154 -0.35486513
000020 42 23 d2 3d 3a 6e 09 bd f8 13 3f be d4 05 62 3e
       0.10260631 -0.033552386 -0.18659961 0.22072536
000030 98 93 95 39 d5 61 76 3d 06 cc b3 3e 76 bd b9 3e
       0.0002852946 0.060151894 0.35116595 0.3627736
000040 47 e2 2d bd ff c5 fd 3e 41 5f 99 3e b0 46 7d 3d
       -0.042452123 0.49565122 0.29955485 0.06183499
000050 e1 db 6c 3e f3 d9 ac bd 61 94 19 3e 4a 11 cd 3e
       0.23130752 -0.08440008 0.14998008 0.40052253
000060 24 8e ed bd 02 06 1b be 4f 99 18 3e 32 6c 89 3d
       -0.11599377 -0.1513901 0.14902233 0.0671009
000070 e7 51 91 be d7 6e d4 3c 35 e5 2f be 21 f4 22 be
       -0.283828 0.025931759 -0.1717728 -0.1591344
000080 c0 15 d6 3d e4 48 70 3e 06 55 2b be 54 32 23 3e
       0.10453367 0.23465306 -0.16731653 0.15937167
000090 98 98 97 3e d1 7f 6e bd a8 b4 33 3e 80 88 7f bb
       0.29608607 -0.058227364 0.17549384 -0.0038991272
0000a0 20 3b a8 bd 87 e8 c3 be 07 e1 82 bd d5 d2 64 bc
       -0.08214402 -0.38263342 -0.06390577 -0.013966282
0000b0 38 43 a3 3d 94 18 f0 3d 8a 82 a5 3d 04 a7 bf bb
       0.07971805 0.11723438 0.08081539 -0.0058487672
0000c0 ca 53 7b 3e 89 2a 40 3e a8 06 3c 3d 0e 0e dd bd
       0.24543682 0.18766226 0.045904785 -0.10793696
0000d0 99 d5 3b bd 8b a7 f9 bd 76 b9 4e be 6d d9 14 be
       -0.045858 -0.121901594 -0.20187935 -0.14536066
0000e0 d4 62 9c be b6 00 28 3e 89 28 a3 be 8d 3e 1e 3c
       -0.3054415 0.16406521 -0.31866863 0.009658468
0000f0 f2 a9 0a 3e dc 7c 47 3e d7 fc 11 3d 90 35 66 bd
       0.13541391 0.19481224 0.035641517 -0.056203425
000100 50 95 c6 ba 3b 47 54 3e 56 c3 f0 bb 36 82 8b 3e
       -0.00151507 0.20730297 -0.0073475046 0.2724778
000110 4d cd 7a be 2a 5b 32 39 9c b2 a3 3e f3 93 2d be
       -0.24492379 0.00017009364 0.31972206 -0.1695097
000120 6b 66 bb bd 7e 43 9c 3e 60 44 d5 bd f4 b1 bb bd
       -0.09150394 0.30520242 -0.10413432 -0.09164801
000130 1f 75 79 3e f2 7d c4 3d 4d 4e 0e 3e 75 6d a5 be
       0.24361084 0.09594335 0.13897057 -0.32310072
000140 73 52 20 3e 79 e9 f7 3c 4b d7 41 be b2 e6 a8 3e
       0.15656452 0.030262696 -0.18929784 0.32988507
000150 ea 3a 7e 3e 60 32 d3 3d c3 68 3e 3e e9 40 a5 3e
       0.24827161 0.10312343 0.18594651 0.32276085
000160 f5 4b 11 be 3c 53 ec 3e 9d da 83 3d 85 0e a6 3e
       -0.14189132 0.46157253 0.064381815 0.32432953
000170 a0 3f 04 3e 81 b5 0b bc 04 9e 6c bc bf e8 4f 3e
       0.12914896 -0.008527161 -0.014441971 0.2030363
000180 65 e4 8a be 94 9b 8b be 8f b1 93 3e 12 fd 15 3d
       -0.27127376 -0.27267134 0.28846404 0.0366183
000190 86 aa 85 be e3 68 3f 3d 11 21 80 be 2e 8b 07 be
       -0.26106662 0.046730887 -0.25025228 -0.13236687
0001a0 f3 a1 a6 3c 8e 7c 68 3e b2 b8 17 be 7e c3 d3 3e
       0.020340895 0.22703764 -0.1481655 0.41360086
0001b0 b9 ff eb bc e8 c6 1d be b7 a6 10 bd 6c ca ff 3d
       -0.028808462 -0.15407908 -0.03531524 0.12489781
0001c0 e6 37 51 3c 89 27 e5 bd e0 9a 34 be 56 02 94 bc
       0.012769675 -0.11189181 -0.17637205 -0.01806752
0001d0 c2 79 77 3e cb 42 62 3e 4c a6 27 bb aa 84 18 be
       0.2416754 0.22095792 -0.0025581298 -0.14894357
0001e0 45 47 3f 3d 16 e2 11 3e 9b e2 0a be 92 35 10 be
       0.046698827 0.14246401 -0.13563006 -0.14082935
0001f0 1a 8b b0 3d fb 9e 52 bd a6 5b de bd e5 11 c6 bc
       0.086202815 -0.051421147 -0.10857324 -0.024178455
000200 eb 23 88 bd 0c 00 82 3e cb 6f af be 2b bb ea bc
       -0.06647476 0.2539066 -0.3426498 -0.028653702
000210 c1 8e b9 3e 8b d4 8d 3d 2a e8 72 be 38 6c 19 bd
       0.36241725 0.06925305 -0.23721376 -0.03745672
000220 6a 82 88 bc 9a 5d e4 3e 97 96 66 3e 2e f9 83 3e
       -0.016663749 0.44602662 0.22518383 0.25776047
000230 bd 43 9b be 33 a2 8a bd 08 c0 5f 3e ae b5 75 be
       -0.30325118 -0.06769218 0.21850598 -0.23995087
000240 20 c2 62 be b6 3f 5b 3e 3e 85 96 be 58 b5 94 be
       -0.22144365 0.21411023 -0.2939853 -0.29044604
000250 71 fd ae bd a8 0f 95 3e 7f 25 90 3e d6 eb 07 3d
       -0.08544434 0.29113507 0.28153607 0.033183895
000260 51 37 5c be c4 69 96 bd e6 a2 6f 3d b2 29 81 3e
       -0.21505477 -0.07344392 0.05850496 0.25227123
000270 6a 22 bc bd 27 3a ab be 8b 43 cc 3d 5f e1 bb bc
       -0.091862515 -0.33442804 0.0997382 -0.022934614
000280 ff e8 3a be c3 75 cd 3d ce 1d 76 3e e8 dd 0f 3e
       -0.18252943 0.10032227 0.24034807 0.14049494
000290 ae 62 1c 3e 89 5d 92 be 29 05 a3 3e 22 97 86 3e
       0.15272018 -0.28586987 0.31839874 0.2628718
0002a0 94 4e 80 be d0 44 92 be a2 8a 10 3e 18 cb b1 3b
       -0.2505995 -0.28568125 0.14115384 0.005425822
0002b0 e2 a0 06 3b 94 9e bf be 7d 7b 0a be cd da ab be
       0.002054267 -0.37425673 -0.1352367 -0.3356537
0002c0 ad 0e be 3d be 07 15 3e 7d 17 eb bd 9c a9 8b 3d
       0.09280143 0.14553735 -0.114790894 0.0681946
0002d0 d1 45 1e 3b 4c eb c8 3e af 98 4c be d7 35 8f 3d
       0.00241505 0.39242017 -0.19980119 0.06992691
0002e0 2f b7 9e 3e a7 e5 5f 3e 02 3f 07 3e 39 ce 7c be
       0.30999133 0.21864949 0.1320763 -0.24688043
0002f0 0d 71 96 3c fd 9b 1f bd 72 24 d8 bd ce f6 d7 3e
       0.018364454 -0.03896712 -0.105538264 0.42180485
000300 cc 55 46 3e 0f 00 2c 3e e8 e3 bf 3e e5 06 a4 3e
       0.19368666 0.16796897 0.37478566 0.3203651
000310 06 e4 8b bd e4 a2 a0 3e c2 74 bc 3d da 98 3d 3e
       -0.068306014 0.31374276 0.09201957 0.1851534
000320 8f ff 53 3b 25 31 46 3e 93 a9 ed bd 97 51 d0 3e
       0.003234837 0.19354685 -0.11604609 0.40687248
000330 51 27 56 be b3 db 95 bd 66 0a ab 3e 6f ef dc 3d
       -0.20913436 -0.07317295 0.3340637 0.10787856
000340 36 30 ab be 1a 6a f6 3c f2 9b f4 bb e7 0b 10 be
       -0.3343522 0.03007989 -0.007464879 -0.1406704
000350 3a 5d 84 3e 1a 81 56 3e 88 09 55 3d e3 35 99 3e
       0.25852376 0.20947686 0.052011043 0.29923925
000360 89 d7 46 3e 67 44 9e 3d f9 72 01 3d 90 cb 69 3d
       0.19418158 0.077278905 0.031603787 0.057078898
000370 8e 79 f2 3c 19 3d 83 be ad dc c6 bd 02 7a 7c 3d
       0.029598977 -0.2563255 -0.09710059 0.061639793
000380 e1 12 c6 3d dc 77 32 3e 9e d7 90 bd 50 a7 46 3c
       0.096715696 0.17428535 -0.07072376 0.012124851
000390 36 9a 6e 3c 08 22 d6 3e ec 02 c3 bb 04 4c e8 bd
       0.014563134 0.4182284 -0.005951276 -0.11342624
0003a0 96 e6 15 3e 88 af 2e be b4 79 7f bd f4 bf 5f be
       0.14638743 -0.17059147 -0.062371925 -0.21850568
0003b0 fd 72 48 bd 94 85 a0 3d 89 16 98 be 24 89 54 bd
       -0.048937786 0.07837978 -0.29704693 -0.0518886
0003c0 da 19 9e 3e 20 c8 a5 3d b9 d0 69 bd 6c 2c 5a be
       0.30879098 0.080948114 -0.05708382 -0.21306008
0003d0 3b 5b 18 be 5f bc e0 3e 17 20 b2 3d 97 39 1e 3e
       -0.14878552 0.43893716 0.08697527 0.15451656
0003e0 7b c1 64 be 4a 37 88 be bb bf c1 3e a2 13 41 bc
       -0.22339432 -0.26604682 0.3784159 -0.011784466
0003f0 0a b8 17 be f5 f8 86 3c 2c 6f 8d be 8a a2 e9 bd
       -0.14816299 0.016476134 -0.2762388 -0.11407955

bias f4 [36]
000000 dc fd f3 3d 8c 55 a2 bd 0c e3 ab 3c 87 8b ca 3d
       0.11913654 -0.07926473 0.020982288 0.09889894
000010 eb 54 9e bd 11 72 a7 3d 44 ce 84 3d 68 a9 95 3d
       -0.077310406 0.08176053 0.064846545 0.07307702
000020 23 f7 75 bd 06 e1 8b bc 07 f0 12 bd a4 2d f1 bc
       -0.06005014 -0.017075073 -0.03587344 -0.029440708
000030 35 df e1 3d da 3e 4d bc 8e 7f 36 3d b7 93 0c 3e
       0.110289015 -0.012527192 0.04455524 0.13728224
000040 23 c3 d3 3d 17 51 83 3c 90 30 62 bd 4b 81 5a 3d
       0.10339954 0.016029878 -0.055222094 0.05334596
000050 4b ff 10 3e 41 4d a2 3d aa 49 d5 3d 70 52 e8 bd
       0.14159887 0.07924891 0.10414441 -0.11343849
000060 39 22 85 bd 45 73 a2 bd 1c e8 13 3c 35 55 09 be
       -0.06500668 -0.07932142 0.009027507 -0.1341141
000070 fa d9 6a 3d 50 17 b4 3b 81 62 68 3d 8d 3a 02 be
       0.057336785 0.005495943 0.056734566 -0.12717648
000080 a0 c2 48 bc d3 7f 0e 3e ba e5 24 3e 23 4f 07 3e
       -0.0122534335 0.13915949 0.16103259 0.13213782

weight f4 [36, 36]
000000 46 ee ab bb 60 b3 e2 bc aa 79 ba bd 77 99 ac 3d
       -0.0052469103 -0.027673423 -0.09105237 0.084277086
000010 6b 14 0c bd 50 0e e6 3d f1 22 df 3d 83 53 5c be
       -0.03419916 0.11233199 0.108953364 -0.21516232
000020 07 76 59 3e 00 36 55 3e 93 6e 0d 3d ee 8f 10 bd
       0.2123643 0.2082138 0.03452928 -0.035293512
000030 5d 47 47 3e f9 f3 b6 bd e0 cc 0d be 0c 9c 07 3d
       0.19460817 -0.08933253 -0.13847685 0.033107802
000040 db 45 ee 3d 7e 92 b6 bc 53 a3 50 3e 21 b2 7f be
       0.116344176 -0.02228665 0.20374803 -0.24970295
000050 69 32 70 be 10 4f e3 3d 68 34 19 be c7 2a 78 bd
       -0.2345673 0.11099064 -0.14961398 -0.06058767
000060 0b 4f df bd 18 6e f6 bd 3f 36 81 3d c4 ae 23 3e
       -0.10903748 -0.120327175 0.06309175 0.15984637
000070 4d 05 51 be d2 80 95 bd e3 55 62 bb 9d 9d 82 bc
       -0.20412178 -0.07299961 -0.0034536056 -0.015944296
000080 98 21 2f 3d 13 69 7c be e8 d0 53 bd ef d2 ac 3c
       0.042756647 -0.24649458 -0.0517129 0.021096675
000090 06 4a 83 3d ef 11 26 3c 97 da 18 be 16 64 5a 3e
       0.06410603 0.010136112 -0.14927135 0.21327242
0000a0 93 73 8d be 82 a3 13 be 1a ec 40 3e 10 3f 68 3c
       -0.2762724 -0.14417842 0.18840066 0.0141751915
0000b0 f0 a3 10 bd ce e2 6b bc bf 65 82 be e8 4a 42 be
       -0.035312593 -0.014397336 -0.2546825 -0.18973887
0000c0 05 93 b1 3d 26 18 9b 3c 04 a5 dc bd 07 2d 2e 3e
       0.0867062 0.018932413 -0.10773662 0.17009364
0000d0 11 f4 12 3e 30 f1 47 3d 48 b2 ec 3d ad 88 9c 3c
       0.14350916 0.048814 0.11557442 0.01910814
0000e0 82 33 20 be 0d 46 1a 3e dd 70 bc bd 6d e7 d7 3c
       -0.15644649 0.15065785 -0.092012145 0.02635547
0000f0 75 da 25 be be 00 6d bd ed c2 a8 bd 0d e8 6c 3d
       -0.16196616 -0.057862036 -0.08240304 0.05783849
000100 1c b5 cc bd 77 e2 47 bd 45 5b 90 bd b6 9c 44 3e
       -0.09995481 -0.048799958 -0.07048658 0.19200405
000110 f6 87 91 bd fd a8 c9 bd 07 ba 5d bd 7a 8e 5b 3d
       -0.071060106 -0.09846685 -0.054132488 0.053602673
000120 e2 7b d2 bd dc 7d 57 3e 41 d7 23 be 42 73 3d 3e
       -0.10277535 0.21044105 -0.16000082 0.18500999
000130 c3 07 43 be 6f 3d a1 bd d6 0f 63 3d 86 4d 7b be
       -0.1904593 -0.07873046 0.055435024 -0.24541292
000140 fc 79 bf bb f8 91 6e bd b5 36 8c be cc d4 58 be
       -0.005843399 -0.058244675 -0.27385488 -0.21174926
000150 7e 27 45 3e 5b 4c da bd 7b 41 5f be f9 8d 35 3d
       0.19253346 -0.10659095 -0.21802323 0.04432485
000160 0b f1 5e 3e a2 82 95 bd cc d7 45 3e 7b 8b 7e be
       0.21771638 -0.07300307 0.19320601 -0.24857895
000170 65 34 88 ba be af 4b 3d 40 42 27 be f5 59 02 3d
       -0.0010391591 0.049728148 -0.16333866 0.03182407
000180 45 98 9e 3d 43 46 32 be 7b a3 b2 3d 84 22 e0 3d
       0.07743887 -0.17409615 0.08722588 0.10944083
000190 f0 a6 04 be b1 ca 73 be 7f 38 28 be 30 18 83 bd
       -0.12954307 -0.2380779 -0.16427802 -0.06401098
0001a0 f6 25 13 bd 2d 86 49 3d 7c 7a 0a 3e 09 07 fc 3a
       -0.035924874 0.049200226 0.13523287 0.0019228171
0001b0 a4 e4 78 3e 0d c9 db 3d 28 49 19 3e 33 90 1f be
       0.2430597 0.10731707 0.14969313 -0.15582351
0001c0 42 d7 cd 3c ee 95 63 bd fc 29 e3 bd 08 7f fb 3d
       0.025127057 -0.055562906 -0.11091992 0.12280089
0001d0 7d 3d 28 be e8 52 5c 3b 03 b5 de bb ee 5c 72 3e
       -0.16429706 0.0033618752 -0.0067964806 0.23668262
0001e0 8c d3 d0 3c 7b 21 37 bc c7 b4 35 3e 31 5e 9e bd
       0.025491498 -0.011177416 0.17744742 -0.07732809
0001f0 e3 19 91 3d 24 72 8a 3d 4c bc 4f bd 29 b9 ea 3c
       0.070850156 0.06760052 -0.050716683 0.028652744
000200 10 6d ce 3d b7 7d 67 bd 40 94 37 3e bd 1a 41 3e
       0.10079396 -0.056516375 0.17927647 0.18857856
000210 8d 5c f9 3c 24 7c 86 bd 47 d1 98 bc fd b5 c7 bd
       0.03043964 -0.06566647 -0.018654479 -0.097515084
000220 01 6d 94 bc a7 df 4e 3e eb cf 11 3e 88 79 22 3d
       -0.018118383 0.20202504 0.1423947 0.039666682
000230 21 3f 26 3e 27 da 48 3e 2d 2b c2 bd df 4c 46 3e
       0.1623502 0.19614469 -0.094808914 0.19365261
000240 af cc 09 bb 5b dd 6e be b8 7a 05 3e c6 6d 4a 3d
       -0.0021026542 -0.23326628 0.13035095 0.049421094
000250 39 1f 2a 3e 90 1d fc 3b 27 5e a7 3c 13 f2 04 3e
       0.16613473 0.007693954 0.020430638 0.12982969
000260 4d 1f 2b be c9 cb ac bd fc 9d 08 3e b4 8f d3 3d
       -0.16711159 -0.084373064 0.13341516 0.103301436
000270 5f 99 ee bd c3 fe 8e 3d 4f f0 c9 3d 56 d4 fe bd
       -0.11650347 0.06982186 0.09860288 -0.124428436
000280 3c d0 28 bb 64 c6 68 be 84 ef 70 be 09 16 4d 3e
       -0.0025758883 -0.2273193 -0.23528868 0.20027937
000290 cb 95 61 3e f0 27 2b 3d e7 35 ab 3c 25 29 75 3e
       0.22029798 0.041786134 0.020899726 0.23941477
0002a0 de fb 0c be df 65 82 3d d6 9b 61 bb 8f ba 11 be
       -0.13767955 0.063670866 -0.003442516 -0.14231323
0002b0 78 4a d4 3d c2 51 57 3d 49 ea fa bd 3a f6 2e be
       0.10365766 0.052568205 -0.122517176 -0.17086115
0002c0 08 16 60 3e 5f c1 92 3e 6d 9a 1c be 87 0c 0f 3e
       0.21883404 0.28663155 -0.15293284 0.13969623
0002d0 40 9a b1 3c 95 53 bc bb 48 84 ac bd a8 ef 76 3e
       0.021679997 -0.0057472684 -0.08423668 0.24114859
0002e0 c2 20 3c be 4b 57 9f bb 10 71 39 3e 26 b8 89 bd
       -0.18371871 -0.004862701 0.18109536 -0.06724577
0002f0 88 d2 4f 3e 3c 49 6d 3d 25 ca 2f 3d ab b4 a7 3d
       0.20295155 0.05793117 0.04291739 0.081887566
000300 f2 c5 08 3e 98 cf 39 3c 46 10 24 be 63 18 03 3e
       0.1335676 0.011340998 -0.16021833 0.12802272
000310 9b a4 08 3e 63 ca 0b 3e 42 3e a7 3d 4d 8a 8f bd
       0.13344042 0.13651423 0.081661716 -0.07008801
000320 0f a8 55 be 5f ed 40 3d ad ae cf bb 9b 00 8b be
       -0.2086489 0.047101375 -0.0063379616 -0.271489
000330 71 c4 ab bd 44 19 c9 bd 86 78 45 3d 6d 81 4d 3d
       -0.083870776 -0.09819272 0.048210643 0.05017226
000340 83 e1 99 bd 6d 2a 2e be 38 f2 2a 3d b3 6d 2c 3e
       -0.07513716 -0.17008372 0.041734904 0.16838722
000350 08 3d 6b be 99 c1 36 be 2a 9a a5 bc d6 7d 7f be
       -0.229725 -0.17847289 -0.020215113 -0.24950346
000360 75 b6 3b 3e 32 8b d2 3d 7b 0e ae bd 6b ef 1f 3e
       0.1833132 0.10280456 -0.08498856 0.15618674
000370 94 7c 8f bd 4f 1c 41 3e 9f f1 20 bc c0 d0 39 bd
       -0.07006183 0.18858455 -0.009823232 -0.045365095
000380 ba 5a 47 3e 92 73 82 bc 4a a0 93 3a 89 7a b1 3d
       0.19468203 -0.015924249 0.001126298 0.0866595
000390 89 0a 9c 3c bc a9 24 be 04 0e 45 bd af 30 bd 3d
       0.019047992 -0.16080374 -0.04810907 0.09237801
0003a0 d8 b1 09 bd 22 7f bb 3d a2 18 26 3e 14 ac db bd
       -0.03361687 0.09155108 0.16220334 -0.10726181
0003b0 95 06 b5 3d 0f 15 ba bd ac d5 10 bc 30 fb ae 3d
       0.08839146 -0.09086048 -0.008840006 0.08544004
0003c0 99 3d 38 3e 41 02 3e 3d 4a d8 d6 3d 08 b4 aa bd
       0.17992248 0.04638887 0.104904726 -0.083351195
0003d0 7d 32 ad 3d 4a f4 77 3c 39 83 f6 3c eb 45 64 3d
       0.084568955 0.015133927 0.030091869 0.05573074
0003e0 ef 8b 74 3c 89 81 4d be 87 1d 35 3d e4 2b 52 be
       0.014925941 -0.20068945 0.044217613 -0.20524555
0003f0 57 ab 56 be fd 31 19 3e 57 20 8b 3d af c8 d0 bc
       -0.20963798 0.14960475 0.06793278 -0.025486318

bias f4 [36]
000000 27 48 97 bd be e8 d0 3c 7c 80 1a 3e ed 05 22 be
       -0.07386809 0.025501605 0.15088075 -0.15822573
000010 ba b5 a9 3c a0 e4 db bd e6 00 af bc 79 fa 88 bd
       0.020716537 -0.10736966 -0.021362733 -0.06688399
000020 cf e0 85 bd 00 6f 29 3c b3 09 8f bd 86 7c 89 3c
       -0.065370195 0.010341406 -0.06984272 0.01678301
000030 ca 3b 8c bd d9 25 f1 bd 87 a6 d3 bd ec 67 af 3d
       -0.06847341 -0.11774797 -0.10334497 0.085647434
000040 e2 8b ff 3d ef 26 a1 3d fd 52 23 3e 1d 5c d4 3c
       0.124778524 0.07868754 0.15949626 0.02592283
000050 0c 14 b9 bb 5b 45 22 3e 5c e5 35 3d b6 fd 8b bd
       -0.0056481417 0.1584677 0.044408187 -0.06835501
000060 09 ec 25 3e 82 46 5f bc 18 db 0c be 53 1c 13 be
       0.16203322 -0.01362765 -0.13755453 -0.14366274
000070 a8 b6 13 3e 88 50 c7 3d d1 73 14 3c ce 9f 2e be
       0.14425147 0.09732157 0.009060816 -0.17053148
000080 54 59 e8 bd ec 82 0c bd 0f 72 88 3d df fb 2b bd
       -0.11345163 -0.034304544 0.0666238 -0.04198825

weight f4 [3, 36]
000000 54 de a3 be e0 8c 67 be 4b c5 8e be 24 d6 f4 3d
       -0.3200556 -0.22612333 -0.27884898 0.119549066
000010 6d 2c dc 3e a5 18 b8 be 22 27 08 be 17 24 26 be
       0.43002644 -0.35956302 -0.13296178 -0.16224705
000020 17 e7 51 be fb e2 e7 be 5a 4d 10 be b2 e0 63 3d
       -0.2049831 -0.4529036 -0.14092007 0.055634208
000030 98 ed af bc 5b 3f 75 3e d2 f4 2d be a1 4f 60 3e
       -0.021475598 0.2394995 -0.16987923 0.21905376
000040 79 47 bc 3c 3a a4 a9 bd 63 5d 12 be c5 2e 06 3e
       0.0229833 -0.08283277 -0.14293437 0.13103779
000050 88 58 b2 3e 57 83 12 be 80 f3 d8 3e 21 ee 44 3e
       0.3483317 -0.14307915 0.42373276 0.19231464
000060 a1 aa 3b be 30 a1 ee bd a3 f2 f4 3d 08 f4 a4 be
       -0.18326809 -0.11651838 0.11960342 -0.3221743
000070 0c 03 ce 3e 02 be 09 be 3c 54 28 3c 81 0e 05 3f
       0.402367 -0.13451388 0.010273989 0.51975256
000080 8a 06 82 be e4 82 a3 3e 7d be 11 be 27 0c 32 3e
       -0.25395614 0.319358 -0.14232822 0.17387448
000090 e9 46 66 3e 82 60 75 3e 91 27 d2 3e 68 8e 7d be
       0.22487988 0.23962596 0.41045812 -0.24761355
0000a0 cd 53 91 be 60 34 06 bc e8 25 59 be 93 a9 a3 3e
       -0.28384247 -0.008191198 -0.21205866 0.31965312
0000b0 36 15 c3 3e dd 3d 86 3e ad b7 7f 3e 71 b1 62 bd
       0.3810212 0.26219073 0.2497241 -0.055345003
0000c0 0e 59 76 3d 98 6c 99 bd 3b 7d 9b 3e 77 24 ee bd
       0.060143523 -0.07491416 0.3036898 -0.11628049
0000d0 8e a7 97 3e c1 a4 87 3e 75 cf d1 3e 5a 57 43 be
       0.29620022 0.26492885 0.4097859 -0.1907629
0000e0 59 82 5a 3d 19 56 e9 3d f0 2b 87 3d 9f 4d 0b be
       0.053346965 0.11393375 0.06600177 -0.13603829
0000f0 4a 39 e8 3e a4 63 5f 3e 22 8e 3b 3e 08 e0 16 3e
       0.45356208 0.21815354 0.18315938 0.14733899
000100 68 e2 a7 bd b0 9c c6 3e fd df a9 3e 82 6c 99 bd
       -0.081974804 0.38791418 0.33178702 -0.07491399
000110 21 0c b3 bc 1f 39 a6 be 83 ce a7 3e d6 ad 8d be
       -0.02185637 -0.32465455 0.32774743 -0.2767169
000120 f7 35 5a 3e ab 4a c7 3d 3a 7d 94 3d 1a 19 ca 3c
       0.21309648 0.09731039 0.072504476 0.024670172
000130 e7 cd b3 be bb e3 9b 3d 53 72 ff 3d 59 7e 87 3e
       -0.3511803 0.076117955 0.124729775 0.26463583
000140 45 02 15 ba 4d 76 b6 3e a8 09 56 3d ff 67 07 3e
       -0.0005684237 0.3563713 0.052255303 0.13223265
000150 51 bf 7b bd 21 3a 9e be 1c bd 81 3d 40 29 d5 3d
       -0.06146175 -0.30903724 0.06334898 0.104082584
000160 97 36 a2 bc 40 97 52 be df ff 9e bd 20 6d 26 3e
       -0.019801421 -0.2056551 -0.07763647 0.16252565
000170 4b 45 b1 be 52 67 36 3c bd c1 c4 be 0c ec 0d be
       -0.3462318 0.011133032 -0.3842906 -0.13859576
000180 37 65 01 3e 16 fa 26 3e 2a a1 1c be 66 3b 39 3d
       0.12636267 0.16306338 -0.15295854 0.045222662
000190 18 6e b7 be 50 ef 0a be 49 fa f8 3d c4 0b 5a be
       -0.35826182 -0.13567853 0.12157113 -0.2129355
0001a0 a8 df c0 3d 5d ef 43 be 01 ee f7 3a 4f 9b 75 be
       0.09417659 -0.19134279 0.0018915535 -0.23985027

bias f4 [3]
000000 17 9b e2 bd 45 52 1c 3d 9a 90 5f 3d
       -0.11064737 0.038164396 0.054581262
