data/NN_trained_models/trained_net_792.tar (torch_old, 6521 bytes, 4 tensors)

weight f4 [6, 12]
00000000: 0dd1 b8be f680 54bf 2b21 1ec0 7823 713f
00000010: 4d51 dabe 035c 703e 6e20 4abf d932 cb3f
00000020: a518 033e 8206 af3d 3476 83be 9a0f d7bf
00000030: f734 023f 9985 8cbf 1755 40be 26e0 2bbf
00000040: 9d9a 693f 5ae8 ee3d c4f8 b53e dc5e 87bf
00000050: 4df1 073f 2b82 90bf b224 7c3f b3b4 b4be
00000060: af49 dfbe 5fff 84bf 1d88 833f f9ae 45bf
00000070: 9105 1abf 8b22 5ebc d28a 5b3e ab78 c8be
00000080: ebbc 68bf 6238 813f b641 80be 0cd5 bbbe
00000090: f6f2 23bf 09bd 60bf 790c a83e 4699 6d3f
000000a0: 2253 a9be 8374 993e ff33 2d3d 140b f3bd
000000b0: fb06 ebbe 05c4 73be d1bb 5d3f 95c1 f7bc
000000c0: 4073 1ebe ef57 adbe 593d a43f d9b0 81bf
000000d0: f646 51be 4c1f aebf 563e 90be df88 26bf
000000e0: a60f 8bbe 8166 2340 0941 0dbe c917 bfbf
000000f0: dfaa d33e 097d 083f d891 80bf 9f4e b33c
00000100: 24c3 d8be 77bb da3d cea0 90be c5de 2cbf
00000110: cace 4b3f 04f6 52bf 1053 283f dcbc e5be
-0.36096993 -0.8300928 -2.4707744 0.94194746 -0.42640153 0.234726 -0.78955734 1.5874892
0.1280237 0.08546163 -0.2567612 -1.6801636 0.5086207 -1.0978271 -0.18782459 -0.671389
0.91251546 0.11665411 0.35541356 -1.0575824 0.5310257 -1.1289724 0.9849349 -0.35294113
-0.43610904 -1.0390433 1.0275913 -0.7722011 -0.60164744 -0.01355804 0.21439674 -0.39154562
-0.90913266 1.0095332 -0.25050133 -0.3668598 -0.64042604 -0.87788445 0.32822016 0.92812
-0.33071238 0.29971704 0.042285915 -0.11867347 -0.45903763 -0.23805244 0.8661471 -0.030243674
-0.15473652 -0.3385615 1.2831222 -1.0132095 -0.20437226 -1.3603301 -0.2817256 -0.650526
-0.27160376 2.5531313 -0.1379434 -1.4929134 0.41341302 0.5331579 -1.0044508 0.021888075
-0.4233638 0.10680287 -0.28247684 -0.6752742 0.7961241 -0.8240664 0.65751743 -0.4487065

bias f4 [6]
00000000: 7617 643e 4a5f 66bf a16d ecbd 72df 02bf
00000010: 0ae5 a93e 2444 b8bf
0.22274575 -0.8998915 -0.115443476 -0.511222 0.33182555 -1.4395795

weight f4 [3, 6]
00000000: 50a3 1a40 e1b8 0d40 cfb3 df3f c7ea c1bf
00000010: 4df3 86bf b6c2 afbf 1b64 ccbf 98cd 90bf
00000020: 2131 663f 09a0 2f3f 6b6a afbf 80f0 ff3f
00000030: 75b1 90bf a959 b0bf 0492 2ac0 ce91 9d3f
00000040: be93 d43f b93f c8be
2.4162178 2.214409 1.7476748 -1.5149773 -1.0543 -1.3731296 -1.596805 -1.1312742
0.89918715 0.6860357 -1.3704351 1.999527 -1.1304156 -1.3777362 -2.665162 1.2310121
1.6607587 -0.39111117

bias f4 [3]
00000000: 69eb 6f3f 4938 8cbf a553 8dbd
0.9371858 -1.0954677 -0.069007196
