data/NN_trained_models/trained_net_11563.tar (torch_old, 9010 bytes, 8 tensors)

weight f4 [12, 12]
00000000: b367 d4bd 2f26 503d e601 543d 00cd 353f
00000010: 022a a13e a057 74be dedd f3be 5983 043e
00000020: 68dc b83d 075f a13e 984d c2bd 14db 11be
00000030: 6f2e 80ba 4f31 533e b937 3ebe ad33 7bbf
00000040: 1c92 3d3e f149 c9be fda3 1b3e f5da 29bf
00000050: c260 0e3e 6873 983d b3f4 4abe ae75 0b3e
00000060: 258a 873e f4a5 823d 8803 d33e 7fff 883e
00000070: ef0e 32bf 41cf a83d 2470 5dbe 4b05 a0be
00000080: bddd c63e 6740 643e 8466 723e 38cf 393e
00000090: c51b b83e 184c d13e eb39 45be 4790 9cbf
000000a0: 941d 853d c329 b6be b7dc d33e 4aec b03e
000000b0: f8e4 bdbe 1938 58be e814 ffbc 3587 863d
000000c0: d160 c3be 650b 42be d8e8 48bf 7723 cb3e
000000d0: 5b49 f8be a90e 023f b493 27be e998 1f3f
000000e0: 5b8c a4bd 4cf8 1f3e f8b5 2dbd b6e4 02bf
000000f0: fbee b53e 6354 6dbe 1a0e 03bf 9a6d 69bf
00000100: 0756 513e 3540 8a3c 6a50 dc3e 083d f1bd
00000110: 40f0 abbe bc19 a5be f31d 15bd d101 1dbe
00000120: e772 9f3d 68b2 afbe 6565 963d 9522 b0be
00000130: 8523 8f3f a559 99be 8615 a8be f9d2 9fbe
00000140: 43d8 083f 403f 203e 4533 84bd d0bb e0be
00000150: f5d9 85be 95cc 4abe 077a bd3d df75 f83d
00000160: ec94 533e db3c 763e 73fd c83e 6fdd 89bd
00000170: d4de 053f 8f7e cfbe ba93 173e f882 8c3e
00000180: e413 4c3d c826 1ebf 24c1 42be 9696 f03e
00000190: 926d 2cbe ae15 ff3c 1426 10bf e777 e8be
000001a0: 3bf9 c8be a86f 353b 43d5 f4be e631 17be
000001b0: 3d55 8ebe 4aeb d93c e8dd b8bd 24ee bd3e
000001c0: 5aea a0be 88e5 003f 81a0 43bc 421e 9f3d
000001d0: 1d87 233f 74aa f6be c6f5 803e 7bfd 94be
000001e0: 875d c83c e360 f2be 6036 01be 13c4 a7be
000001f0: 55a2 17be d2ea c7bd 7c03 553e df30 133f
00000200: 58f1 8dbe 42f6 ffbd 2f5b 0bbf b00e 6dbe
00000210: 5568 41bf ca42 c7be be13 433e c0a9 a23d
00000220: ce45 3dbe 8403 e4be 4681 dc3b 6566 f63d
00000230: 2b2b 39bd ad7e c03e 84c3 cdbe ec84 653b
-0.103713416 0.050817665 0.051759623 0.7101593 0.31477362 -0.23861551 -0.4763021 0.1294073
0.09026414 0.31517813 -0.09487456 -0.14243728 -0.0009779463 0.20624278 -0.18575944 -0.98125726
0.18512768 -0.39314225 0.15199275 -0.66349727 0.13904098 0.07443887 -0.19819908 0.1361911
0.26472583 0.06379309 0.41213632 0.26757428 -0.69554037 0.082426555 -0.2162481 -0.31254038
0.38841048 0.22290193 0.23671919 0.18145454 0.35958686 0.40878367 -0.19260375 -1.223153
0.06499782 -0.35578737 0.4137933 0.34555274 -0.37088752 -0.2111515 -0.031137899 0.065687574
-0.38159803 -0.18949659 -0.7848029 0.39675495 -0.48493466 0.5080362 -0.16364938 0.623427
-0.08034583 0.15622061 -0.042409867 -0.51130235 0.3553389 -0.23176722 -0.5119339 -0.91182864
0.20442973 0.01687632 0.430301 -0.11779219 -0.33581734 -0.32246196 -0.036405515 -0.15332724
0.07785588 -0.343158 0.07343558 -0.34401384 1.1182715 -0.29951206 -0.3282892 -0.31215647
0.5345499 0.15649128 -0.064550914 -0.4389329 -0.2614285 -0.19804604 0.092517905 0.12131857
0.20662278 0.24046652 0.39255866 -0.06731688 0.52293134 -0.40526244 0.14802447 0.2744367
0.049823657 -0.61777925 -0.1901899 0.46989888 -0.16838673 0.031138267 -0.563081 -0.45403978
-0.39252648 0.002768496 -0.47818956 -0.14765128 -0.27799407 0.026601452 -0.090267 0.3709575
-0.31428796 0.50350237 -0.011940123 0.07769443 0.6387804 -0.4817692 0.2518751 -0.2909964
0.02445866 -0.47339544 -0.12618399 -0.3276678 -0.14808019 -0.09761585 0.2080211 0.57496446
-0.27723193 -0.12498142 -0.5443601 -0.23150134 -0.75549823 -0.38918144 0.190505 0.079425335
-0.1848366 -0.44533932 0.006729278 0.12031249 -0.045207184 0.37596646 -0.4018823 0.0035021855

bias f4 [12]
00000000: 2ed1 b4bc 53ad cc3d d68c 0dbe c692 593e
00000010: 901c 74bd ec58 7b3d 8645 033f 8a7f 04bd
00000020: 6bef c6be 20fd bf3c 2e1e a63d c0a0 c0be
-0.0220724 0.099939965 -0.13823256 0.21247396 -0.05959755 0.0613641 0.5127796 -0.032348193
-0.38854536 0.02343613 0.08111225 -0.37622643

weight f4 [12, 12]
00000000: 88de 8a3d 9be8 96be 6fb2 8b3c 1dc4 7f3e
00000010: 198a d53e bba3 103e c11c e73e 56b2 9e3e
00000020: 5ab7 763e aea4 e3be dea0 463d 4be4 5d3f
00000030: eb5d 1c3f 0dba 643e 9c1e 8bbe 2148 41bf
00000040: 7f66 1bbe b72d 1cbf fda8 c13d 04a9 a83d
00000050: e6db 10bf 4e71 213f 4e5b cabd 06c6 1b3e
00000060: 7ec3 21bf 024d fcbe 83b7 4a3f 8e01 d43e
00000070: 2518 bd3e ad97 0e3f 601f 843d 43e4 4a3f
00000080: 1ef2 3b3e 26b7 edbd dcd3 b0be 31d9 bf3e
00000090: d3ab bfbe 93e3 2abf 28f7 8a3e bec7 073f
000000a0: 6caf b23e 25b9 2d3d 163a d73e 2cb7 cb3e
000000b0: 777d 9e3e 5fce 08bf 5194 863d 960e b83e
000000c0: 78e0 a93e 1514 b43e 782c 94bf 9f5c 00bf
000000d0: ab8c b9be 07e5 0f3f ff9c cb3d a891 03bf
000000e0: 5cf9 cbbe a2a3 6fbb a33a 423f 65ac 9b3b
000000f0: 49ed 07be 9632 0cbf b22a 043e b8d4 a03e
00000100: cbf1 0e3f bb3a 9fbd 9082 173f a34b 4b3e
00000110: cc98 723e fbe9 babe f312 973e c1ba d83e
00000120: c80d 0e3f b3bd ac3e 53e0 febe 2bd3 aebe
00000130: 5aab e4bd 93a6 e33c 7955 553f 8f8a 98bc
00000140: 071f b4be cd23 8d3c e17b da3e 598d 993e
00000150: a37b bcbe 4aa6 26bf bd1e 91bd c68e 8d3e
00000160: 5522 e93e 9646 0a3d d421 ab3e 25f8 3c3f
00000170: bd23 593e db61 05be 3d6b d53e 5143 2c3f
00000180: ec1a 01be 2784 43bf 03d3 c33e a8a1 9c3e
00000190: dbe9 0b3f e3ce 99be ec81 b53e 357f 343d
000001a0: 6786 b53e f3ac e2be 4496 063d 26bd eebd
000001b0: abee b23e f20b 0d3c 0006 7c3e 631d 9ebe
000001c0: ace2 03bf 012b 30bf 2e26 75bf 889e b1be
000001d0: aaea 13bf cad7 0c3f 54df 8cbd f2f8 09bf
000001e0: 78af 9f3e 6f74 f33e 0fa1 f7bc 04ac 33bf
000001f0: b04c 3fbf c7a1 20bf 8dc9 88bf 09dc 26bf
00000200: 16fd f7be 6a74 593f 0072 67be 2f55 6bbe
00000210: 8e4a a3be 8a39 5fbf 54f6 ae3e 4cb9 d83d
00000220: 5da3 e13e b806 8c3d afe5 e73e d4a7 263c
00000230: f565 903e 3a8b b2be be48 1d3e aa28 743e
0.06780726 -0.2947434 0.017052857 0.24977155 0.41706923 0.14124958 0.45139125 0.30995435
0.2409338 -0.44461578 0.04849326 0.8667647 0.6108081 0.22336598 -0.2717179 -0.75500685
-0.15175818 -0.61007255 0.0945606 0.08235362 -0.5658554 0.63063514 -0.09880696 0.15212259
-0.6318892 -0.49277502 0.79186267 0.41407436 0.36932483 0.5570019 0.06451297 0.7925455
0.18354079 -0.116071984 -0.34536636 0.3747039 -0.3743578 -0.667535 0.2714169 0.5303916
0.3489946 0.042412896 0.42036504 0.39788187 0.30955097 -0.534399 0.06571258 0.35948628
0.3317907 0.3517157 -1.1576071 -0.5014133 -0.36240134 0.56208843 0.09942054 -0.5139413
-0.39838684 -0.0036566039 0.7587072 0.0047507756 -0.13274111 -0.5476469 0.12906912 0.31412292
0.55837697 -0.07774874 0.591836 0.19853072 0.236911 -0.36506638 0.29506645 0.42329982
0.5548978 0.3373848 -0.4978052 -0.34145483 -0.11165495 0.02778939 0.83333546 -0.018620757
-0.35179922 0.017228985 0.42672637 0.29990652 -0.36813077 -0.65097487 -0.07085941 0.2764799
0.45534006 0.033758722 0.33424246 0.7381614 0.2120504 -0.1302561 0.4168338 0.67290217
-0.12607926 -0.76373523 0.38246927 0.30592084 0.5465371 -0.30040655 0.35450685 0.044066627
0.35454103 -0.44272575 0.03285815 -0.11657171 0.34947714 0.008608805 0.24611664 -0.30881795
-0.5151775 -0.6881562 -0.9576138 -0.34691262 -0.57779944 0.5501677 -0.06878534 -0.53895485
0.3118856 0.4754977 -0.030228166 -0.7018435 -0.7472639 -0.6274685 -1.0686508 -0.65179497
-0.48435277 0.8494326 -0.22602081 -0.22981714 -0.31892818 -0.8719717 0.34172308 0.105822176
0.4406995 0.06837219 0.45292422 0.010171849 0.28202787 -0.34871846 0.1535978 0.23843637

bias f4 [12]
00000000: 8229 d83e 5fd9 753e ec8c 763e e30f c23e
00000010: e8cf e63e d43c 913e b67b e43e e6e4 053e
00000020: 4672 9a3e a060 a0bd 3de4 be3d bafe 8e3e
0.42219168 0.24008702 0.24077195 0.37902746 0.45080495 0.2836672 0.44625634 0.13075599
0.3016531 -0.0783093 0.09320877 0.27928716

weight f4 [12, 12]
00000000: 9864 033f c196 14bf ba76 d93e 46ac 193f
00000010: 1aff 08bf cf60 073f 67bc 28be 2f19 353f
00000020: 59f7 963f e1c0 7cbf 57f1 aebf 5e89 173f
00000030: 1210 483f 3c21 233f 5af6 95bd cec2 293f
00000040: 36b7 8e3e 072f e93e 78d8 6b3f c07b 093f
00000050: a41a 2d3e 11c0 65be 51a2 2dbf 519b a03e
00000060: 3fa5 0d3e b5fa d23e af08 91bf e66c 03bf
00000070: ce4d 4f3f 57bc b0bd ec19 313f 28cc 34bf
00000080: c7e6 e6be 10ca b7be 95fd c03d b99f 09bf
00000090: 9dd4 72be 4d94 ce3e 0d2d a3bf 8987 11bf
000000a0: 5700 313f bde0 4fbe 4f87 183f db21 3bbf
000000b0: 690f 19bf 57a7 343d 6d60 a33e f663 bebe
000000c0: aa36 073f 60be bbbe ac5f 3c3f f64b 733f
000000d0: cbbb bdbe d303 a13e d93f b2be beb4 033f
000000e0: 56ca 473f 5180 67bf 1104 83bf baa0 473f
000000f0: bcb9 15bf 9d35 2e3e d66b 5cbf 8372 39bf
00000100: ed80 8f3e cd39 34bf bc23 a13e 782d f6be
00000110: ec3a 3cbf 979b 9d3f 00de b43f fddd 2bbf
00000120: b888 013f 7115 25bf e090 0c3f f4ff 873f
00000130: 4ea4 1bbf 0d65 193f bf7e c2bd 303c 0a3f
00000140: 8c66 7d3f a2f9 a5bf 9dca 99bf 05e5 fb3e
00000150: 48bf 293f f195 03bf bb81 d53e 4f7d 533f
00000160: a026 1abf 9ccb 133f 270b 103e 729b ef3e
00000170: 9edd 743f 651b a6bf c9b8 92bf 913c 2b3f
00000180: 641c 18bd 3825 263f adb2 53bf b8f0 2dbf
00000190: f0a9 b13e 8b08 12bf df2f 0d3e f32b 06bf
000001a0: b4a9 83bf a255 833f 5109 6b3f 8878 40bf
000001b0: b74d bfbd ba7a a33e 46f1 80bf e361 34bf
000001c0: 622d 2a3f 22b4 e0be beb2 303e c24c 24bf
000001d0: e54b 29bf e426 6d3f 9fec 9e3f 3534 4abf
000001e0: 10c8 a83e e2b1 fabe d28b 5e3f 8de8 7e3f
000001f0: 4ad9 1ebf 48fe c23e ad87 98bd 1c06 bd3e
00000200: 422b 8d3f bb91 8ebf 6945 9ebf 69ed 763f
00000210: 4edf 063f 2180 b4be 7a1a a73e 262d 213f
00000220: 73d3 dfbe 43e5 173f 3998 093e c07c 633e
00000230: 52df 703f 38b3 9bbf 14af 9dbf ba5a 6f3f
0.5132537 -0.5804253 0.42473394 0.60028493 -0.53514254 0.52882093 -0.1647812 0.7074155
1.1794235 -0.9873181 -1.3667401 0.5919398 0.7814952 0.63722587 -0.073223785 0.66312873
0.27874154 0.45543692 0.9212718 0.5370445 0.16904694 -0.22436549 -0.678258 0.31368497
0.13832568 0.412069 -1.1330775 -0.5133804 0.80978096 -0.08629673 0.6918018 -0.7062402
-0.45097944 -0.3589635 0.09423367 -0.5375934 -0.23713918 0.4034752 -1.2748123 -0.56847435
0.69141144 -0.20300575 0.59581465 -0.73098534 -0.5978914 0.0441049 0.31909505 -0.3718564
0.52817786 -0.36668682 0.73583484 0.9503778 -0.37057337 0.3144823 -0.34814337 0.51447666
0.78043115 -0.9043017 -1.0235616 0.77979624 -0.58486533 0.1701264 -0.86102045 -0.72440356
0.2802805 -0.70400697 0.31472576 -0.48081565 -0.7352741 1.2313107 1.4130249 -0.671356
0.5059924 -0.6448584 0.5490856 1.0624986 -0.60797584 0.59919816 -0.09496831 0.5399809
0.989846 -1.2966807 -1.2014958 0.49198166 0.663075 -0.5140067 0.4170054 0.8261308
-0.6021519 0.5773256 0.14066754 0.46798283 0.9565066 -1.297711 -1.1462642 0.6688929
-0.03713645 0.6490054 -0.8269451 -0.6794543 0.34699965 -0.57044286 0.13787793 -0.5241081
-1.0286164 1.0260508 0.9181109 -0.75183916 -0.09340995 0.3192957 -1.0073631 -0.70461863
0.664755 -0.4388743 0.17255685 -0.64179623 -0.6613143 0.9263747 1.2415961 -0.7898591
0.32965136 -0.4896384 0.869321 0.99573594 -0.62050307 0.38084626 -0.07447753 0.36918724
1.1028826 -1.1138223 -1.2364932 0.9645601 0.52684486 -0.35254005 0.32637388 0.62959516
-0.4371601 0.593342 0.13436975 0.22215557 0.9409076 -1.2164068 -1.2319055 0.9349781

bias f4 [12]
00000000: 7481 a03d 7864 053d 58c9 ae3d 694a ae3d
00000010: 071f 99bd 317a a5bc 0283 8d3e 453a 5f3e
00000020: 3866 98bd 24f5 c2bd 8496 25be eeb1 be3c
0.07837191 0.032566518 0.08534497 0.08510286 -0.07476621 -0.020199867 0.27639014 0.21799572
-0.07441372 -0.09519413 -0.16170698 0.023278203

weight f4 [3, 12]
00000000: 4707 443f e757 6db9 dc19 98be 168d 8dbe
00000010: c812 0c3f 2409 0ebf 2702 313f 35b7 d73e
00000020: 8c5d f4be ff2f 0bbf 0b11 2d3f 25a1 4a3f
00000030: 9d49 d4be 3b2c 19bf f79b b0be b457 3f3d
00000040: 5ae9 3fbe 2a0a 683e 56be 06bf 540d e9be
00000050: dfa0 ac3d 6d6b 003e 29e7 30be 9daa cdbe
00000060: 9732 12bf 682a cb3d 869c 333f 2e1b f73e
00000070: 20ed a6be 0dab 083e 20c8 fdbe 0a37 83be
00000080: 8e28 893e 0432 9d3e 5b54 f8be 3667 69bd
0.76573604 -0.00022634827 -0.2970723 -0.27646703 0.5471616 -0.554827 0.6914391 0.42131963
-0.4772762 -0.5437011 0.6760413 0.7915214 -0.41462412 -0.59833115 -0.34493992 0.0467145
-0.1874136 0.22660127 -0.5263418 -0.4551798 0.08429121 0.1254098 -0.1727568 -0.4016923
-0.57108444 0.09920198 0.7016071 0.48262924 -0.32602787 0.133465 -0.49566746 -0.2562793
0.26788753 0.3070222 -0.48501858 -0.056983195

bias f4 [3]
00000000: cdc0 443e 04e3 b73d 6f81 af3e
0.19214173 0.08978847 0.34278437
