data/NN_trained_models/trained_net_9105.tar (torch_old, 14145 bytes, 6 tensors)

weight f4 [36, 12]
0	0x3f9c2fcd	1.2202088
1	0xbe8f31eb	-0.27967772
2	0x40aa51ed	5.3225007
3	0xc0d0e080	-6.527405
4	0xc12eb53b	-10.919246
5	0xc0e903c4	-7.2817097
6	0xc0b5908b	-5.6738944
7	0xc0f3a689	-7.614079
8	0x418080ce	16.062893
9	0xc06806ef	-3.6254232
10	0xc0526c74	-3.2878695
11	0xc0ada55c	-5.4264355
12	0xc0fcac64	-7.896044
13	0xc1149384	-9.286015
14	0x41887781	17.058352
15	0x3f4376f7	0.763534
16	0x400539b1	2.0816462
17	0xc163793e	-14.2171
18	0x4103dbe9	8.241189
19	0x40ade084	5.4336567
20	0x4027e9b4	2.623639
21	0x417c6b5d	15.776212
22	0xc109585d	-8.584073
23	0x404236a0	3.034584
24	0x40fa78bd	7.8272386
25	0xc00e259a	-2.221045
26	0x417feaf6	15.9948635
27	0xc1211787	-10.068244
28	0x3f2769ed	0.65396005
29	0xc1070f58	-8.441246
30	0x4090967e	4.5183706
31	0xc16328b2	-14.197435
32	0xc086928b	-4.2053885
33	0xc14ae4db	-12.680873
34	0x40dd8f7e	6.923766
35	0x4162e29e	14.180326
36	0xc17dc818	-15.861351
37	0x41429717	12.161887
38	0x3f30c5e5	0.69051963
39	0xbe66ba75	-0.22532065
40	0xc04d5451	-3.2082713
41	0xc0f7b20c	-7.740484
42	0x415a0e66	13.628515
43	0x4069bd82	3.6521916
44	0xc0398eeb	-2.899348
45	0x4117f6a4	9.497715
46	0x40806122	4.011857
47	0xc0c0813f	-6.015777
48	0xc00160a5	-2.0215237
49	0x3f702d64	0.9381926
50	0x3fd96b08	1.6985788
51	0x40ef17c5	7.4716516
52	0xc04731fc	-3.1124258
53	0x40d1dc5f	6.558151
54	0x40237ea5	2.5546048
55	0x3f7642ab	0.9619548
56	0x40a460a8	5.136799
57	0x403a7419	2.913336
58	0x4104f735	8.310353
59	0xbfee62bc	-1.8623881
60	0xc10bcbbe	-8.737242
61	0xbeec00b0	-0.46094275
62	0x3fa77a27	1.3084153
63	0x3ee7e463	0.45291433
64	0xc0ccd840	-6.4013977
65	0xc1457a02	-12.342287
66	0x410f0405	8.938481
67	0xc02666fa	-2.6000352
68	0x417a791e	15.65457
69	0xc1270e48	-10.440987
70	0x404a347d	3.1594536
71	0xc0e199fd	-7.0500474
72	0xc03563b3	-2.8342102
73	0x416357f7	14.208976
74	0xc0b3a5f8	-5.61401
75	0xc07a671a	-3.9125428
76	0x416f3cfd	14.95239
77	0xc05e2d58	-3.4715176
78	0x412db1c2	10.855898
79	0xbec98985	-0.39362732
80	0x3f940d25	1.1566511
81	0x402bbbe1	2.6833422
82	0x411ee3fc	9.93066
83	0xc0619889	-3.524935
84	0x40a5391b	5.163221
85	0xbf0ab387	-0.54180187
86	0x4016102f	2.3447378
87	0x405fe92a	3.4986062
88	0xc03192e4	-2.7745905
89	0x3f852923	1.0403179
90	0xc0093a00	-2.144165
91	0xbfa446e3	-1.2834133
92	0xbf99ed82	-1.2025607
93	0xbea44631	-0.32084802
94	0x3fc4c086	1.5371253
95	0xbe97ed56	-0.2967326
96	0xc0ff972e	-7.9872046
97	0x3d9efc39	0.077629514
98	0x40c92782	6.2860727
99	0x3f20d311	0.6282206
100	0xc012d54e	-2.294269
101	0xc0e834d8	-7.2564507
102	0x40161771	2.3451807
103	0xc0aa8cc0	-5.3296814
104	0x41a1ffd7	20.249922
105	0xc055daad	-3.341472
106	0x40ce034d	6.437903
107	0x40f9108a	7.783269
108	0x40aae0a8	5.339924
109	0xc0ba2565	-5.817065
110	0x3fa15263	1.2603267
111	0xc0eb96c3	-7.3621535
112	0xc1157bf0	-9.342758
113	0xc14579ea	-12.342264
114	0x41b7b757	22.964521
115	0xc0e5d2dd	-7.18199
116	0xc0ff9207	-7.9865756
117	0x4097352b	4.72524
118	0x40374c05	2.8640149
119	0x40084dc3	2.1297462
120	0xbf94f12c	-1.16361
121	0x3f0f2aea	0.55924857
122	0xc05f445f	-3.488548
123	0xc197372a	-18.901936
124	0x40f28c43	7.579622
125	0xc1880297	-17.001265
126	0xc0b2d7f7	-5.588863
127	0xbf82199f	-1.0164069
128	0xbfc0141f	-1.500614
129	0xbedab426	-0.42715567
130	0x4033ca2e	2.809215
131	0xc0d7ca36	-6.743434
132	0x40df46a1	6.9773717
133	0x3fe16fc6	1.7612236
134	0x41597475	13.590932
135	0x3f5f2be5	0.8717635
136	0xbff205ee	-1.890806
137	0x3e6bc190	0.23023057
138	0xc0272580	-2.6116638
139	0xc15afed3	-13.687213
140	0x415f2132	13.945604
141	0x402ab79c	2.6674566
142	0x4010b411	2.2609904
143	0x41370f24	11.441196
144	0x3c83763e	0.016047593
145	0x3ff9bc9d	1.9510685
146	0x4001d084	2.0283518
147	0x40dbd621	6.869889
148	0xc14154a3	-12.083163
149	0x41525442	13.145571
150	0x415ff811	13.998063
151	0xbf32c917	-0.6983809
152	0x411f13bb	9.942317
153	0x401853e4	2.3801203
154	0x40148037	2.3203256
155	0x40b669e7	5.7004275
156	0xc108887d	-8.533322
157	0x404780c8	3.1172352
158	0x40bc4300	5.8831787
159	0x4042e645	3.0453045
160	0xc1498107	-12.594001
161	0x402ca556	2.6975913
162	0x4180e9a1	16.114077
163	0x41a298c3	20.32459
164	0xc05d321f	-3.4561841
165	0x4105a1c6	8.351995
166	0x41282295	10.508443
167	0x3b48c64d	0.0030635775
168	0xc12e231c	-10.883572
169	0xc119704f	-9.589919
170	0xc0351aa0	-2.82975
171	0x41520afe	13.127684
172	0xc1185928	-9.521767
173	0xc0820755	-4.063395
174	0x3f8d83a9	1.1055804
175	0x403040df	2.7539594
176	0xc0845746	-4.1356535
177	0xc11f5783	-9.958865
178	0xc1465090	-12.394669
179	0x402e7eb2	2.7264829
180	0xc0ce5d49	-6.4488873
181	0x40f1e33d	7.558989
182	0xc1a1896f	-20.192106
183	0x408da3b6	4.4262342
184	0xbfaa0de7	-1.3285493
185	0x4102293d	8.135068
186	0x3fcbf131	1.5932981
187	0x413148ca	11.080271
188	0xc1378cee	-11.471907
189	0xc092fe38	-4.5935326
190	0x3fb37ea6	1.4023025
191	0xc0c634d7	-6.19395
192	0x40bd176a	5.909108
193	0x40a72875	5.2236886
194	0xc026b539	-2.604811
195	0x40a8e6e5	5.2781854
196	0x4100cfae	8.050703
197	0xc0bfa02c	-5.988302
198	0x4110961e	9.03665
199	0xc09295fb	-4.580808
200	0x40705ccd	3.755664
201	0x40f51d65	7.659838
202	0x406136f6	3.5189795
203	0x4088daf8	4.2767296
204	0x410e21ce	8.883253
205	0xc17561e1	-15.336396
206	0xbf61d6f0	-0.88218594
207	0x410ce12f	8.804976
208	0x41244545	10.2669115
209	0x40bac780	5.836853
210	0xc00eaf0a	-2.2294335
211	0x40ebc0e6	7.367297
212	0xc129f6b3	-10.622729
213	0xbe9caea7	-0.30602
214	0x413b9dfc	11.72607
215	0xc11082a5	-9.031896
216	0xbf89676c	-1.0734687
217	0x40c7da3a	6.245389
218	0xc035af2c	-2.8388166
219	0x41bafdf2	23.373997
220	0x402f3908	2.737856
221	0xc02b0555	-2.6722004
222	0xc12ec2ed	-10.922589
223	0xc13994a5	-11.59879
224	0x40663735	3.5971196
225	0x418ff563	17.994818
226	0x408d08b0	4.4073105
227	0xbf8798ab	-1.0593466
228	0xc18f0009	-17.875017
229	0x40252273	2.5802276
230	0xbec73b87	-0.38912603
231	0xc128a06c	-10.5391655
232	0xc0c99d41	-6.300446
233	0x407e7dd5	3.9764302
234	0x402650d4	2.5986834
235	0x408cabd4	4.395975
236	0x4048963c	3.1341696
237	0xc18a8cc7	-17.318739
238	0xc0b600b8	-5.6875877
239	0xc0d832d8	-6.7562065
240	0xc1221652	-10.130449
241	0x3fa85717	1.3151578
242	0x40a38d24	5.110979
243	0xc031b8fb	-2.7769153
244	0x41ab2fbb	21.398306
245	0xbe6a2b1d	-0.22868009
246	0x41571912	13.443621
247	0x41061537	8.380179
248	0x41069d1b	8.413356
249	0x4021c987	2.5279253
250	0x402eb80b	2.729983
251	0x4109c784	8.61121
252	0x4108989f	8.537261
253	0x40b4f413	5.654794
254	0xbf8b5cb7	-1.0887669
255	0xbf830e08	-1.0238657

bias f4 [36]
0	0xc0bbacf1	-5.864861
1	0x405eba27	3.4801118
2	0x400e8af3	2.2272308
3	0x4058afc9	3.385729
4	0xc1cce3b8	-25.61119
5	0x404a96ef	3.1654623
6	0xc171eb29	-15.119912
7	0x41b7e84d	22.988428
8	0xc12d4457	-10.829185
9	0xbd419dc9	-0.047269616
10	0x412c710f	10.777602
11	0xbf77792c	-0.9666927
12	0xc12e3c39	-10.889703
13	0xc05054cf	-3.2551763
14	0xc1072eb5	-8.448903
15	0xc0723529	-3.7844946
16	0xc16f699a	-14.963282
17	0xbf1794bc	-0.59211326
18	0xc0160167	-2.3438356
19	0xbe87e774	-0.26543772
20	0xc0b98be4	-5.7983265
21	0x3fc342b8	1.5254736
22	0xc113d749	-9.24006
23	0xc15a4d20	-13.643829
24	0xc184de51	-16.608553
25	0x3f856125	1.0420271
26	0xc1c1f617	-24.245161
27	0x3f969468	1.176404
28	0x403c3af0	2.9410973
29	0xc0f55274	-7.666315
30	0xbf4c2d51	-0.7975665
31	0xc0cea272	-6.4573298
32	0x4081a362	4.051194
33	0xbf966c1c	-1.1751742
34	0x3f9e4ca6	1.2367141
35	0xbfe16164	-1.7607846

weight f4 [36, 36]
0	0xbd35e98b	-0.044412177
1	0x3f32d8ac	0.69861865
2	0x3f9cf4ed	1.2262245
3	0xbe2578fe	-0.16159436
4	0x3fa441bf	1.2832564
5	0x3f16ec89	0.58954674
6	0x4032c6d7	2.7933862
7	0xc0917fa8	-4.546833
8	0xbf85ba7e	-1.0447538
9	0xbf5bec23	-0.8590719
10	0x40311cc5	2.767381
11	0xc016c6fe	-2.3558955
12	0x3daf9eb1	0.0857519
13	0xbe49a064	-0.1969009
14	0xbf936581	-1.1515352
15	0x3fc26759	1.5187789
16	0xbf39770a	-0.72447264
17	0xbfb9c211	-1.4512349
18	0x3ff38701	1.9025575
19	0xbf5c53d5	-0.8606542
20	0xbfedcbc8	-1.8577814
21	0x3f0e766e	0.5564946
22	0x3fa34561	1.2755548
23	0x3f873d55	1.0565592
24	0x3f8cf69d	1.101276
25	0x4036f705	2.8588269
26	0x3f699f1a	0.91258395
27	0xbe2263fa	-0.1585845
28	0xbf58c288	-0.8467183
29	0xbf67e712	-0.9058696
30	0xbf913058	-1.1342878
31	0x4023e60a	2.5609155
32	0x4073830b	3.8048732
33	0x3e7f77df	0.24948071
34	0x3db5af99	0.08871383
35	0x3f1bfa6b	0.6092898
36	0xc001026e	-2.0157733
37	0xbe592a3f	-0.21207522
38	0x4089eaed	4.3099275
39	0xbfdc6482	-1.7218173
40	0x40a6bbda	5.210431
41	0x3f7e6751	0.993764
42	0xc045afbc	-3.088851
43	0xbfb04e3f	-1.3773879
44	0x405849e7	3.3795106
45	0xbef137d9	-0.4711292
46	0xc0411997	-3.0171869
47	0xbf483119	-0.7819992
48	0x4038f503	2.8899543
49	0x400708d5	2.109914
50	0x408e136c	4.439871
51	0xc01e9e8a	-2.4784265
52	0x402cf3db	2.7023838
53	0xbf3b2612	-0.73104966
54	0xc02225ad	-2.5335495
55	0x403c426f	2.9415548
56	0x3e9b30d3	0.30310687
57	0x3f1d4ef0	0.61448574
58	0x3faa366b	1.3297857
59	0x3f98fcfd	1.1952206
60	0xbfc5fd87	-1.5467995
61	0xbf3b4487	-0.7315144
62	0x3f486a65	0.78287345
63	0x402dff45	2.7187054
64	0x408948e8	4.2901497
65	0x4053e1a3	3.3106468
66	0x407c7c17	3.9450738
67	0xbfaf0243	-1.3672565
68	0x3fa3401a	1.2753937
69	0x4048986d	3.1343033
70	0x3ed45396	0.4147002
71	0x3fff9ae0	1.9969139
72	0x3f327cec	0.69721866
73	0xbee601a0	-0.44923115
74	0xc0c9fa77	-6.3118243
75	0x410165d7	8.087363
76	0x3fe245c2	1.7677538
77	0x40641432	3.5637326
78	0x3f8c24cb	1.0948728
79	0xc0eecb00	-7.4622803
80	0x3fa1023c	1.2578807
81	0xc04667c6	-3.1000838
82	0xbf9e2d08	-1.2357492
83	0x408fc86d	4.493216
84	0xc06a6a74	-3.6627474
85	0xc023c5b6	-2.5589423
86	0x40c2b219	6.0842404
87	0xc09a2011	-4.8164144
88	0x4060910c	3.508853
89	0x3f8fa13c	1.122108
90	0x409c33b3	4.881311
91	0x3d44eb13	0.048075747
92	0x3fdd393d	1.7283093
93	0xc0889bcf	-4.2690196
94	0xc0ec4931	-7.3839345
95	0xbf3d5a52	-0.7396594
96	0x3f434649	0.7627912
97	0x3f833098	1.0249205
98	0xbf249b31	-0.64299303
99	0xc0e96af2	-7.294305
100	0xc03944ba	-2.8948197
101	0x4112305f	9.136809
102	0x3d5d25e0	0.0539912
103	0xc089b8cf	-4.3038096
104	0xbfeedf51	-1.8661901
105	0x404a2cb7	3.1589792
106	0x4029186e	2.642116
107	0xbfcac797	-1.584216
108	0xbfbefd17	-1.4920987
109	0x3ee9ca02	0.45661932
110	0x4142421f	12.141143
111	0xbfd2a953	-1.6457924
112	0x408479d4	4.1398716
113	0x405355b6	3.3021064
114	0x40a9efa8	5.310505
115	0xc0a334fb	-5.1002173
116	0xc0c21e4c	-6.0661983
117	0x3fe1ac49	1.7630702
118	0xc0a8a12a	-5.2696733
119	0xc0c616df	-6.190292
120	0xbf9f0323	-1.2422832
121	0x408125da	4.0358706
122	0xc0aebf17	-5.4608264
123	0xc0ddc471	-6.9302297
124	0x3f8c97a8	1.0983782
125	0xc09085f9	-4.516354
126	0x410d5702	8.833742
127	0x3eb88f28	0.3604672
128	0xc002fbf3	-2.0466278
129	0x40a4897f	5.141784
130	0x4101f0ed	8.12132
131	0x408189cb	4.0480704
132	0x409c58af	4.8858256
133	0x3fabf071	1.3432752
134	0x41012d39	8.073541
135	0xbff87612	-1.9411032
136	0x3e89ace5	0.2688972
137	0xc0ef634a	-7.4808702
138	0x3fcd28dc	1.6028094
139	0x3fc8f887	1.5700845
140	0x4138c3b7	11.547782
141	0xc1008e03	-8.034671
142	0x40b6c9de	5.712142
143	0xc07b937c	-3.9308767
144	0x4046c7da	3.105948
145	0x4145ee55	12.370687
146	0xc1187548	-9.528633
147	0xbdb363c0	-0.0875926
148	0xc08d14ab	-4.408773
149	0xc0ce5d62	-6.4488993
150	0x4056510f	3.3486974
151	0xc1094026	-8.578161
152	0xc037bf6c	-2.8710585
153	0x4057f7e9	3.3745062
154	0x40ee2796	7.4423323
155	0xc0e74100	-7.2266846
156	0x40e20e3f	7.064239
157	0xc1069e55	-8.413655
158	0x3e4ce527	0.2000929
159	0x40fef6f9	7.967648
160	0xc0c341fa	-6.101804
161	0x40b251dd	5.572493
162	0x4062dc42	3.5446935
163	0xbfcb0c5a	-1.5863144
164	0x4001512b	2.020579
165	0xc078f9b5	-3.890241
166	0xc0718c44	-3.7741861
167	0xbfb90f45	-1.4457785
168	0xc108a252	-8.539629
169	0xc00372c2	-2.0538793
170	0xc134f315	-11.309346
171	0xbef35665	-0.4752685
172	0x409cba26	4.897723
173	0x40b9cae6	5.806018
174	0xbfd5b4d6	-1.6695812
175	0xbf4ece36	-0.807834
176	0xc0a8a182	-5.2697153
177	0x3bdcd62c	0.0067393985
178	0xc13962cd	-11.586621
179	0x3ffe8a2e	1.9885919
180	0x407c0fda	3.9384675
181	0x404f0ebc	3.2352743
182	0xc09bf622	-4.8737955
183	0x40ffc39c	7.992628
184	0xc008ad72	-2.1355863
185	0x411e2e51	9.886308
186	0xbebd03f8	-0.3691709
187	0xc0a907a9	-5.282185
188	0x4045683e	3.0844874
189	0x406e27e3	3.7211845
190	0xc139035d	-11.563321
191	0xbf141059	-0.57837445
192	0xc00783d8	-2.117422
193	0xc0b11db7	-5.5348773
194	0xbfa84aff	-1.3147887
195	0xc062b1e9	-3.5421088
196	0x40722e67	3.7840822
197	0x3fffd328	1.9986315
198	0xc0ae7c6e	-5.452689
199	0xbff2fa07	-1.8982552
200	0xc01e63e8	-2.4748478
201	0xc06b32c9	-3.6749747
202	0xbf82165e	-1.0163076
203	0xbe957f09	-0.29198483
204	0x3f8b47ab	1.0881246
205	0x40956464	4.6685047
206	0xbf188f42	-0.59593594
207	0xbf6fc169	-0.93654495
208	0xc0982a95	-4.755198
209	0x4127b8a0	10.482574
210	0xbfbaf125	-1.4604841
211	0xc014fab3	-2.3278015
212	0xc0cc068b	-6.3757987
213	0x402e5316	2.7238212
214	0xbf723680	-0.9461441
215	0xc03c04b8	-2.937788
216	0xc019dd33	-2.404126
217	0xc0486f1e	-3.131782
218	0x4076caea	3.856135
219	0xc00d6eba	-2.2098832
220	0x40125f36	2.2870612
221	0x3ebdb683	0.37053308
222	0x40803a15	4.00709
223	0xc01f1118	-2.4854183
224	0xc11ed78f	-9.927627
225	0x406ebee5	3.7304013
226	0x40495792	3.1459699
227	0xbfd384b0	-1.6524868
228	0x4089ee16	4.310313
229	0xbfc99d25	-1.5751082
230	0x3f91bd97	1.1385983
231	0xc08bb9c0	-4.3664246
232	0x3f88d34a	1.068948
233	0xc01dbe68	-2.4647465
234	0x407a8f2c	3.9149885
235	0xbf6520f6	-0.8950342
236	0xbf58aa07	-0.8463444
237	0x40215445	2.5207684
238	0x41121b78	9.131706
239	0x3fd4c129	1.6621448
240	0x3fc610af	1.5473841
241	0x40679683	3.6185615
242	0x40513909	3.2691061
243	0x40c5ab89	6.1771894
244	0xbf1ed472	-0.62042916
245	0xc0d22db3	-6.5680785
246	0x40eabd87	7.3356357
247	0xc0635345	-3.5519574
248	0x406cb093	3.6982772
249	0xbdc7d88e	-0.097581014
250	0x3f858fc0	1.0434494
251	0xc02c9302	-2.6964726
252	0x406b842d	3.6799424
253	0xc0492188	-3.1426716
254	0x3e9a4988	0.30134225
255	0xbf33a14d	-0.70168

bias f4 [36]
0	0xc0721dae	-3.7830615
1	0xc0d6bef7	-6.710811
2	0xc12352e8	-10.207741
3	0xc05c374d	-3.4408753
4	0xc1865f7d	-16.796625
5	0xc14c1e8a	-12.757456
6	0xc0298a0f	-2.6490514
7	0xc0dd2f92	-6.912057
8	0xc109d2ab	-8.613933
9	0xc1306b2c	-11.026165
10	0xc065262a	-3.5804543
11	0xc132132b	-11.12968
12	0xc06f5733	-3.7396972
13	0xc0fa0378	-7.8129234
14	0xc13fea6f	-11.994735
15	0xbffc7964	-1.9724545
16	0xc156a0c7	-13.414252
17	0xc1093f80	-8.578003
18	0xc0fc4687	-7.8836093
19	0xc0a422f8	-5.1292686
20	0xc12a4d52	-10.643877
21	0xc1290aca	-10.565134
22	0xc0d3f00a	-6.6230516
23	0xc0800746	-4.000888
24	0xc0434b5d	-3.0514748
25	0xc08a8bca	-4.329564
26	0xc0cae09c	-6.339918
27	0xc0983135	-4.7560067
28	0xc0bf09c2	-5.969941
29	0xc0b8a565	-5.77019
30	0xc100c9bc	-8.049252
31	0xc0c405ad	-6.125693
32	0xc0cd4d39	-6.4156766
33	0xc0e5a875	-7.1768136
34	0xc0bd38ac	-5.913168
35	0xc101ed3a	-8.120417

weight f4 [3, 36]
0	0x3e4bb297	0.19892345
1	0xbeb765df	-0.3581991
2	0xbf29e65a	-0.66367114
3	0xbda5f60a	-0.08103569
4	0x3fefbccc	1.8729491
5	0xbf2e50a5	-0.68091804
6	0xbe6da13e	-0.2320604
7	0xbebc838a	-0.36819106
8	0x40236dab	2.5535686
9	0x3e7b14b1	0.24519612
10	0x3c195b2a	0.009360114
11	0xbddb5613	-0.10709777
12	0xbe0d2056	-0.13781866
13	0x3e2f0f3c	0.17095655
14	0x3e77fdc2	0.24217895
15	0xbf05f029	-0.5231958
16	0xbfbab9ad	-1.4587914
17	0x3e6dc8a2	0.23221067
18	0x3dfa94f2	0.1223544
19	0x3df46740	0.11933756
20	0xbd346106	-0.04403784
21	0x3ffc9a2c	1.973455
22	0xbee47324	-0.44619095
23	0xbdc95bbc	-0.0983195
24	0xbe74e606	-0.23915872
25	0x3dc9f5c4	0.09861329
26	0x3edc36af	0.4301047
27	0xbe7884b1	-0.24269368
28	0xbdc1039d	-0.09424517
29	0xbeae0653	-0.339892
30	0x3e482616	0.19545779
31	0x3ea090ae	0.31360382
32	0x3ef97f8c	0.48730123
33	0x3e928b0e	0.28621715
34	0x3ce5d66c	0.028056346
35	0x3ea681d3	0.32520923
36	0xbdbede25	-0.093197145
37	0x3ef56404	0.47927868
38	0x3ff3fd40	1.9061661
39	0xbed276a2	-0.41106135
40	0xbf5504f4	-0.8321068
41	0x4004c608	2.0745869
42	0xbe44392c	-0.19162434
43	0x3e436fd2	0.19085625
44	0xbfe6b209	-1.8023082
45	0x3ef44d7c	0.47715366
46	0xbea30468	-0.318393
47	0x3f108d01	0.56465155
48	0x3e15070b	0.14553468
49	0x3f2bf256	0.6716665
50	0x3e8290f2	0.2550121
51	0xbfe1faca	-1.765466
52	0x4016bb8c	2.355197
53	0xbe68b5da	-0.22725621
54	0x3e125605	0.14290626
55	0xbbe3d2b3	-0.0069526075
56	0x3fcea0d8	1.6142836
57	0xbfa32160	-1.274456
58	0x3f2b6acb	0.6695983
59	0x3f13d37f	0.5774459
60	0x3f04c822	0.5186788
61	0x3e54c74f	0.20779155
62	0x3deeb207	0.1165505
63	0x3eed6dc2	0.463728
64	0x3dac10ea	0.084016636
65	0xbdab9618	-0.083782375
66	0xbe15c153	-0.14624529
67	0x3ef5201c	0.4787606
68	0xbe15ebe1	-0.14640762
69	0xbec921c1	-0.39283565
70	0x3f427fe5	0.759764
71	0x3ee2494c	0.44196546
72	0xbe05a5d3	-0.13051538
73	0xbd72c4c4	-0.05926968
74	0xbf2cac7a	-0.6745068
75	0x3f1ae7f2	0.6051017
76	0xbfb60230	-1.4219418
77	0xbf2f37b2	-0.6844436
78	0xbe27af22	-0.16375402
79	0x3f078c37	0.52948326
80	0xbf9f22c0	-1.243248
81	0xbe0752e3	-0.13215213
82	0x3e2d46af	0.16921495
83	0xbe28da75	-0.16489585
84	0x3e3ff218	0.18744695
85	0xbf49bab2	-0.788005
86	0xbeca2c73	-0.39487037
87	0x3fcbc5ec	1.5919776
88	0xbf06796b	-0.5252902
89	0xbe6dd91e	-0.23227355
90	0xbec580d6	-0.38574857
91	0x3eeb5e97	0.45970604
92	0xbf9ec7d0	-1.2404728
93	0xbf9f7028	-1.2456102
94	0x3c64af12	0.013957756
95	0x3ddbde89	0.107358046
96	0x3daffc58	0.085930526
97	0xbd36e5cf	-0.044652756
98	0x3ea775a8	0.32706952
99	0xbd4ff6df	-0.050772544
100	0x3edc085c	0.42975128
101	0x3e875820	0.26434422
102	0xbdf84a3d	-0.12123535
103	0xbef74021	-0.48291114
104	0x3d32577f	0.043540474
105	0xbe4a7031	-0.1976936
106	0xbdb2b32f	-0.08725583
107	0xbed8a61e	-0.42314237

bias f4 [3]
0	0x4082ef17	4.091686
1	0xc19fda89	-19.981707
2	0x40fd51e3	7.916246
