data/NN_trained_models/trained_net_6828.tar (torch_old, 7063 bytes, 6 tensors)

weight f4 [6, 12]
000000 16 4d c5 be 9b fd b0 3d a4 dc b6 3e 61 ea 68 3e
       -0.38535374 0.086421214 0.3571521 0.22745658
000010 64 85 2d bf 5d 00 91 3e 29 d7 ac bd e6 c0 ef bf
       -0.6778166 0.2832059 -0.08439476 -1.8730743
000020 e0 56 bf 3d df ba 30 3f 72 07 66 3f eb 53 e7 bd
       0.09342742 0.6903514 0.8985511 -0.11295303
000030 9c e2 34 3f 3c c3 a8 be 0a 83 4e be 7f 9b 59 bf
       0.7065828 -0.32961452 -0.20167175 -0.85002893
000040 bb e7 08 3f 6e 22 ba 3e 95 0f c2 be f9 53 28 3e
       0.5347859 0.36354393 -0.37902513 0.16438283
000050 84 41 af be f1 49 b2 be f4 18 21 bf 85 5d c7 be
       -0.34229672 -0.34822038 -0.629287 -0.38938537
000060 33 91 5a be 39 59 4b bd 53 bc 63 bf 63 69 2d 3f
       -0.21344452 -0.049645636 -0.88959235 0.6773893
000070 c9 fc e1 be 29 d1 c1 bd 34 36 8a 3d 0d 8c 56 3f
       -0.44138172 -0.09463722 0.0674862 0.8380745
000080 44 3a 9b bd 60 e6 2c 3e 29 fb a1 3d c2 c6 ab be
       -0.07579473 0.16884756 0.07909233 -0.33550078
000090 d4 e0 b6 3d 54 16 9e 3e 10 80 23 be e5 d7 6c be
       0.08929601 0.3087641 -0.1596682 -0.23129232
0000a0 10 a3 23 3e 02 21 a3 3e 77 1a cd be 43 62 30 bf
       0.15980172 0.3186112 -0.40059254 -0.68899935
0000b0 26 86 22 3d 31 37 db bd 88 b6 9d 3e 45 a3 da be
       0.039678715 -0.10703886 0.30803323 -0.4270269
0000c0 f8 15 65 3d 8b f1 3d 3f 22 cb 23 bd 6b c5 04 3f
       0.055929154 0.7419669 -0.039988644 0.51863736
0000d0 7d c4 03 bf 5b b6 c6 3e 82 64 82 be 95 9c 8f 3e
       -0.5147169 0.38811 -0.25467306 0.2804915
0000e0 92 14 cf 3d 12 bd 05 3e 2d 06 41 3e 4e a6 9e bd
       0.10111345 0.13060406 0.18850012 -0.07746564
0000f0 71 3b a8 bf 71 b0 d2 be d1 a6 92 be 12 ee 8d be
       -1.314314 -0.4115024 -0.28642896 -0.27720696
000100 05 25 e3 3e 3f 25 1f bf 66 5c 4b bf 29 56 25 be
       0.4436418 -0.6216621 -0.79437864 -0.16146149
000110 bb 1a 4a bd d8 95 d1 be 33 f9 47 bf 46 bc 57 3e
       -0.0493419 -0.40934634 -0.7811462 0.21067914

bias f4 [6]
000000 e3 03 20 bf 57 8d 0c be 6e 0d 34 be 06 27 8f be
       -0.6250593 -0.13725792 -0.17583248 -0.2795946
000010 6f 1a 28 bf e4 7d 6d 3f
       -0.65665334 0.9277022

weight f4 [6, 6]
000000 19 10 bf bb d3 85 75 be e6 36 5b bf bd 4c 3c 3f
       -0.0058307764 -0.23976831 -0.85630643 0.73554593
000010 9c 6c 39 3f 0b 6a a9 3f 1f 93 9e bf 2a 4d ce bd
       0.7243135 1.3235487 -1.2388648 -0.100733116
000020 ef 06 c0 bd d3 2a 6d bd c2 52 24 bf 15 16 c7 3e
       -0.093763225 -0.05790217 -0.6418878 0.38884035
000030 ee ec 14 bf 48 b1 86 be 95 ef 78 bf ed e8 8a 3f
       -0.58174026 -0.2630713 -0.97240573 1.0852333
000040 cb fc a0 be 1f 5b ca 3f c4 42 79 bf c7 bb 92 bf
       -0.31442866 1.5809058 -0.973675 -1.1463555
000050 ae 50 77 bd 09 8a ff be 22 a8 08 3f 78 02 2b bf
       -0.060379677 -0.4991 0.5338155 -0.6680064
000060 61 a5 23 3f fe 5c 72 3f b6 db 86 3f 18 7e 58 bf
       0.63924223 0.94673145 1.05358 -0.84567404
000070 46 13 27 bf 44 d8 2c 3f 2a f0 10 bd 98 03 bf 3f
       -0.65263784 0.67517495 -0.03538529 1.4922972
000080 58 cc 02 3f 80 0f 52 bf fe de 41 bf 78 3c 15 3f
       0.51093054 -0.820549 -0.75730884 0.58295393

bias f4 [6]
000000 a0 5d 38 3d 7b a2 6e 3f 31 f9 9a be 9a e1 ba bd
       0.045011163 0.93216676 -0.30268243 -0.09125061
000010 25 cf ac 3e 78 84 14 3f
       0.3375179 0.5801463

weight f4 [3, 6]
000000 72 c7 92 bf 3c 92 9b be c9 78 b6 bf 85 69 c1 bf
       -1.1467116 -0.30385005 -1.4255611 -1.5110327
000010 15 b9 ce 3f ae 08 a8 3f e0 91 6a 3f 57 74 b2 bf
       1.6150233 1.3127649 0.9162884 -1.3941754
000020 a3 c6 db be 7d 73 65 3e 36 a7 53 bf f3 60 57 bf
       -0.42924985 0.22407337 -0.8267702 -0.8413231
000030 1a 6f d0 3c 8a 83 1b 3f 4c 18 9f 3f a5 87 94 3f
       0.025443602 0.6074759 1.242929 1.1603895
000040 1c 1c f0 bf 43 35 45 bf
       -1.8758578 -0.77034396

bias f4 [3]
000000 51 ff 80 3f a0 f3 38 bf 5f 55 55 be
       1.0077916 -0.7224674 -0.20833348
