data/NN_trained_models/trained_net_4602.tar (torch_old, 8442 bytes, 4 tensors)

weight f4 [36, 12]
0	0x3ee327d6	0.4436633
1	0xbe267e2e	-0.16259071
2	0xbe354b3a	-0.17704478
3	0xbe91de08	-0.2848971
4	0xbd0face9	-0.03507701
5	0x3ecb9ddc	0.39768875
6	0x3f08c630	0.5342741
7	0xbf31558a	-0.6927115
8	0xbdc06b0d	-0.09395418
9	0xbe525283	-0.20539288
10	0x3e090bf1	0.13383462
11	0x3eb50581	0.35355762
12	0x3c7a96b7	0.015294722
13	0x3f1a0e1c	0.6017778
14	0xbe09f007	-0.1347047
15	0xbd4c28b0	-0.04984349
16	0x3ea036d1	0.31291822
17	0xbea871c0	-0.32899284
18	0x3db72d86	0.0894423
19	0x3de370f6	0.1110553
20	0xbe9c4dd2	-0.30528122
21	0xbede723d	-0.43446532
22	0x3e055397	0.13020168
23	0xbe96683a	-0.29376394
24	0xbde9cfd0	-0.1141659
25	0x3e8b51f6	0.2721097
26	0xbeaa7528	-0.33292508
27	0x3c9f8e4f	0.019477038
28	0xbddc4a85	-0.10756401
29	0xbc70485c	-0.014665689
30	0xbe1ca3cf	-0.15296863
31	0xbd6190ea	-0.05506984
32	0xbdfd2407	-0.12360387
33	0xbe53bbfa	-0.20677176
34	0x3de55a76	0.11198895
35	0xbde3610e	-0.11102496
36	0xbe2e4f23	-0.17022376
37	0x3f0b1d07	0.5434117
38	0x3f651a15	0.89492923
39	0xbe33aa4d	-0.17545433
40	0xbefa119f	-0.4884157
41	0x3da42bc6	0.080161616
42	0x3e342b08	0.1759454
43	0xbf7bfb28	-0.9843011
44	0x3d90d787	0.070723586
45	0xbe0f0155	-0.13965352
46	0xbeb77dcc	-0.35838163
47	0x3f6e7613	0.93148917
48	0x3f09c85a	0.5382134
49	0x3eb08afe	0.34481043
50	0xbe830949	-0.25593022
51	0xbf69d33d	-0.9133795
52	0xbe26ad24	-0.16276985
53	0xbc62cfc6	-0.013843482
54	0x3ee5e46f	0.44900844
55	0x3bedc2c8	0.0072558858
56	0xbdfbd47a	-0.12296386
57	0xbe21c297	-0.15796886
58	0xbefa8faa	-0.48937732
59	0xbe0cec8d	-0.13762112
60	0xbe75a7c2	-0.23989776
61	0x3de4d120	0.111727
62	0xbe4ebb8d	-0.20188732
63	0x3f12a1d1	0.5727816
64	0x3ea599ad	0.32343808
65	0xbe361327	-0.17780744
66	0xbf19a8b4	-0.60023046
67	0xbd9daa97	-0.07698553
68	0xbdc52647	-0.096264414
69	0xbe40d0a6	-0.18829593
70	0xbe7f48ba	-0.24930087
71	0x3d99f1fb	0.07516857
72	0xbe21c941	-0.15799429
73	0xbdab5b62	-0.08367039
74	0x3ed57158	0.41688037
75	0x3ecc75d2	0.3993364
76	0xbe887719	-0.26653364
77	0xbe799793	-0.24374227
78	0x3e610fe6	0.21978721
79	0x3ec3d9e7	0.38252184
80	0xbe987161	-0.29774
81	0x3f057748	0.52135134
82	0x3ee537d8	0.44769168
83	0xbebf4bb8	-0.37362456
84	0xbeab5619	-0.33464125
85	0x3ec4c682	0.384327
86	0x3e1bfeb0	0.15233874
87	0x3ee7e5a8	0.452924
88	0x3e65b470	0.22432113
89	0xbeff931c	-0.49916923
90	0xbc2a4645	-0.01039273
91	0xbea61082	-0.3243447
92	0x3d9ff67b	0.07810684
93	0x3d3d007d	0.046143044
94	0x3d283f8a	0.04107622
95	0xbe196286	-0.1497899
96	0xbdb16f08	-0.08663756
97	0x3e0d3129	0.13788284
98	0xbf06c376	-0.52642
99	0xbe77a9d3	-0.24185877
100	0x3dff8b80	0.124777794
101	0x3d156865	0.03647651
102	0xbec39a9f	-0.38203904
103	0xbd8d7a65	-0.069081105
104	0x3d9ce45e	0.07660745
105	0xbe0b6c96	-0.13615641
106	0x3e5aa93e	0.21353623
107	0xbda81d65	-0.082087316
108	0xbe99ded5	-0.3005282
109	0xbf1fcf9c	-0.6242616
110	0xbe6bcec9	-0.23028101
111	0xbdff8ec3	-0.124784015
112	0x3eefb908	0.46820855
113	0xbf050c14	-0.51971555
114	0x3c41b6df	0.011823385
115	0xbebafe06	-0.3652193
116	0xbdbc387c	-0.09190461
117	0x3e21961a	0.15779915
118	0x3d3157da	0.043296672
119	0xbccd70e3	-0.025078243
120	0xbd86234e	-0.065497026
121	0x3f17f7b4	0.5936234
122	0x3e6662c3	0.22498612
123	0xbeabf54e	-0.3358559
124	0xbee5678a	-0.44805557
125	0xbf0115a4	-0.50423646
126	0x3eae53ee	0.34048408
127	0x3e17263a	0.14760676
128	0x3f141c75	0.5785592
129	0xbf26ee4b	-0.65207356
130	0x3e770938	0.2412461
131	0x3ec9ee88	0.39439797
132	0x3dc819cf	0.097705476
133	0x3e96e1a3	0.29469022
134	0x3f6fedb4	0.9372208
135	0xbf9b4279	-1.2129661
136	0x3eb1a155	0.346934
137	0xbe2f6ed0	-0.17132115
138	0xbcc96306	-0.02458335
139	0xbf8bdff8	-1.0927725
140	0x3e825d9a	0.25462037
141	0xbd8eeca0	-0.069787264
142	0xbd980a0d	-0.07423792
143	0x3ed53259	0.41639975
144	0x3e676061	0.2259536
145	0x3e0d4358	0.13795221
146	0x3e9cdc27	0.30636713
147	0xbea2a93b	-0.31769738
148	0xbed3dd55	-0.413798
149	0xbf0156ad	-0.5052288
150	0x3f0c43dc	0.54791045
151	0x3e476327	0.19471417
152	0xbed763fa	-0.42068464
153	0x3e03242a	0.12806764
154	0xbd6fa59b	-0.058507543
155	0x3e5e47b0	0.21707034
156	0xbea86ca9	-0.328954
157	0xbe134eca	-0.14385524
158	0xbf10ee57	-0.5661368
159	0xbf1e7af6	-0.61906374
160	0xbe8568fe	-0.26056665
161	0x3e294e2c	0.16533726
162	0x3d06522b	0.032793205
163	0xbe3b56fa	-0.18294898
164	0x3a961ec6	0.0011453263
165	0x3e5f825d	0.21827073
166	0x3d2fd192	0.04292447
167	0xbe957618	-0.2919166
168	0xbcc46ff3	-0.023979163
169	0xbe5eb324	-0.21748024
170	0xbec75b70	-0.3893695
171	0xbe3c89da	-0.18411961
172	0x3f9887d3	1.191645
173	0xbef8ad61	-0.48569778
174	0xbf25f4a8	-0.6482644
175	0xbe4762e7	-0.19471322
176	0x3eb90eb4	0.3614403
177	0xbe0e36d2	-0.138881
178	0x3d522b59	0.05131087
179	0xbddf4e7c	-0.109036416
180	0xbed3d3b3	-0.4137245
181	0xbf3cb6db	-0.73716515
182	0x3cd1219f	0.025528727
183	0x3d8a7820	0.06761193
184	0xbe225ecd	-0.15856476
185	0x3e3fb779	0.18722333
186	0x3d9af69b	0.075665675
187	0x3cfe42b7	0.031037671
188	0x3f762bee	0.9616078
189	0x3f27446b	0.6533877
190	0xbeaea80b	-0.34112582
191	0x3e7857ab	0.24252193
192	0xbe34eaeb	-0.17667739
193	0xbf75662b	-0.9585902
194	0x3f08f571	0.53499514
195	0x3dfeacf0	0.12435329
196	0x3e674223	0.22583823
197	0x3c6c9054	0.014438707
198	0x3f1c8e2c	0.6115444
199	0x3ea9eb40	0.33187294
200	0xbe2a1f6a	-0.16613546
201	0x3e884156	0.26612347
202	0x3ddfa500	0.10920143
203	0x3ef9b8c0	0.48773766
204	0x3ed731c2	0.4203015
205	0x3e4d6d11	0.20061137
206	0xbf86c52f	-1.0528926
207	0x3e33c6ea	0.17556348
208	0x3e610fe9	0.21978725
209	0x3e0d731d	0.13813443
210	0xbdd8541d	-0.10562918
211	0x3dd39d74	0.10332766
212	0xbd4b85a3	-0.049687993
213	0x3d6b37d2	0.05742628
214	0xbeab0e9f	-0.33409593
215	0x3f556e95	0.8337186
216	0x3e743444	0.23848063
217	0x3f19ec4f	0.60126203
218	0xbe077206	-0.1322709
219	0xbf89a205	-1.075257
220	0x3d60e8a5	0.054909367
221	0xbeb132e5	-0.34609142
222	0x3e93bdca	0.28855735
223	0xbf7f347a	-0.9968945
224	0x3e954795	0.29156175
225	0xbe182157	-0.14856468
226	0x3efca379	0.4934347
227	0xbbb2a8be	-0.0054522445
228	0xbebf014e	-0.37305683
229	0xbd04f53e	-0.032460444
230	0x3ea9ce35	0.33165136
231	0xbf5e8176	-0.8691629
232	0x3ea8c3ae	0.32961792
233	0xbcc6b84e	-0.024257805
234	0xbef34539	-0.4751375
235	0x3e4030ee	0.18768665
236	0x3ec9ed89	0.39439037
237	0x3eae2b51	0.34017423
238	0x3e839861	0.25702193
239	0x3de63c89	0.11242015
240	0x3e0cb288	0.1373998
241	0xbf1dab98	-0.61589956
242	0xbbbabe16	-0.0056989295
243	0x3ec9da28	0.39424253
244	0x3ee841ad	0.45362607
245	0x3e19ab06	0.15006647
246	0x3ee478ae	0.4462332
247	0x3e108c38	0.14115989
248	0x3e3532ce	0.17695162
249	0x3ea21488	0.3165629
250	0x3d9f1d6b	0.07769283
251	0xbe2e7a10	-0.1703875
252	0x3f18688c	0.59534526
253	0x3f25e46b	0.64801663
254	0x3e78cfa4	0.24297959
255	0x3eaeb1fd	0.3412017

bias f4 [36]
0	0xbf7490e0	-0.9553356
1	0xbf0ee03d	-0.5581091
2	0xbf2e5c9c	-0.6811006
3	0xbe486c51	-0.1957257
4	0x3f004207	0.5010075
5	0x3f0db4ee	0.553542
6	0x3eaec43e	0.34134096
7	0x3efb8233	0.49122772
8	0xbf470688	-0.7774434
9	0x3e45dd9a	0.19322816
10	0xbf28c1fb	-0.6592099
11	0x3dc72ec0	0.09725714
12	0x3ebda431	0.3703933
13	0x3edd17f7	0.43182346
14	0x3eac03fa	0.33596784
15	0x3f3549be	0.70815647
16	0x3f0bf130	0.546649
17	0xbddccf49	-0.10781724
18	0x3eac0578	0.33597922
19	0xbea57527	-0.32315943
20	0x3f296df8	0.66183424
21	0xbdbea9f9	-0.093097635
22	0xbecfb74d	-0.40569535
23	0x3b8f3fca	0.004371618
24	0xbe6653b4	-0.22492868
25	0x3f0c6b55	0.54851276
26	0x3d9651b5	0.07339803
27	0xbf15bcbf	-0.5849113
28	0xbeb7abd8	-0.35873294
29	0x3ec45afe	0.38350672
30	0x3f137648	0.5760236
31	0x3de25e36	0.110531256
32	0xbebcd6b6	-0.3688256
33	0xbe0c4529	-0.13698258
34	0x3d9a0502	0.075204864
35	0x3ed07e0f	0.40721175

weight f4 [3, 36]
0	0x3f008567	0.50203556
1	0xbecf9bee	-0.40548652
2	0xbe062ba1	-0.1310258
3	0xbf15a309	-0.58451897
4	0x3efb6ffb	0.49108872
5	0xbe139fb9	-0.14416398
6	0xbef6757f	-0.48136517
7	0x3d723262	0.05913008
8	0xbead7c8a	-0.33884078
9	0x3e4b0b8f	0.19828628
10	0x3e5677ff	0.20944212
11	0xbf516722	-0.81797993
12	0x3edbe4f3	0.42948112
13	0x3eb80ef0	0.35948896
14	0x3ee7fac1	0.45308498
15	0x3f1b51b3	0.6067154
16	0x3f1d1676	0.613624
17	0xbf02f977	-0.51161903
18	0xbee0f276	-0.43934983
19	0xbe682f6d	-0.22674341
20	0x3ed3ac2e	0.413423
21	0xbedfd08f	-0.43713805
22	0xbc01a02f	-0.007911726
23	0xbcb5ed36	-0.022207838
24	0xbe9b29d6	-0.30305356
25	0x3f1b72f4	0.6072228
26	0x3f01abac	0.50652575
27	0x3eec5880	0.4616127
28	0x3ec12c57	0.3772914
29	0x3e7a9a0a	0.24472824
30	0x3f1c133a	0.6096684
31	0xbeca249a	-0.3948105
32	0x3ca0240d	0.01954844
33	0xbe4f8e12	-0.2026904
34	0x3e02d36c	0.12775964
35	0x3ed46d45	0.41489616
36	0x3e9c7b9f	0.30563065
37	0x3e56dd90	0.20982957
38	0x3ebdbcc8	0.3705809
39	0x3f249620	0.6429157
40	0xbe6100dc	-0.21972984
41	0xbeed8007	-0.4638674
42	0x3dac519b	0.084140025
43	0xbecec71c	-0.40386283
44	0x3e94b836	0.29046792
45	0xbee37b38	-0.44429946
46	0x3f2a0897	0.6641936
47	0x3c72cd00	0.014819384
48	0xbecb4237	-0.39698955
49	0xbe1a5208	-0.15070355
50	0xbe709c90	-0.23497224
51	0xbf03d225	-0.5149253
52	0xbeb59d5b	-0.35471615
53	0x3e40ddfe	0.18834683
54	0x3ee26f28	0.4422543
55	0xbecc2dfb	-0.3987883
56	0xbee501eb	-0.44728026
57	0xbe77667d	-0.2416019
58	0x3efb3bdc	0.49069107
59	0xbca3ea88	-0.020009294
60	0x3e568063	0.20947413
61	0x3e8093a3	0.25112638
62	0xbe8d0aea	-0.2754739
63	0x3e026c72	0.12736681
64	0xbd7af507	-0.061268833
65	0x3d123327	0.035693314
66	0xbf47c7e7	-0.780394
67	0x3e9179f2	0.2841335
68	0x3f13f25d	0.5779169
69	0x3e0274d5	0.1273988
70	0xbe4747a9	-0.1946093
71	0xbe35220a	-0.17688766
72	0xbf0572ba	-0.52128184
73	0xbcfff4d1	-0.031244667
74	0x3da14eca	0.07876356
75	0xbb0b8f17	-0.0021295005
76	0xbef4d18f	-0.4781613
77	0x3ea15f9b	0.31518254
78	0x3ed4f564	0.41593468
79	0x3e2751fc	0.16339868
80	0xbe16b81e	-0.14718673
81	0xbc234810	-0.0099659115
82	0xbf1657bf	-0.5872764
83	0x3f1cb593	0.6121456
84	0xbe7cc4bc	-0.24684423
85	0xbe1a7411	-0.15083338
86	0xbe9707ed	-0.29498234
87	0xbd69decd	-0.057097245
88	0xbe2d561b	-0.16927378
89	0x3f008e1a	0.5021683
90	0x3d448bb7	0.047984805
91	0x3e9642e0	0.29347897
92	0xbe7e1fd0	-0.24816823
93	0x3f40da5a	0.7533318
94	0xbe365418	-0.17805517
95	0xbd24a8c5	-0.040200014
96	0x3e3a3044	0.18182474
97	0xbeed4bd7	-0.46346924
98	0xbcac2894	-0.021015443
99	0xbf262d86	-0.64913213
100	0xbea8439b	-0.3286408
101	0xbe0198f3	-0.12656002
102	0xbc4a6e81	-0.012355448
103	0x3ea29d3e	0.3176059
104	0xbe7bd450	-0.2459271
105	0x3e4cdd91	0.20006396
106	0x3bd399bb	0.006457535
107	0xbe38e052	-0.18054321

bias f4 [3]
0	0x3e150f8a	0.14556709
1	0xbefdcfd3	-0.4957262
2	0x3eb408b6	0.35162896
