data/NN_trained_models/trained_net_6720.tar (torch_old, 7063 bytes, 6 tensors)

weight f4 [6, 12]
-3.5712147 3.5749085 8.52401 5.399576 -1.3493937 2.7142031 -3.2495124 -7.88155
1.9078119 -2.5995448 -0.85366654 7.230235 1.5929747 5.2423596 9.479765 -4.7908163
1.8760864 -1.2810831 0.59926987 -4.6153307 2.4137664 0.22850634 1.9597479 6.9136653
-3.371284 -6.625347 -2.303761 1.0916144 -6.953277 -1.0226296 2.144014 3.4118414
6.4662495 -4.5108824 -7.011634 0.6633259 2.932507 -8.842445 -4.9199376 -5.095728
2.8850427 -0.91251856 -0.28338537 -0.53833604 -2.2635252 -4.6323705 -2.072923 1.6921839
-4.4252925 5.6114845 6.074056 -1.6664112 6.2714515 -1.9219705 -3.4509373 -2.534651
4.101992 5.104128 4.0046597 0.5026421 4.305452 -0.33138296 -11.639195 -2.228019
0.9551694 -2.238347 -2.221621 3.364416 -1.7949517 -5.336435 2.8131447 0.075419754
00000000: c88e 64c0 4dcb 6440 5862 0841 54c9 ac40
00000010: efb8 acbf 81b5 2d40 03f8 4fc0 a835 fcc0
00000020: 2e33 f43f f15e 26c0 e489 5abf 165e e740
00000030: 98e6 cb3f 69c1 a740 1ead 1741 5e4e 99c0
00000040: 9923 f03f 88fa a3bf c069 193f cab0 93c0
00000050: 267b 1a40 91fd 693e 05d9 fa3f bf3c dd40
00000060: 1ec3 57c0 d802 d4c0 d270 13c0 05ba 8b3f
00000070: 3f81 dec0 87e5 82bf 8637 0940 9c5b 5a40
00000080: 84eb ce40 2659 90c0 4e5f e0c0 bacf 293f
00000090: 32ae 3b40 a87a 0dc1 2170 9dc0 3410 a3c0
000000a0: 8aa4 3840 d19a 69bf e317 91be 64d0 09bf
000000b0: 99dd 10c0 613c 94c0 c5aa 04c0 7b99 d83f
000000c0: ff9b 8dc0 4891 b340 ab5e c240 f64c d5bf
000000d0: bbaf c840 2103 f6bf 28dc 5cc0 b937 22c0
000000e0: 8543 8340 0455 a340 2c26 8040 27ad 003f
000000f0: 43c6 8940 07ab a9be 253a 3ac1 dd97 0ec0
00000100: fb85 743f 1441 0fc0 0a2f 0ec0 9752 5740
00000110: fac0 e5bf 13c4 aac0 900a 3440 ac75 9a3d

bias f4 [6]
0.19763494 -0.05147204 -1.6206611 3.4258447 -3.2275183 -6.4595375
00000000: d060 4a3e 59d4 52bd d371 cfbf 0a41 5b40
00000010: a98f 4ec0 88b4 cec0

weight f4 [6, 6]
-0.2187474 -1.4354084 -1.323044 0.24051408 3.2890112 -2.571379 -0.8090402 1.4687588
0.24661309 -0.53768057 -0.21899153 0.8954737 -0.7159543 0.7574504 2.1167026 0.72906995
3.8930452 2.2206833 1.2186228 0.43737608 -2.3057213 -1.9499353 -2.080957 0.74867046
-2.4291766 -2.9032598 -0.19017144 1.3809476 0.23775864 -4.4396753 -1.4828899 -0.67082924
2.6179473 2.776204 -1.4996313 -0.71108234
00000000: 52ff 5fbe 76bb b7bf 8159 a9bf 5349 763e
00000010: 297f 5240 7991 24c0 421d 4fbf 4a00 bc3f
00000020: 2488 7c3e 6fa5 09bf 513f 60be c43d 653f
00000030: c848 37bf 45e8 413f 0e78 0740 54a4 3a3f
00000040: a727 7940 ad1f 0e40 d5fb 9b3f c2ef df3e
00000050: f090 13c0 7b97 f9bf 662e 05c0 dea8 3f3f
00000060: a177 1bc0 02cf 39c0 4dbc 42be e4c2 b03f
00000070: 0077 733e d211 8ec0 56cf bdbf 77bb 2bbf
00000080: 738c 2740 54ad 3140 ebf3 bfbf 7e09 36bf

bias f4 [6]
-3.2342927 -0.93195724 -0.59815234 -4.1300926 -1.6642722 -0.82518315
00000000: a7fe 4ec0 c094 6ebf 8320 19bf b829 84c0
00000010: df06 d5bf 343f 53bf

weight f4 [3, 6]
1.3293921 0.07540068 -0.07490325 -0.73144025 0.9120368 1.5804569 -1.4350251 -0.08189928
-0.69810766 0.8002837 -2.6377869 -2.3923626 -0.39662513 0.32364678 0.9231047 -0.10365073
0.19851084 -0.04650773
00000000: 8529 aa3f ac6b 9a3d e066 99bd ab3f 3bbf
00000010: 3e7b 693f 694c ca3f e7ae b7bf cfba a7bd
00000020: 2fb7 32bf 64df 4c3f 80d1 28c0 781c 19c0
00000030: 7312 cbbe 08b5 a53e 9750 6c3f d546 d4bd
00000040: 6d46 4b3e e47e 3ebd

bias f4 [3]
-0.14055182 -3.918529 2.572634
00000000: d1ec 0fbe 2ec9 7ac0 09a6 2440
