data/NN_trained_models/trained_net_11475.tar (torch_old, 9010 bytes, 8 tensors)

weight f4 [12, 12]
00000000: a687 4e40 a165 09bf 1533 e13f b979 e4be
00000010: b71c c8bf c89c 543f 8380 4ac0 373d a6bf
00000020: ec5a ef3f 43f6 3840 f23a 253f fea8 0740
00000030: d8a9 5e40 85fe 6b3e bc20 38c0 6f6f 98bf
00000040: 2063 44c0 cab6 2d40 edf5 0740 58d4 d4bf
00000050: eb16 9d3f 6918 f8bf a9ff 01c0 7e75 abbe
00000060: ba8c 8ebe 590a 88bf 4664 03bf bc5b 0ebf
00000070: 1c97 723f 9450 58bf cf71 803e c6c1 9c40
00000080: b95f ae3d 63a3 07c0 cd0d 33c0 45a2 883f
00000090: ae06 bcbe 3804 2d40 7f5e 0340 11c6 1740
000000a0: 814b 8ac0 b12b 7840 a0d1 443f 6ad8 1040
000000b0: d6b3 8cbf 1c58 8e3f cc3b 00bf 4540 19c0
000000c0: 96eb 25bf 02a9 4240 e134 48bf ca60 3fc0
000000d0: bcb3 ff3e 4670 c33d 1a01 6f3e 41dc 03c0
000000e0: 253c f13f ee4e 673e 21c4 4240 d0a0 10c0
000000f0: 64a4 53c0 e994 f9bf c6bb f5bd cdee bebf
00000100: 6d53 55bf 2ce2 d8bf 7060 04c0 8aa5 0840
00000110: fd85 8e3d f88f e4bf d37c 5cbe 12f4 44c0
00000120: e768 8c3f e50d b63f fac0 3740 fce4 17c0
00000130: 267c df3f 4d81 9fbf 02e0 08bf d8fc 90c0
00000140: 8765 503e 8cb7 a63f 1a46 febf 0c72 c53f
00000150: 09bc 35c0 8103 fc3f 692f 02c0 64b8 0b3f
00000160: c695 babf b45e 3040 2b40 5940 c973 53be
00000170: 6ddf 97be 8026 6f3f a0a6 a93f ca28 0f40
00000180: 9530 a6bd 1e73 fdbf 07cc bbbf 8dba 5ac0
00000190: 07e6 ebbf a97a dabd 2d3f 8140 a0fd ce3f
000001a0: d156 693f 8a88 63c0 c134 91bf 52b7 fb3d
000001b0: 154d dd3e c540 18c0 d24b 5140 f9ae ea3e
000001c0: 92e0 cd3f ddb0 3440 9c15 acbf be86 223f
000001d0: 1915 dd3f f3d9 c7be a378 dc3f c4ab 7d40
000001e0: 6ad2 0440 0006 23c0 c01a 063f 18eb be3e
000001f0: adb4 8abd a394 0440 dc1e 92c0 8f04 c53f
00000200: 9036 0a40 e2b8 bdbe 9e68 0bc0 428b 3840
00000210: 9dfb b5bf dec8 1bbf 1b74 78c0 e439 b8bf
00000220: c0b1 4bc0 6beb 4740 0ee7 903e 0956 893f
00000230: 51b6 a4bd 76b8 de3e b6d4 e5bf 4900 03c0
3.2270293 -0.536707 1.7593714 -0.44624117 -1.5633763 0.8305173 -3.1640937 -1.2987431
1.8699622 2.8900306 0.6454307 2.1196895 3.4791164 0.2304631 -2.876998 -1.1909007
-3.06855 2.7142816 2.124385 -1.6627302 1.2272619 -1.9382449 -2.0312293 -0.33488077
-0.2784174 -1.0628158 -0.5132488 -0.55608726 0.94761825 -0.8449795 0.2508683 4.898654
0.085143514 -2.1193473 -2.7977173 1.0674521 -0.36723846 2.7033825 2.0526426 2.371464
-4.321717 3.8776667 0.7688236 2.2632089 -1.0992382 1.1120639 -0.5009124 -2.3945477
-0.648126 3.0415654 -0.78205687 -2.9902825 0.49941814 0.09542899 0.23340264 -2.0603182
1.884648 0.22588703 3.0432208 -2.2598152 -3.3069086 -1.9498569 -0.119987056 -1.4916626
-0.8333042 -1.6944022 -2.068386 2.1351037 0.0695915 -1.7856436 -0.21531992 -3.0773969
1.0969514 1.422299 2.8711534 -2.373351 1.7459762 -1.2461334 -0.5346681 -4.5308647
0.2035123 1.3024764 -1.9865143 1.5425429 -2.8396018 1.9688569 -2.0341437 0.5457823
-1.4576957 2.7557802 3.3945415 -0.20649637 -0.29662648 0.9341812 1.3253975 2.2368646
-0.08114735 -1.9800756 -1.4671639 -3.4176362 -1.8429574 -0.10667927 4.038962 1.617115
0.91148096 -3.5552087 -1.1344224 0.12290825 0.4322287 -2.3789532 3.2702527 0.4583662
1.6084158 2.8232949 -1.3444095 0.6348685 1.7272063 -0.3903347 1.7224315 3.9636087
2.0753427 -2.5472412 0.5238457 0.37288737 -0.067727424 2.071572 -4.566267 1.5392016
2.1595802 -0.37055117 -2.1782603 2.8834996 -1.4217411 -0.60853374 -3.8820865 -1.4392667
-3.182724 3.1237438 0.2830128 1.0729381 -0.080425866 0.43500108 -1.7955539 -2.0468924

bias f4 [12]
00000000: bf5b b6bf 413e 37be 5656 af3f 448a 9d3d
00000010: b31f 6d3f 3f80 16bf 93ad 1a3f c5d4 6dbe
00000020: f511 78bf 1ac2 cb3f caec db3f fbc3 0bc0
-1.4246749 -0.17894842 1.3698223 0.07692388 0.92626494 -0.5878944 0.60421103 -0.23225696
-0.969024 1.591861 1.7181637 -2.1838367

weight f4 [12, 12]
00000000: cf83 e33f 97c6 763f d7b0 1740 7d52 a13e
00000010: 381b 3940 f769 a63f a325 873f cf62 0e3f
00000020: 32d9 d2bf 45af 1a40 e020 de3e c802 5bbf
00000030: c92d 743e 4672 84bf c639 afbf f0a0 31c0
00000040: 731e 51c0 c40e 9bbf 5eeb c5bf 9583 a3bf
00000050: a501 8740 1c5d 533e 0949 6bbf 0ad8 b0be
00000060: 731e f3bf ec00 853f 7b7a 01c0 feef b23e
00000070: cba9 3840 e3c6 5c3f 176f f2be 220e 4140
00000080: 9cc6 4c3f efbf 5dbe a215 0ec0 db16 69bf
00000090: 08b2 943f 8e45 0740 5d93 5bc0 ff04 efbf
000000a0: 267d 22c0 b184 143f 1ecf 03bf 2a2b 22be
000000b0: fc2b d03f 6855 20c0 cef5 50c0 1862 3540
000000c0: 24f2 abbd 2124 ecbf d7cb 98bf ffcd f8bf
000000d0: 6668 1fc0 5556 6540 8eb8 8fc0 81bf b9bf
000000e0: f91f 6640 4d3e e43f 7475 0dbf 18c4 513f
000000f0: 1419 2440 0278 453f fe14 63c0 5f7d 2fc0
00000100: 80cc fd3d 27e4 a8be 52df f5bf 0fb4 b03f
00000110: 929d 0d40 00bc 42bf a283 49c0 c3bd 9640
00000120: 5aeb 9bbf c382 0fc0 f90d fd3d 09d4 b83e
00000130: 9167 17c0 0256 9bbe 5894 87bf fcd6 65c0
00000140: 9cc8 1140 7271 31bf be1f 4240 8b21 0f40
00000150: 925d 933e ce83 a4bf ed01 c2be f12e c93f
00000160: 8eea 15c0 4d3c 0d40 477a cdbf 438e debf
00000170: 140e 173f 4676 3bbf d479 053f 38a5 5b3f
00000180: ab7b 3940 8e4a 31bf 4e15 5e40 96c1 b23f
00000190: ea59 bd3f 7da3 83bf 7f91 04be b8e9 9f3f
000001a0: 895a e8bf f0fc 9e3f 24b1 e7be 00ec 9bbf
000001b0: 78bf 24bf c8bb 0240 15b8 1cc0 88dc de3d
000001c0: ce47 ecbe 19c2 1840 4eff f33f c47f c53f
000001d0: 7923 e0bf 47c4 2f40 7e16 80bf da87 0fbf
000001e0: ea23 1940 f502 fb3f dc4c 4dc0 5c40 0d3f
000001f0: 8d69 1fbd 970e 5a40 eb07 04c0 579c 9e3f
00000200: 7a02 5bbf 437f a53f 2078 ebbf 527b e53f
00000210: 96a8 eabd dbe3 e5be bfe2 d4bf ab18 4c3f
00000220: a649 f63d b13e 1640 12f2 6abf 11f0 0540
00000230: 1115 b7bf 82c9 0c3f 4d2e 11c0 1105 5c3d
1.77746 0.96396774 2.3701684 0.31508246 2.8922863 1.3001088 1.0558361 0.5561952
-1.6472533 2.4169476 0.43384457 -0.8555112 0.2384559 -1.0347373 -1.3689506 -2.7754478
-3.2674835 -1.2113881 -1.5462453 -1.2774531 4.2189507 0.20640987 -0.9190832 -0.34539825
-1.8993667 1.0390906 -2.0231006 0.34948725 2.8853633 0.8624098 -0.4735038 3.0164876
0.79990554 -0.21655248 -2.2200704 -0.910505 1.1616831 2.1136203 -3.4308693 -1.86734
-2.5388885 0.5801497 -0.5148791 -0.15836778 1.6263423 -2.5052128 -3.2650027 2.8341122
-0.08395794 -1.8448526 -1.1937207 -1.9437865 -2.490747 3.5833943 -4.4912786 -1.4511567
3.5957015 1.7831513 -0.55257344 0.8193984 2.5640306 0.7713624 -3.5481563 -2.742027
0.12392521 -0.32986566 -1.9208777 1.380495 2.2127423 -0.76068115 -3.1486592 4.7106643
-1.2181199 -2.242356 0.12356181 0.3609927 -2.3656962 -0.30339056 -1.0592146 -3.5912466
2.2778692 -0.6931373 3.0331874 2.2364223 0.28782326 -1.2852724 -0.37892094 1.571745
-2.342441 2.2068055 -1.6052941 -1.7387165 0.59005857 -0.73227346 0.5213902 0.8579898
2.898173 -0.69254386 3.4700503 1.3965328 1.4793065 -1.0284268 -0.12946127 1.24932
-1.8152629 1.242094 -0.45252335 -1.2181396 -0.6435466 2.0427113 -2.4487355 0.10881907
-0.46148533 2.3868468 1.9062288 1.5429616 -1.7510825 2.7463548 -1.0006864 -0.5606667
2.392817 1.9610277 -3.2078161 0.5517633 -0.03891902 3.4071405 -2.0629833 1.2391461
-0.85550654 1.2929462 -1.8396034 1.7928259 -0.114579365 -0.44900402 -1.6631697 0.7972514
0.12025766 2.3475764 -0.9177562 2.0927775 -1.4303304 0.54994977 -2.268451 0.05371577

bias f4 [12]
00000000: 7f06 3dbf 95d1 453f d072 b9bf 3044 2cbf
00000010: 926f 78bf 6639 90bd a2c9 92bf 86b6 cfbf
00000020: ec0d dbbe 999c 41bf a293 a9bf 2a0f 64be
-0.7383804 0.7727292 -1.4488163 -0.67291546 -0.9704524 -0.07042198 -1.1467783 -1.6227577
-0.4278406 -0.75629574 -1.3248179 -0.2227141

weight f4 [12, 12]
00000000: 24b7 79bf fd3b 9240 a6da edbf b53c 7ebf
00000010: f534 0740 5384 11bf d051 113f e37b 293f
00000020: 95a8 15c0 2c77 6c3f dbd3 82bf b113 d9bf
00000030: a230 19c0 635d 5440 0ecf 2bc0 1194 1a40
00000040: 3c00 f6be 3cde d33f 76bc 0940 ce50 b63f
00000050: 2a88 d6bf 1194 cbbf e698 0bc0 2dd6 17c0
00000060: e79e 0540 42d4 1cc0 9ad5 4ebd 8012 1ec0
00000070: 9d05 f9bf 2461 edbf a0b0 2bc0 5ec1 41bf
00000080: c6f4 ed3f b767 2c3f f64a eb3e 6626 563f
00000090: ced8 d33f f155 a3bf 31f1 53c0 96d3 0cc0
000000a0: eeba 38c0 70a7 50c0 ea5b 5abf 573a 35bf
000000b0: 9014 ce3f c664 0e40 ad22 a9bd bf44 1abe
000000c0: 1550 723f 3e0d 393f f967 ea3f 8ad1 56c0
000000d0: 14a9 28c0 47aa 6fc0 01e7 ba3e 9946 14c0
000000e0: 6414 173f 0446 75bb e6c8 2ec0 029d 5bbf
000000f0: ee8e 1ec0 fdc3 1340 a64b a2bf 6f16 edbf
00000100: b0a1 8240 020d 18bf 37a7 83bf 9487 5d3e
00000110: a250 e6bf ffd0 6b3e 4350 96be 34bb 533e
00000120: a9d6 02c0 36c7 e63f 6d36 a0bf 24c3 a7bc
00000130: dfed 20bf b39e 803f 03eb c43f 9c42 2940
00000140: 6020 d4bf a200 77c0 a90d 10c0 c9b8 08c0
00000150: f3dd 913f 9cde cb3f 6951 69bd cd66 5540
00000160: 09d8 5240 21e2 9540 71e7 eb3f 3964 4a3c
00000170: ea5c 433c f794 763f 0ebc 0e40 44d3 1c3f
00000180: eaf7 41be 2e0e 0cc0 b4f4 393f 201c c8bf
00000190: ac53 27c0 7cad 78c0 510d 57c0 3bed 13c0
000001a0: 4fd6 843f fd45 813f 6b7e 52bf 3aaf 1e3f
000001b0: 4e57 e93f 3a94 4e3f b90d 7d3f e05a fc3e
000001c0: 6b9d dfbf c481 873f c3f7 a1bf b6ba 5fbf
000001d0: 6637 9a40 7c28 78bf 62c9 6d3f 3a7a 1e40
000001e0: 9d50 1bc0 4b61 9b40 6a39 853c 52c9 aebf
000001f0: 892c 453f c073 c2be faaf 593e 2ef3 ed3e
00000200: 11ec 5fbe 4566 92bf 6573 f0bf a686 0340
00000210: 4eb0 7abf f790 2e3f 7df0 fdbf 6c48 40c0
00000220: 17ae 8cbf 476f e6bf c52f 5740 5338 4b3e
00000230: f166 0c40 7e56 11c0 f0f6 1ac0 163b 80bf
-0.97545075 4.569823 -1.8582351 -0.9931138 2.1126072 -0.56842536 0.5676546 0.6620466
-2.3384144 0.9236934 -1.0220903 -1.6959134 -2.3935933 3.3181999 -2.6845126 2.4152873
-0.48047054 1.6552196 2.1521277 1.424341 -1.6760304 -1.5904561 -2.1812072 -2.3724473
2.0878236 -2.4504552 -0.050496675 -2.4698792 -1.9454838 -1.854527 -2.6826553 -0.7568568
1.8590324 0.67345756 0.45955628 0.8365234 1.6550539 -1.2760602 -3.3115962 -2.2004142
-2.8864093 -3.2602196 -0.852965 -0.70792145 1.6100025 2.2249007 -0.08258567 -0.15065287
0.94653445 0.7228583 1.831298 -3.3565392 -2.6353197 -3.744768 0.36504367 -2.316809
0.5901549 -0.0037425766 -2.7310119 -0.8578645 -2.4774737 2.3088372 -1.2679336 -1.8522471
4.0822372 -0.5939485 -1.0285405 0.2163375 -1.7993357 0.23028944 -0.2935811 0.20676881
-2.0443518 1.8029544 -1.251661 -0.020478792 -0.6286296 1.0048431 1.538422 2.6446905
-1.657238 -3.8594136 -2.2508337 -2.1362784 1.1395859 1.592731 -0.056962404 3.3343995
3.2944357 4.6838536 1.8430005 0.0123529965 0.011924008 0.9632105 2.230228 0.61259866
-0.18942228 -2.1883655 0.7263901 -1.5633583 -2.614482 -3.8855886 -3.3601878 -2.3113544
1.0377902 1.0099484 -0.8222415 0.61986125 1.8229768 0.80694926 0.98849064 0.49288082
-1.7469915 1.0586476 -1.2653736 -0.87394273 4.8192625 -0.96936774 0.9288541 2.47621
-2.4267952 4.8556266 0.016262729 -1.3655188 0.7702108 -0.37978935 0.21258536 0.46474594
-0.21867396 -1.143746 -1.8785216 2.0550933 -0.9792527 0.6818995 -1.9839016 -3.0044203
-1.0990628 -1.8002709 3.3622906 0.19845705 2.193783 -2.270904 -2.4213219 -1.0018032

bias f4 [12]
00000000: f9fb b5bf db2b a8bf d3b7 253e cc7e 12bf
00000010: 5d52 0340 dd82 57bf 155e 77bf 2a94 2ebf
00000020: 350b 8b3c 7ae4 5c3f 5037 303f 507c 873f
-1.4217521 -1.3138384 0.16183405 -0.57224727 2.051902 -0.84184057 -0.9662793 -0.6819483
0.016973117 0.8628613 0.688344 1.0584812

weight f4 [3, 12]
00000000: 28dc 013f 1137 a63f 54b2 a73f 6405 463f
00000010: 0480 35bf 76a1 ef3f 2c02 a73f a33f 0040
00000020: 7f2c d5bf 67c6 9bbf d2a5 9c3f e1a2 84bf
00000030: ec00 cfbf 5fa4 72bf 82ab d1bf 0b6c 0b40
00000040: ec79 84bf 4c10 a6bf 5621 11c0 2e35 7e3e
00000050: 2ce9 843f 62ad 8abd bf60 30c0 30a4 1ac0
00000060: 33a3 173f ff45 98bf e9c9 a03e b15b cdbf
00000070: 90af c43f cdda 9cbf 9b1b b8be 5045 08c0
00000080: 6c58 243f e432 933f 1431 a13c 2735 c23f
0.50726557 1.2985555 1.3101296 0.77351975 -0.7089846 1.8721149 1.3047538 2.003884
-1.6654204 -1.2169923 1.2238104 -1.0362207 -1.6172156 -0.9478206 -1.6380465 2.1784694
-1.0349708 -1.2973723 -2.2676597 0.24824974 1.0383658 -0.067713514 -2.755905 -2.4162712
0.592334 -1.1896361 0.31404045 -1.6043607 1.5366077 -1.2254273 -0.3595856 -2.1292305
0.6419742 1.1499906 0.019676723 1.5172471

bias f4 [3]
00000000: ab0c 9bbe c6ce 9ebe ffe7 483f
-0.30283102 -0.3101713 0.78479
