data/NN_trained_models/trained_net_13025.tar (torch_old, 19957 bytes, 8 tensors)

weight f4 [36, 12]
0	0xbea73161	-0.3265486
1	0x3e169e23	0.14708762
2	0xbcb6f76a	-0.022334773
3	0x3e26b6ab	0.1628062
4	0xbebe67fd	-0.37188712
5	0xbde2d92a	-0.11076577
6	0xbe71a69e	-0.23598716
7	0x3d0eec16	0.034893118
8	0xbe4e8883	-0.20169263
9	0x3e1b6e6c	0.15178841
10	0x3e037652	0.12838104
11	0x3e3c8115	0.18408616
12	0x3c4634c0	0.0120975375
13	0xbd461b5d	-0.04836594
14	0xbe9b857a	-0.30375272
15	0xbd734b3f	-0.059397932
16	0x3ed725d8	0.4202106
17	0xbdc8fbd6	-0.09813659
18	0x3ecd014b	0.4004005
19	0xbe452965	-0.19254072
20	0x3edaf734	0.42766726
21	0xbe97f028	-0.29675412
22	0xbe986fa9	-0.2977269
23	0x3cbcc4a5	0.023042986
24	0xbda47a9a	-0.08031197
25	0x3ded0f32	0.11575164
26	0xbe6e166c	-0.23250741
27	0xbead87e0	-0.33892727
28	0x3e0d5ddf	0.1380534
29	0x3e17020d	0.14746876
30	0xbe315950	-0.17319226
31	0xbece1658	-0.40251422
32	0x3ecf6144	0.40503895
33	0xbe09c02b	-0.13452213
34	0x3e733d9c	0.23753971
35	0xbd91155c	-0.07084152
36	0x3e398d5f	0.18120335
37	0xbec60c81	-0.38681415
38	0x3c195f5c	0.009361114
39	0xbe29b0b9	-0.1657132
40	0x3ee02c61	0.43783858
41	0xbd447d85	-0.047971267
42	0xbeabcdc2	-0.33555418
43	0x3dc4fe29	0.0961879
44	0xbea4e94d	-0.32209244
45	0x3e27f962	0.16403726
46	0xbe05b5ad	-0.13057585
47	0xbd9e73ac	-0.077369064
48	0xbf0124b4	-0.5044663
49	0x3e258680	0.16164589
50	0x3e10fb41	0.14158346
51	0xbd494a91	-0.049143378
52	0xbe22065d	-0.1582274
53	0xbe4b87c3	-0.19876008
54	0xbf1f8baf	-0.62322515
55	0x3e877f04	0.26464093
56	0x3eea0b7a	0.4571188
57	0xbd855620	-0.06510568
58	0x3d698b11	0.05701739
59	0xbe6139a0	-0.21994638
60	0xbe1f33a1	-0.15547039
61	0xbeb27423	-0.3485423
62	0x3d8dbd7d	0.06920908
63	0xbeed8add	-0.46395007
64	0x3dcef8e0	0.10106063
65	0xbe8e5cd1	-0.27805188
66	0xbd6a53c3	-0.057208788
67	0xbe0cce26	-0.13750514
68	0x3df522b3	0.11969509
69	0xbe82effe	-0.25573725
70	0xbefc876d	-0.49322072
71	0x3e1a95a4	0.15096146
72	0x3e8fee51	0.28111508
73	0xbdb3f3f3	-0.08786764
74	0xbe06f6ce	-0.13180086
75	0x3ebd412c	0.36963785
76	0x3e30e22e	0.1727378
77	0x3e13c3fa	0.14430228
78	0xbe6c39a9	-0.2306887
79	0xbe40c3a0	-0.18824625
80	0x3e8c2c7d	0.27377692
81	0xbd590e26	-0.05299201
82	0xbd23f1bb	-0.040025454
83	0x3eac5da4	0.33665192
84	0xbdfe8fbc	-0.12429759
85	0xbe2a0abc	-0.16605657
86	0x3e8c3ef4	0.2739178
87	0xbc3cc2c1	-0.011521042
88	0xbdadcf42	-0.08486797
89	0x3e0f0146	0.1396533
90	0x3ee06486	0.43826693
91	0xbe9a678f	-0.30157134
92	0x3f064e38	0.524631
93	0xbe01c6e3	-0.12673526
94	0x3e2f5300	0.17121506
95	0xbe5efa99	-0.21775283
96	0x3e3b8922	0.18314031
97	0xbe074aca	-0.13212124
98	0xbc20ce30	-0.009814784
99	0xbe8d0cdd	-0.27548876
100	0xbe7fe4d3	-0.24989633
101	0xbe956a3e	-0.2918262
102	0xbe7df5f2	-0.24800852
103	0x3e0749bb	0.1321172
104	0x3e3fc41f	0.18727158
105	0x3d74dc29	0.059780274
106	0x3e9b7436	0.303621
107	0xbf08febb	-0.5351369
108	0x3eaee810	0.34161425
109	0x3d503164	0.050828353
110	0xbeb54fe2	-0.35412508
111	0xbeb70041	-0.3574238
112	0x3ea4bd18	0.32175517
113	0x3b54a197	0.0032444948
114	0x3c4c229a	0.0124594215
115	0xbe8cd958	-0.2750957
116	0x3d30ce47	0.04316547
117	0x3e5d9168	0.216375
118	0xbe002491	-0.12513949
119	0x3d9d41d4	0.07678571
120	0x3e06df29	0.13171066
121	0x3eb7ed7f	0.35923383
122	0xbd33f5b0	-0.043935478
123	0x3d99606b	0.074890934
124	0xbe1021cd	-0.14075394
125	0x3e8bd607	0.27311727
126	0xbd93f4cb	-0.07224425
127	0x3d71423f	0.058901068
128	0x3e0d458d	0.13796063
129	0xbe655d9d	-0.22398992
130	0xbe13cfaf	-0.14434694
131	0xbe91e8d1	-0.28497937
132	0x3e907226	0.28212088
133	0x3d5f32fe	0.05449199
134	0x3d2a314e	0.041550927
135	0xbe06aa25	-0.13150842
136	0xba21737d	-0.00061588717
137	0x3ea5cf15	0.32384554
138	0x3ef1c95f	0.47223946
139	0xbe775119	-0.2415203
140	0x3e90d1fe	0.2828521
141	0xbe77454f	-0.24147533
142	0x3df9e944	0.12202695
143	0xbc1a7bee	-0.009428961
144	0xbd548781	-0.05188704
145	0xbdc3b040	-0.095551014
146	0x3d351c37	0.04421636
147	0xbe350640	-0.17678165
148	0xbe013f0e	-0.1262171
149	0xbea198a0	-0.31561756
150	0xbe42b826	-0.1901556
151	0xbcaf3cd5	-0.021391312
152	0xbcac37e6	-0.021022748
153	0x3de35c18	0.1110155
154	0x3ec62a9f	0.38704392
155	0x3e5cfa98	0.21579969
156	0xbe8c2698	-0.27373195
157	0x3db212b9	0.08694977
158	0xbdf6330b	-0.120214544
159	0x3ec856af	0.39128634
160	0xbe95f815	-0.29290834
161	0x3e8e7c66	0.27829283
162	0x3df1f7ce	0.11814843
163	0xbea837e9	-0.32855156
164	0x3e876142	0.2644139
165	0x3d9bba1d	0.07603858
166	0x3d632e67	0.055464175
167	0xbee03a75	-0.437946
168	0x3ef70110	0.48242998
169	0x3e3bac2b	0.18327396
170	0x3bbf648a	0.0058408426
171	0xbe836d15	-0.2566916
172	0x3e4d3c05	0.20042427
173	0x3deb62ca	0.11493452
174	0xbdc74761	-0.09730411
175	0xbed9512d	-0.42444745
176	0xbd066647	-0.032812383
177	0x3e906e84	0.28209317
178	0x3eeeda82	0.46651083
179	0x3dfc30e6	0.12314014
180	0xbd86e285	-0.06586174
181	0x3dd146ce	0.10218583
182	0xbe351c3b	-0.1768655
183	0x3ecf2dfd	0.40464774
184	0xbdb49af5	-0.08818618
185	0xbd81bc43	-0.06334736
186	0xbe056982	-0.1302853
187	0x3e42413f	0.18970202
188	0xbdadfe5b	-0.0849578
189	0xbe83de99	-0.25755766
190	0x3c894c0a	0.016759891
191	0x3c918adf	0.017766414
192	0x3e061f8d	0.13097973
193	0xbec72b9b	-0.38900456
194	0xbd0b596a	-0.03402082
195	0xbd2d121b	-0.042253595
196	0xbe3f95ea	-0.18709531
197	0xbe79df18	-0.2440151
198	0x3cd2ca0a	0.025731105
199	0xbe3c3f73	-0.18383579
200	0x3e02f2ab	0.12787883
201	0xbe8d694f	-0.27619407
202	0x3ca72e56	0.020407837
203	0x3e39940b	0.1812288
204	0xbcaad8ab	-0.020855268
205	0xbdecd39d	-0.115637995
206	0xbdadf6f3	-0.084943675
207	0xbece9c29	-0.40353516
208	0xbe72ee24	-0.23723656
209	0xbd9c47c0	-0.07630873
210	0x3cceb30d	0.025231862
211	0x3eb3b003	0.35095224
212	0x3e1e6e9c	0.15471882
213	0xbe79ae89	-0.24382986
214	0xbec132be	-0.37734026
215	0xbd6253c8	-0.05525568
216	0xbf05b7b5	-0.5223344
217	0x3e8c3e4d	0.27391282
218	0x3e074a67	0.13211976
219	0xbe2edc0a	-0.17076126
220	0x3e946a36	0.28987283
221	0x3d7d3966	0.061822318
222	0x3e231bc4	0.1592856
223	0x3e61c8e4	0.2204929
224	0xbe02e281	-0.12781717
225	0x3e2eca6f	0.1706941
226	0x3da03898	0.078232944
227	0x3d485a5e	0.048914306
228	0xbe7319b1	-0.23740269
229	0x3ec75889	0.38934734
230	0xbd9851c7	-0.07437473
231	0x3de9f159	0.114229865
232	0xbf0475a4	-0.51742005
233	0xbb869f0c	-0.0041083153
234	0xbdf0f6a3	-0.11765792
235	0x3e80a855	0.25128427
236	0x3c0f1ec8	0.008735366
237	0x3e8de45b	0.27713284
238	0xbdcb4e82	-0.099270836
239	0x3de47e16	0.111568615
240	0xbe8eb46d	-0.2787203
241	0x3e8483b3	0.2588173
242	0xbe540472	-0.20704821
243	0x3ee1183e	0.43963808
244	0x3ecff60c	0.40617406
245	0xbe2b5bba	-0.1673421
246	0x3de14062	0.10998608
247	0x3f302905	0.6881259
248	0x3cc70378	0.024293646
249	0xbd7bc028	-0.06146255
250	0xbe9aa31b	-0.30202565
251	0x3ebb283d	0.36554137
252	0xbde5b129	-0.11215431
253	0xbd7997e0	-0.060935855
254	0x3e47e398	0.19520414
255	0xbe8f495b	-0.27985653

bias f4 [36]
0	0xbe09aeb4	-0.1344555
1	0x3e81fa8a	0.2538646
2	0xbe25484e	-0.16140863
3	0xbd3e490f	-0.046456393
4	0x3ed1b555	0.40958658
5	0x3e42ae35	0.19011767
6	0x3e45dc63	0.19322352
7	0x3d4513e7	0.048114683
8	0x3e9a8bd5	0.30184808
9	0xbe967ab2	-0.29390484
10	0x3d08eacc	0.033427045
11	0xbf0c8a2b	-0.5489833
12	0xbef87062	-0.4852324
13	0xbe0b3f2e	-0.1359832
14	0x3e6c53cd	0.23078842
15	0x3da0cd28	0.078516304
16	0xbeac5608	-0.33659387
17	0xbe34d4db	-0.17659323
18	0x3df5fa4d	0.12010632
19	0x3c819ddc	0.015822344
20	0xbe7feb1b	-0.2499203
21	0xbe11b47a	-0.14229003
22	0xbe41c215	-0.18921693
23	0xbdd920d0	-0.106019616
24	0xbd9488ca	-0.07252653
25	0x3e90aea8	0.28258252
26	0xbe7bd56d	-0.24593134
27	0x3dc78ca5	0.09743623
28	0x3b87ba90	0.004142113
29	0x3e0d93c5	0.13825901
30	0xbb29d4a6	-0.0025914102
31	0xbed6c2b6	-0.41945428
32	0xbc93de51	-0.018050345
33	0xbd92a959	-0.07161207
34	0x3e99fcc5	0.3007566
35	0x3dfaf1d1	0.12253154

weight f4 [36, 36]
0	0xbe80380c	-0.2504276
1	0x3e186539	0.14882363
2	0x3e39a662	0.18129876
3	0x3da5595b	0.08073684
4	0xbc38b163	-0.011272761
5	0xbd8aa48a	-0.067696646
6	0x3e6408f1	0.22269036
7	0x3ec74694	0.38921034
8	0xbe3f1b74	-0.18662816
9	0x3e85715a	0.26063043
10	0xbdf64c3d	-0.1202626
11	0x3eafc810	0.34332323
12	0x3dc309a9	0.09523327
13	0x3e7e019d	0.24805303
14	0x3e06ec71	0.13176133
15	0xbe3fbfc4	-0.18725497
16	0xbdd11e39	-0.10210843
17	0x3e0f9e37	0.14025198
18	0xbe995411	-0.2994695
19	0xbe810e09	-0.2520602
20	0xbe82d57a	-0.25553495
21	0xbdb79965	-0.089648046
22	0x3e462a9d	0.19352193
23	0xbe9bdf83	-0.30443963
24	0x3de35800	0.11100769
25	0xbe131e0b	-0.14366929
26	0x3de5ed27	0.11226874
27	0x3ebff284	0.37489712
28	0xbd65e394	-0.05612524
29	0xbd9f8c38	-0.077904165
30	0xbe37f5de	-0.17964885
31	0xbd991a3b	-0.07475706
32	0xbc5808fe	-0.013185738
33	0xbd48626b	-0.048921984
34	0x3db05e9c	0.08611795
35	0x3e0d86c6	0.13820943
36	0xbe4bf2aa	-0.19916788
37	0x3ea6269e	0.32451338
38	0xbe45b4a2	-0.19307187
39	0x3d2e753d	0.042592276
40	0xbd9a3719	-0.0753004
41	0xbc7dde10	-0.015494838
42	0xbd5199ec	-0.051172182
43	0xbbcc40cb	-0.00623331
44	0x3e961236	0.2931077
45	0x3e855e2c	0.2604841
46	0xbd4be625	-0.04978003
47	0xbe558374	-0.20850927
48	0xbe2721cc	-0.16321486
49	0x3c6ffb8d	0.014647377
50	0x3e2e630a	0.17029968
51	0x3d833ee9	0.064084835
52	0xbd7c0b17	-0.061534014
53	0xbdc4045c	-0.09571144
54	0xbd6ac2db	-0.057314735
55	0x3d63567d	0.055502404
56	0x3d6ecb72	0.05829949
57	0xbe9555f5	-0.29167143
58	0xbdf0f93c	-0.11766288
59	0xbd3b537b	-0.04573391
60	0xbea2fd88	-0.31834054
61	0x3d9914c7	0.07474666
62	0x3dc72424	0.0972369
63	0xbe957027	-0.29187128
64	0xbd97c31f	-0.07410263
65	0x3c0a2749	0.008432218
66	0xbd5dc87a	-0.054146267
67	0xbca73060	-0.02040881
68	0xbe4951b3	-0.19660072
69	0xbe1e9bfd	-0.15489192
70	0x3ddb66c5	0.10712961
71	0x3cd497e9	0.025951343
72	0x3d0a8473	0.03381772
73	0xbe2221e8	-0.15833247
74	0xbca2f84c	-0.019893788
75	0xbc467da3	-0.012114915
76	0x3d9499c6	0.072558925
77	0xbd7ee99f	-0.062234517
78	0x3e2d3ca6	0.16917667
79	0x3cec0f1b	0.028815797
80	0xbd5fe977	-0.05466601
81	0xbe8d799d	-0.27631846
82	0x3e181868	0.1485306
83	0xbe53c27a	-0.20679656
84	0xbd66f766	-0.05638828
85	0x3dadb76f	0.08482253
86	0xbe07f634	-0.13277513
87	0xbe062702	-0.13100818
88	0xbda2cf0b	-0.079496466
89	0xbd7a28d4	-0.061074093
90	0xbb16f48f	-0.0023033952
91	0x3ec65f43	0.38744554
92	0x3e7f58aa	0.24936166
93	0x3dde2c4d	0.108482935
94	0xbec2cdf0	-0.38047743
95	0x3e4bfa9a	0.19919816
96	0x3c2337cc	0.0099620335
97	0x3e23b2b9	0.15986146
98	0xbd85dec8	-0.06536633
99	0xbdf9436d	-0.121710636
100	0x3e9180ee	0.28418678
101	0xbd66a67e	-0.056311123
102	0xbe6de11f	-0.23230408
103	0xbe1840cb	-0.14868467
104	0xbe1c03c0	-0.15235806
105	0xbeab4e74	-0.33458292
106	0x3af1265c	0.0018398273
107	0xbe5028e8	-0.20328104
108	0xbddbade3	-0.10726526
109	0x3ec3ad58	0.38218188
110	0x3db7f017	0.089813404
111	0xbe0d9159	-0.13824977
112	0x3e2507ec	0.16116303
113	0x3ee70c55	0.45126596
114	0x3c7194e1	0.014744968
115	0x3c8fe997	0.017567439
116	0x3eae58fc	0.34052265
117	0x3d580a0d	0.05274396
118	0x3dbc1690	0.09183991
119	0xbeb7be78	-0.35887504
120	0xbea22b21	-0.3167353
121	0xbe5ecc1b	-0.21757548
122	0x3c487bdc	0.012236562
123	0xbdadcf18	-0.084867656
124	0xbd220589	-0.03955606
125	0x3dac3237	0.08408015
126	0x3e3e3efc	0.18578714
127	0x3d255f56	0.040374123
128	0x3d4a5c04	0.04940416
129	0xbe09f87a	-0.13473693
130	0xbeb0c336	-0.34523934
131	0xbc9f77f5	-0.01946638
132	0xbd98a628	-0.07453567
133	0x3dcb34fa	0.09922214
134	0xbe5d1c7a	-0.21592894
135	0xbded0985	-0.11574081
136	0xbdaf2283	-0.085515045
137	0x3ecc1b68	0.3986466
138	0xbe00dc4b	-0.12584035
139	0xbe9ecb5b	-0.31014523
140	0xbeb5bbf7	-0.35494968
141	0xba8d9284	-0.0010801111
142	0x3993e14e	0.0002820589
143	0x3dbe1f90	0.09283364
144	0x3b4868d9	0.0030580072
145	0x3ebb828f	0.36623046
146	0x3d0e8888	0.034798175
147	0xbd7ef8a3	-0.062248837
148	0x3ea70bae	0.32626098
149	0x3e724ee3	0.23662905
150	0x3e06aaae	0.13151047
151	0x3d040576	0.03223177
152	0x3dbe60eb	0.092958294
153	0x3e3b5f28	0.18298018
154	0x3e71f089	0.23626913
155	0xbe64097e	-0.22269246
156	0xbe7a2100	-0.24426651
157	0xbe611389	-0.21980108
158	0xb8ff96b8	-0.00012187421
159	0xbd1dd5e7	-0.03853407
160	0xbe4b7e03	-0.19872288
161	0xbd0a7521	-0.03380311
162	0x3ea9bfd5	0.3315417
163	0x3d582c39	0.05277655
164	0x3dacd3c8	0.084388316
165	0xbe2bcfd8	-0.16778505
166	0xbea0ab27	-0.3138058
167	0x3e060879	0.1308917
168	0x3d35fece	0.044432454
169	0x3e3573a4	0.17719895
170	0xbd81e3d6	-0.063422844
171	0xbe65de38	-0.22448051
172	0x3d3696a1	0.044577245
173	0x3e50feab	0.20409648
174	0x3d660e6f	0.05616611
175	0xbd91c551	-0.07117713
176	0xbe98899b	-0.29792485
177	0xbd7b53d2	-0.061359234
178	0x3d6f376a	0.058402456
179	0xbd338741	-0.04383016
180	0x3c2bdb39	0.0104892785
181	0x3d9d63f1	0.07685078
182	0x3b8840d2	0.004158118
183	0xbe8078e2	-0.25092226
184	0x3e0bea0a	0.13663498
185	0xbd516cfc	-0.051129326
186	0x3df09c37	0.117485456
187	0xbe46e2b2	-0.19422415
188	0xbd3a9300	-0.045550346
189	0xbe802d6c	-0.25034654
190	0x3e6022ad	0.21888228
191	0xbea14f8d	-0.31506005
192	0xbe042c55	-0.12907536
193	0x3d190e4e	0.037367158
194	0xbe5034c6	-0.20332631
195	0x3d7696eb	0.06020252
196	0xbe11cc50	-0.14238095
197	0x3be10704	0.0068672914
198	0x3d3993e1	0.045307044
199	0x3dbef77d	0.093245484
200	0xbd1c2c5c	-0.038128242
201	0xbe1002ba	-0.1406354
202	0xbe2e991a	-0.17050591
203	0x3e713579	0.23555554
204	0xbe1a3178	-0.15057933
205	0x3d9aed26	0.07564764
206	0xbdc19160	-0.09451556
207	0xbe280337	-0.16407476
208	0x3d7e2de1	0.062055472
209	0xbd8f400a	-0.06994636
210	0xbddc3300	-0.10751915
211	0xbe31ef63	-0.17376475
212	0xbe1b2693	-0.15151434
213	0xbe436f2a	-0.19085374
214	0x3e19d0e1	0.15021087
215	0x3e132f2a	0.1437346
216	0x3b4aad9c	0.0030926233
217	0x3e14b836	0.14523396
218	0x3e347edb	0.17626517
219	0x3d806bd8	0.062705696
220	0x3e2130af	0.15741228
221	0xbc6c8aa5	-0.014437352
222	0x3c36b7db	0.011152233
223	0xbd9e288c	-0.077225775
224	0x3d723ec9	0.059141908
225	0x3df2627f	0.11835193
226	0x3a557806	0.000814319
227	0xbeb76ea7	-0.3582661
228	0xbe6daec3	-0.23211198
229	0xbbb12d2f	-0.0054069976
230	0x3dc96705	0.098341025
231	0xbd149cc0	-0.0362823
232	0x3da1e64f	0.07905256
233	0xbd062c8f	-0.032757338
234	0x3d593393	0.0530277
235	0x3c98e979	0.018666016
236	0xbe22ad33	-0.15886383
237	0x3d995e74	0.07488719
238	0xbed3cb3e	-0.41366
239	0x3e5b73d5	0.21430905
240	0xbd490a8f	-0.049082335
241	0xbe1ad518	-0.15120351
242	0x3d9b4c69	0.075829335
243	0xbe0986af	-0.13430284
244	0xbe2d5933	-0.16928558
245	0xbd3644c0	-0.04449916
246	0xbe3c2250	-0.18372464
247	0x3d0cf0d1	0.034409348
248	0xbe57c31e	-0.21070525
249	0x3c98a954	0.01863543
250	0x3e5271f0	0.20551276
251	0x39e6a9fb	0.00043995664
252	0x3dbce9c6	0.09224276
253	0xbe45298e	-0.19254133
254	0xbe8e0f5b	-0.2774609
255	0x3ec74308	0.38918328

bias f4 [36]
0	0x3e197080	0.14984322
1	0x3d3806d2	0.04492838
2	0x3d44a3f7	0.04800793
3	0x3d85605e	0.06512521
4	0xbcec6401	-0.02885628
5	0x3e5702b9	0.20997132
6	0x3e08d484	0.13362318
7	0xbbbff6be	-0.0058582714
8	0x3d869b57	0.065725975
9	0x3db6b193	0.08920588
10	0xbd7c7cc5	-0.061642427
11	0x3e253a70	0.16135573
12	0x3d185a63	0.037195574
13	0xbd46b16f	-0.048509058
14	0xbc858d72	-0.016302798
15	0xbce10ee7	-0.027472926
16	0xbd7cd03a	-0.061722018
17	0x3dec115d	0.11526749
18	0xbd45d5c6	-0.048299573
19	0xbe0c6cc6	-0.13713369
20	0x3db17a57	0.086659126
21	0x3e2f0c2d	0.17094488
22	0x3d3b58c5	0.045738954
23	0xbdf68282	-0.12036611
24	0x3da8784f	0.08226072
25	0xbd8c1d6e	-0.06841551
26	0x3e23b448	0.1598674
27	0x3e2c3f35	0.16820987
28	0xbe29ab1f	-0.16569184
29	0xbd829f08	-0.06377989
30	0xbe05a3b7	-0.13050734
31	0x3d91ad23	0.07113101
32	0x3dba7439	0.09104199
33	0xbc7a0fa9	-0.015262523
34	0xbd376a6a	-0.04477922
35	0x3df3897b	0.11891457

weight f4 [36, 36]
0	0xbea233e5	-0.31680217
1	0x3e3f6f53	0.1869481
2	0x3e8b66f2	0.2722698
3	0x3e2b4771	0.16726471
4	0x3e9c8540	0.30570412
5	0x3e14a22f	0.14514993
6	0x3e549cd4	0.2076295
7	0xbe3f37c6	-0.1867362
8	0xbe4964da	-0.19667378
9	0xbd122216	-0.035677038
10	0x3e872044	0.26391804
11	0xbe28cddd	-0.1648478
12	0xbe49a0ba	-0.19690219
13	0xbe2fb62d	-0.17159338
14	0x3e4e0de7	0.20122491
15	0xbe6adb5c	-0.22935241
16	0xbea4c1a0	-0.32178974
17	0xbe13bfa4	-0.14428574
18	0xbe06addd	-0.13152261
19	0xbe055dc4	-0.1302405
20	0xbeeebf1c	-0.4663018
21	0x3e93b507	0.2884905
22	0x3c3728fd	0.011179206
23	0xbda43fab	-0.08019956
24	0x3ea9c66e	0.33159202
25	0xbe0c7209	-0.13715376
26	0x3dbe8eec	0.09304604
27	0xbe94a59c	-0.290326
28	0xbf0942ac	-0.5361736
29	0xbd46316e	-0.048386984
30	0xbe7de19c	-0.24793094
31	0xbdb927f3	-0.09040823
32	0x3e8be498	0.2732284
33	0x3d4725d5	0.048620064
34	0xbeb9cbbd	-0.36288252
35	0xbee0e52c	-0.43924844
36	0x3ef9ec97	0.48813316
37	0xbe7a1826	-0.24423274
38	0xbce5ae1e	-0.028037127
39	0x3d0bd805	0.03414156
40	0x3dda7942	0.10667659
41	0xbdb706ff	-0.08936881
42	0x3d5f3482	0.054493435
43	0x3e59953c	0.21248335
44	0x3efcf14f	0.49402854
45	0x3dd3c656	0.10340564
46	0x3e57620c	0.21033496
47	0x3ea437ea	0.3207391
48	0x3ef4846b	0.47757277
49	0x3ea9a265	0.3313171
50	0xbed86326	-0.42263144
51	0x3df9ff69	0.12206919
52	0xbe64eebc	-0.22356695
53	0x3e2d09a8	0.16898215
54	0x3e31fc3c	0.17381376
55	0x3ea7716e	0.32703727
56	0x3ee11868	0.43963933
57	0x3da14168	0.078738034
58	0xbdc2b806	-0.09507756
59	0x3e8af9b7	0.27143642
60	0x3de87499	0.11350364
61	0x3e5bcf7c	0.21465868
62	0x3d085553	0.033284497
63	0x3ea12235	0.3147141
64	0x3ec27de8	0.37986684
65	0xbef3225c	-0.47487152
66	0x3ea1c425	0.3159496
67	0x3e5076fc	0.20357889
68	0xbdbe1a72	-0.09282388
69	0xbe273c76	-0.16331658
70	0x3e172ca8	0.14763129
71	0x3ea4b1a9	0.32166794
72	0xbb38dec7	-0.0028208958
73	0x3e269d2e	0.16270897
74	0x3db075b9	0.08616204
75	0x3e155b6c	0.14585656
76	0x3e0807d9	0.13284244
77	0x3e127b2e	0.14304802
78	0xbded8910	-0.11598408
79	0x3c540852	0.012941437
80	0xbd8da7a4	-0.069167405
81	0xbd8a76df	-0.06760954
82	0x3ea3cf87	0.31994268
83	0xbd1f91cb	-0.0389574
84	0x3d8a6be3	0.06758859
85	0xbd8b474e	-0.0680071
86	0x3dcd832a	0.10034783
87	0xbe12314b	-0.14276616
88	0xbeeec53d	-0.46634856
89	0xbe96fa97	-0.2948806
90	0x3cb02f15	0.021506825
91	0xbdbb259e	-0.09138034
92	0xbf02aa43	-0.5104105
93	0x3ecdb5d2	0.4017778
94	0x3e5ff507	0.21870814
95	0x3cebfac5	0.0288061
96	0x3e12c196	0.1433166
97	0xbe6cdd8a	-0.23131385
98	0x3dfb37cd	0.122665025
99	0xbe8cb990	-0.27485323
100	0xbeac29a3	-0.33625516
101	0xbbd253a9	-0.0064186645
102	0xbe8bc815	-0.27301088
103	0xbde9cf65	-0.114165105
104	0x3ea1af09	0.31578854
105	0x3d656358	0.056002945
106	0xbe3f9405	-0.18708809
107	0xbec25322	-0.3795405
108	0xbe69f3c8	-0.22846901
109	0x3dd5286c	0.104081005
110	0x3e50165b	0.20321028
111	0xbe1491e7	-0.14508782
112	0xbe170b4b	-0.14750402
113	0x3e1fba02	0.155983
114	0xbcc23480	-0.023706675
115	0xbe1a4da9	-0.15068687
116	0xbeeada19	-0.4586952
117	0xbe361b29	-0.17783798
118	0xbea1d9d6	-0.31611508
119	0xbeed7b88	-0.4638331
120	0xbe88a393	-0.26687297
121	0xbebeae57	-0.37242386
122	0x3ec0d87d	0.37665167
123	0xbe8c3011	-0.27380422
124	0x3e8617c6	0.26190013
125	0xbe9da8a4	-0.30792725
126	0xbe6a8931	-0.22903897
127	0xbe1ed3c0	-0.15510464
128	0xbe981ce0	-0.2970953
129	0xbe332351	-0.17493941
130	0x3cb22de4	0.021750398
131	0xbe2b57f9	-0.16732778
132	0x3dc94629	0.09827835
133	0xbe741cef	-0.23839162
134	0xbe0d24e7	-0.13783608
135	0xbebe4c65	-0.3716766
136	0xbe2cd16b	-0.16876762
137	0x3ea90825	0.33014026
138	0xbec9198b	-0.392773
139	0xbe37f56e	-0.17964718
140	0xbdb40854	-0.08790651
141	0x3e16b082	0.1471577
142	0xbe734c12	-0.23759487
143	0xbee4c809	-0.44683865
144	0xbd1efe95	-0.038817007
145	0x3e8d12fa	0.2755354
146	0xbd89bc26	-0.067253396
147	0x3e787d03	0.24266438
148	0x3e1d1a78	0.15342128
149	0x3e3b67c0	0.18301296
150	0xbde27ec5	-0.110593356
151	0x3aa8537d	0.0012842264
152	0x3e856200	0.2605133
153	0x3ec95f79	0.39330652
154	0x3f281019	0.65649563
155	0x3ed0d3b6	0.40786523
156	0x3e9562b0	0.29176855
157	0x3e2278de	0.1586642
158	0xbd3ee65d	-0.04660641
159	0x3e658637	0.2241448
160	0xbed60489	-0.41800335
161	0x3daedd45	0.085382976
162	0x3dcbe81a	0.09956379
163	0x3e83b0c3	0.25720796
164	0x3d602ff5	0.054733235
165	0x3f128477	0.57233375
166	0x3e5bba56	0.214578
167	0x3e9137bd	0.28362837
168	0x3e37f7b3	0.17965584
169	0xbc895f59	-0.016769098
170	0x3e313565	0.17305525
171	0x3ca87a8a	0.020566244
172	0xbe8131b4	-0.25233233
173	0xbe8a81ca	-0.27052146
174	0x3e3e8b68	0.18607867
175	0x3e75e7a0	0.24014139
176	0x3e21352f	0.15742944
177	0x3cc89c50	0.024488598
178	0xbdcbafe2	-0.09945656
179	0x3e032626	0.12807521
180	0xbe8cf2bc	-0.27528942
181	0x3d87db7b	0.066336595
182	0x3e1d5881	0.15365793
183	0x3c78aaca	0.015177438
184	0x3ea7a87a	0.32745725
185	0x3e329f7c	0.17443651
186	0x3eaaca2c	0.3335737
187	0xbe46e1f3	-0.1942213
188	0xbe91cf9d	-0.2847871
189	0x3aa7d3e1	0.0012804234
190	0xbd268d20	-0.04066193
191	0xbec6c010	-0.38818407
192	0xbe9736b7	-0.29533932
193	0xbea51746	-0.3224432
194	0x3e24b79c	0.16085666
195	0xbc6c58b7	-0.014425448
196	0xbdc0bf10	-0.09411442
197	0xbead8ce5	-0.33896556
198	0xbe2aebe8	-0.16691554
199	0xbeac7761	-0.3368483
200	0xbf1a5961	-0.6029263
201	0x3e5469a8	0.2074343
202	0x3e778175	0.24170478
203	0xbe1c3230	-0.1525352
204	0x3e3f3af8	0.18674839
205	0xbe961157	-0.29310104
206	0x3e730729	0.237332
207	0xbef2adf4	-0.4739834
208	0xbecfe50c	-0.40604436
209	0x3e6a4759	0.2287878
210	0xbe651e07	-0.22374736
211	0xbd432db2	-0.047651
212	0x3e86eb00	0.26351166
213	0x3e8062b3	0.25075302
214	0xbe4f6ea7	-0.20257054
215	0xbed6613c	-0.4187106
216	0x3da5a3ec	0.08087906
217	0xbea608d1	-0.324286
218	0xbe163345	-0.14667995
219	0xbebfee18	-0.3748634
220	0xbe2907a9	-0.16506828
221	0xbdfbf19e	-0.12301944
222	0x3ca01f4a	0.01954617
223	0x3e525ca5	0.20543154
224	0x3d8a9612	0.06766905
225	0x3c048fc8	0.008090921
226	0xbea81217	-0.328263
227	0x3dd04d22	0.10170962
228	0xbc3ee6a6	-0.011651671
229	0x3dab6ddc	0.083705634
230	0x3dc4ad35	0.09603349
231	0xbd4cff3b	-0.050048094
232	0x3efa26b0	0.4885764
233	0x3e54e85c	0.20791763
234	0xbd180359	-0.037112568
235	0x3e38951f	0.18025635
236	0x3e7cece8	0.24699748
237	0xbe864fae	-0.26232666
238	0xbd8c3de7	-0.068477444
239	0xbcbb6867	-0.022876931
240	0xbecee8ba	-0.4041193
241	0x3e11bf93	0.14233236
242	0xbd8475da	-0.06467791
243	0x3f0bc50c	0.54597545
244	0x3e9db565	0.30802456
245	0x3dca3c1d	0.09874747
246	0xbb0c2e9d	-0.0021390088
247	0x3cb9263b	0.022601238
248	0xbe372e0d	-0.1788866
249	0xbe082609	-0.1329576
250	0x3ec6777b	0.3876303
251	0x3ee5fd38	0.44919753
252	0xbec3eb8a	-0.3826564
253	0x3dc0507b	0.093903504
254	0x3e969d79	0.29417017
255	0xbe82f6ff	-0.25579068

bias f4 [36]
0	0x3c2adf6d	0.010429245
1	0x3d83ecb5	0.06441633
2	0xbe2602eb	-0.1621205
3	0xbe3b1f80	-0.18273735
4	0x3d99f61c	0.07517645
5	0xbc320e62	-0.010867687
6	0x3d9b75f7	0.075908594
7	0x3cb6c862	0.022312347
8	0x3e133451	0.14375426
9	0xbde70acd	-0.11281357
10	0x3e10016e	0.14063045
11	0x3d5f463b	0.054510336
12	0x3dd0391e	0.10167144
13	0x3d87d175	0.06631748
14	0x3ddfdd9c	0.109309405
15	0x3ae2fc47	0.0017317616
16	0x3dc2e04e	0.09515439
17	0xbdfd604c	-0.12371883
18	0xbdabf2bd	-0.08395908
19	0x3d079c74	0.03310819
20	0x3d165e95	0.036711294
21	0x3df59595	0.11991421
22	0x3e00937e	0.12556264
23	0xbd3ce9d9	-0.046121452
24	0x3c34954b	0.011021922
25	0xbe012006	-0.12609872
26	0x3db1df4f	0.08685171
27	0x3d8bbba4	0.06822899
28	0xbda43e4a	-0.08019693
29	0x3da63079	0.08114714
30	0xbda45973	-0.080248736
31	0xbdb71cd8	-0.089410484
32	0xbc37429f	-0.011185317
33	0x3be11ef6	0.006870146
34	0xbd0ba8f9	-0.03409669
35	0x3c336a8b	0.010950695

weight f4 [3, 36]
0	0xbe8ec87f	-0.2788734
1	0x3e7873eb	0.24262969
2	0xbda94255	-0.08264605
3	0xbe5205c6	-0.20510015
4	0x3d80fa39	0.06297726
5	0xbe115e6a	-0.14196172
6	0x3d82890e	0.06373797
7	0xbe7b0b9c	-0.24516147
8	0x3e88b5b3	0.26701126
9	0xbe746cf5	-0.23869689
10	0x3e87dacc	0.26534116
11	0xbe908f40	-0.2823429
12	0x3ea90a18	0.33015513
13	0x3ea000a3	0.31250486
14	0x3e765bb4	0.2405842
15	0xbe540531	-0.20705105
16	0x3ed781c9	0.42091206
17	0x3e812dce	0.2523026
18	0x3ed0e31a	0.40798265
19	0xbdb0fa99	-0.08641548
20	0xbdb3e098	-0.08783072
21	0x3ecfc9f5	0.40583768
22	0x3c42443f	0.011857091
23	0x3ec50f2d	0.3848814
24	0xbe175643	-0.14779
25	0x3eb2a1ac	0.3488897
26	0x3ebf848f	0.37405822
27	0xbe85b8af	-0.26117465
28	0x3ec627a0	0.38702106
29	0x3e8e6c47	0.27816984
30	0xbc94b719	-0.018153714
31	0x3eb730fe	0.35779566
32	0x3d438bbd	0.047740687
33	0x3ebe0cf9	0.37119272
34	0xbe1811e3	-0.14850573
35	0xbe9225d8	-0.28544497
36	0xbc357725	-0.01107577
37	0xbe623061	-0.22088768
38	0xbcf2ba54	-0.029629864
39	0x3e598a39	0.21244134
40	0xbe95132b	-0.29116186
41	0x3e004f11	0.12530161
42	0x3e046957	0.12930809
43	0x3e3f1c65	0.18663175
44	0xbe0e6e26	-0.13909206
45	0x3e5f0e14	0.21782714
46	0xbe23c100	-0.15991592
47	0xbd67616d	-0.056489397
48	0x3cdb9240	0.026803136
49	0xbe5a1790	-0.21298051
50	0xbd3f50de	-0.04670798
51	0x3e08dca3	0.13365416
52	0x3d1160f7	0.035492864
53	0xbe9467fa	-0.28985578
54	0x3d04e3d0	0.03244382
55	0xbe26fcb2	-0.16307333
56	0x3e5fb65b	0.21846907
57	0x3cafc880	0.02145791
58	0xbe7b218b	-0.24524514
59	0xbe6ab9c8	-0.22922432
60	0xbd4071fa	-0.046983697
61	0xbe8a1c7c	-0.26974857
62	0xbe021036	-0.12701496
63	0xbe4f8930	-0.20267177
64	0xbdfdd15c	-0.12393448
65	0xbe1b6637	-0.1517571
66	0xbe347dd9	-0.17626132
67	0xbea27e9f	-0.3173723
68	0xbe718347	-0.23585235
69	0xbe0270cd	-0.12738343
70	0x3d917aad	0.07103477
71	0x3d8fe3d0	0.07025874
72	0x3e9535ad	0.29142514
73	0x3d5df0e7	0.05418482
74	0x3e8746fd	0.26421347
75	0xbd84196f	-0.064501636
76	0x3e8a2d66	0.2698776
77	0x3e2c5587	0.16829501
78	0xbe8786a8	-0.26469922
79	0xbd61d0eb	-0.05513088
80	0xbe7610df	-0.24029873
81	0xbe375c22	-0.1790624
82	0x3e0feb8c	0.14054698
83	0x3ccb3e0c	0.02480986
84	0xbe24bf74	-0.16088659
85	0xbd5423b1	-0.05179185
86	0xbeb19ac3	-0.34688386
87	0x3df5b439	0.11997265
88	0xbeaeba38	-0.3412645
89	0xbe701a1a	-0.23447457
90	0xbe97ba2a	-0.2963422
91	0x3e9fdd5f	0.3122358
92	0xbe84b8d7	-0.25922272
93	0xbe9a0897	-0.3008468
94	0x3e382a97	0.17984997
95	0xbe18a35a	-0.14906064
96	0x3e963e33	0.2934433
97	0xbe128af4	-0.14310819
98	0xbc792109	-0.01520563
99	0x3e7cceef	0.24688314
100	0xbe418cbe	-0.18901345
101	0xbac480bd	-0.001499198
102	0x3dbeba2c	0.09312853
103	0xbdddbd75	-0.10827152
104	0x3e7a39b1	0.2443607
105	0xbe07a9ed	-0.13248415
106	0x3e956da5	0.29185215
107	0x3dc11768	0.094282925

bias f4 [3]
0	0xbda4ff41	-0.08056498
1	0x3bf9e314	0.007625947
2	0xbd781af1	-0.06057257
