data/NN_trained_models/trained_net_6691.tar (torch_old, 7063 bytes, 6 tensors)

weight f4 [6, 12]
000000 b8 93 36 3e 32 39 1c 40 ee c5 0e 41 47 ba 24 c0
       0.17829788 2.440991 8.923323 -2.5738695
000010 b9 81 01 c0 c8 c3 c4 bf 07 35 bf 3f d2 bc 92 c0
       -2.0235426 -1.5372248 1.4938058 -4.5855494
000020 14 fb 2b 40 21 03 3c 3f d5 0a 42 3f 7d ca 06 41
       2.6871996 0.73442274 0.7579778 8.424436
000030 59 73 34 c0 89 ed 12 c1 9d d2 0e 40 cd 75 63 40
       -2.8195403 -9.182992 2.2316048 3.554065
000040 a6 b9 c8 3f 58 ae 3e 3f c7 7d 19 3e e4 ac a3 40
       1.5681655 0.7448478 0.14989386 5.114855
000050 5e 3f 82 c0 f8 8e 06 40 48 bf 99 c0 ea 07 be 3f
       -4.0702353 2.1024761 -4.8046 1.4846165
000060 5e b1 0c 40 a5 37 56 3f ef d5 6d 3f 98 0e 6c 40
       2.1983256 0.83678657 0.9290456 3.6883907
000070 fd ca 17 c0 a2 11 38 40 fe de 50 40 89 11 48 bf
       -2.3717644 2.8760762 3.2636104 -0.78151757
000080 2f de 3e 40 c6 8e 68 bf 1e 47 0c 3f 0d 73 42 41
       2.982311 -0.90842855 0.54796016 12.153089
000090 49 b5 a5 40 c7 36 33 c1 57 67 93 bf d0 12 a6 be
       5.1783795 -11.200873 -1.1515912 -0.32436228
0000a0 1a fd d1 bf fd 29 8f 40 5d 0b aa 40 d7 c1 fe c0
       -1.6405365 4.4738755 5.313887 -7.961162
0000b0 93 b8 0d c0 61 4d 18 bf f4 29 74 bf b2 e7 95 40
       -2.2143905 -0.5949307 -0.95376515 4.684533
0000c0 a8 60 87 40 e0 0d 09 41 48 64 ec 3f d8 78 ed c0
       4.230549 8.565887 1.8468103 -7.4210014
0000d0 ca f9 93 3f c9 83 a6 bf cf 6b 59 c0 5b 3b eb bc
       1.1560605 -1.3008968 -3.397205 -0.028714826
0000e0 c5 2c d9 3f 89 dc bb 40 15 de 55 c0 6d 67 e8 bf
       1.6966788 5.870671 -3.3416798 -1.8156563
0000f0 9f 64 c8 bf 02 ec a5 c0 8d bc 35 c0 73 04 0a c1
       -1.5655707 -5.1850595 -2.8396332 -8.626086
000100 2a 7c 22 c0 ed 5f 41 c0 47 31 a8 40 cb 77 83 40
       -2.5388284 -3.0214798 5.2560153 4.108373
000110 43 78 d2 bf a1 0b ce c0 64 29 4c bf e5 f5 5a bf
       -1.6442951 -6.4389195 -0.7975066 -0.85531455

bias f4 [6]
000000 e3 a7 65 3f 5e dc a1 40 a6 e8 c8 40 ef 79 fd bf
       0.897093 5.0581503 6.2783995 -1.9802836
000010 c4 b9 0d bf f3 88 03 c0
       -0.5536158 -2.0552337

weight f4 [6, 6]
000000 a6 80 36 3f ea 59 69 3f 6d c8 f0 3f 75 45 b9 3f
       0.7129005 0.9115282 1.8811165 1.4474322
000010 3b c3 00 c0 e5 e9 5a 40 04 38 3e 40 b8 fb b1 be
       -2.011916 3.4205258 2.972169 -0.3476236
000020 62 29 a7 3f 5a fd 90 c0 e8 e6 77 c0 79 63 d7 bf
       1.3059504 -4.5309267 -3.8734684 -1.6827232
000030 2c e3 1a bf 4f 6a 11 bf 3c 32 6c c0 9c 9d 4d 40
       -0.60502887 -0.5680284 -3.690566 3.2127447
000040 1d 44 22 40 e6 da a9 3f fc c6 68 3e eb aa 36 c0
       2.5354073 1.3269928 0.22732157 -2.854182
000050 38 6c 48 bd 49 18 c2 3f c0 67 a4 3e b4 45 91 3f
       -0.04893133 1.5163661 0.32110405 1.1349397
000060 5a 19 fe bf ff 27 12 40 f6 00 1b 40 d7 c5 82 c0
       -1.9851487 2.2836912 2.4219337 -4.0866504
000070 aa 01 ca be ac 9c 65 bf 25 f8 03 40 3e d5 3a c0
       -0.39454395 -0.8969219 2.0620205 -2.9192653
000080 78 26 6d c0 68 c5 3d 40 16 0e 1a c0 de 73 1a 40
       -3.705473 2.9651737 -2.4071097 2.413322

bias f4 [6]
000000 c8 d0 9b bf c7 1b a5 bf 5d 89 b4 bf af 6e 7d c0
       -1.217309 -1.2899102 -1.410442 -3.9598806
000010 84 a9 49 bf 4f ae 0a c0
       -0.78774285 -2.166889

weight f4 [3, 6]
000000 42 bc fe 3e 74 ff f0 bf 72 39 24 be 3e bb 5f 3f
       0.49753004 -1.8827958 -0.16037539 0.87395084
000010 fb 0b a1 3f d0 d7 20 3f 92 32 11 c0 69 40 04 3f
       1.2581781 0.62829304 -2.2687116 0.5166078
000020 24 4e 0d c0 b0 90 e1 bf 99 38 ad bf 58 f8 27 3f
       -2.2078943 -1.762228 -1.3532897 0.6561332
000030 47 47 8d bd f3 3e 80 3f d2 52 70 3f 1d ff 98 3e
       -0.06898361 1.001921 0.93876374 0.29882136
000040 cb 8e f0 be 45 93 f9 bf
       -0.46983942 -1.9498068

bias f4 [3]
000000 90 16 c9 3f 7c b3 3e c0 13 2a e4 3e
       1.571001 -2.9797049 0.4456335
