data/NN_trained_models/trained_net_15094.tar (torch_old, 10179 bytes, 10 tensors)

weight f4 [12, 12]
00000000: 720e 0941 61d8 3dc0 0c14 5141 cc4a 0ec0
00000010: 5cb7 1340 eccf dac0 462d e73e 6f47 ecbf
00000020: f374 8d40 c524 7f40 7d81 5cc0 5736 7a40
00000030: ce1f a740 d007 9240 825a 2041 77eb ff40
00000040: ccd3 0441 eedd a540 e0c2 893f 1abb 9ac0
00000050: 74c1 ac40 c56e 8240 c415 09c1 320e dd40
00000060: be0b 3cc0 483e 353f 59b3 9bc0 d368 0dbf
00000070: 4a8e 633d 7198 4440 a909 3141 3adc 5e40
00000080: 2f5b c240 ebff 50c0 5415 3440 3bc8 a93e
00000090: cc9c 5a40 6dc9 303f b545 30c1 a3ee 4dc0
000000a0: 20d3 14bf 1406 f4bf 5675 53be 7013 4d3f
000000b0: 6ff0 3ac1 a2f7 32c0 2564 2b3f ed45 6cc1
000000c0: 75f0 b040 13e4 c440 f02b f240 2e83 3f40
000000d0: eebc 0041 7752 a8c0 5128 0041 aaa7 70c0
000000e0: 5dc4 1341 ba97 323f 7865 793e 1fef 3141
000000f0: 331e 19c1 5920 8bc0 b8a8 0cc0 2664 36c0
00000100: bcfc 0941 0855 f240 828d fb40 68dc 2940
00000110: 4dd9 1b41 83cc 0340 c351 21c0 03ef 5e40
00000120: 6060 3440 4274 5540 c6e3 fd3e 8a54 b7c0
00000130: a06c 3441 ae04 1541 4f65 bac0 4ad3 5fc0
00000140: be80 ed40 a8fd f840 b91d e340 3f44 6440
00000150: 5fe7 753e f73e 3841 90c4 c83d ce55 9340
00000160: c680 6b3f 08e3 0841 6b3e dc40 2274 8240
00000170: b2a8 013e 70b9 a9bf 5498 34c1 f738 1740
00000180: a3fd ad40 690b 66c1 9219 d93f 3117 2540
00000190: c9d1 cebf 14b5 323f 41ab 3140 e389 b0bf
000001a0: 8092 b1c0 565b 4bc0 9017 81c0 f74d 2140
000001b0: 3d97 0141 c2e1 8c40 e868 0840 fce3 89c0
000001c0: 4a39 09c0 a022 3ec0 e869 8e40 83dc 2fc1
000001d0: da2b 0341 985b dc40 956e c740 2c8a 0441
000001e0: 7229 17c0 d459 90c0 c196 0ac1 4fde 80c1
000001f0: 844b 02c1 e80a b340 b5b5 a7c0 5dad 92bd
00000200: ac20 6c40 18a5 89bf 0bf6 0cc1 f1d9 cabf
00000210: 1db4 ff40 25ec 63bf af9a a3c0 d477 79bd
00000220: 28f1 4ac0 8de5 5fbf 031b e53f 9a6d 5840
00000230: 845d 8ec0 fa27 94c0 149d 17c1 10db c7c0
8.566027 -2.9663317 13.067394 -2.2233152 2.3080664 -6.837881 0.45151728 -1.84593
4.420526 3.9866192 -3.4454033 3.9095666 5.2226324 4.5634537 10.022097 7.9974933
8.301708 5.183341 1.0762596 -4.8353395 5.398615 4.0760217 -8.567814 6.907983
-2.9382167 0.7079816 -4.865643 -0.55238074 0.05555562 3.0718043 11.064858 3.4821916
6.073631 -3.26562 2.8138018 0.33160576 3.4158201 0.6905735 -11.017018 -3.2176902
-0.5813465 -1.9064355 -0.20650229 0.80107784 -11.6837 -2.7963643 0.66949683 -14.767072
5.5293527 6.152841 7.5678635 2.9923816 8.046125 -5.2600665 8.009843 -3.7602334
9.23544 0.69762766 0.24355114 11.120879 -9.569873 -4.3476987 -2.1977978 -2.8498626
8.624203 7.57288 7.861024 2.6540775 9.740552 2.0593574 -2.5206153 3.483338
2.8183823 3.3352208 0.4958784 -5.7290697 11.27652 9.3136425 -5.824867 -3.497271
7.4219656 7.780964 7.0973783 3.5666654 0.24014042 11.515372 0.09803116 4.604224
0.9199337 8.555428 6.8826194 4.0766764 0.12662008 -1.3259716 -11.2871895 2.3628519
5.4372115 -14.377786 1.6960928 2.5795405 -1.6157771 0.69807553 2.7760775 -1.379208
-5.5491333 -3.1774497 -4.0341263 2.5203836 8.099423 4.4025583 2.131403 -4.30908
-2.1441216 -2.9708633 4.450428 -10.991336 8.198206 6.886181 6.232249 8.283733
-2.3619046 -4.5109653 -8.661805 -16.10855 -8.143436 5.5950813 -5.240931 -0.07161973
3.6894941 -1.0753508 -8.810069 -1.584776 7.9907365 -0.890322 -5.1126323 -0.060905293
-3.170969 -0.8745964 1.7898868 3.3816895 -4.4489155 -4.62988 -9.475849 -6.245491

bias f4 [12]
00000000: 4ae9 4640 fbbb 36c0 7121 03c1 df59 2941
00000010: 9c6b 0e40 2826 bdc0 7991 e5bf b879 be3f
00000020: d964 9dc0 e93c 6640 4044 bec0 7992 6e41
3.1079888 -2.8552234 -8.195664 10.584441 2.225318 -5.9109077 -1.793502 1.4880896
-4.9185605 3.5974677 -5.9458313 14.91076

weight f4 [12, 12]
00000000: 7a73 8ec0 985b e740 8e00 9c3f b308 2440
00000010: ae4b e440 3693 91c0 0002 023f 9579 8b40
00000020: b194 fe40 5ab3 40c0 2d89 e540 f55c ccbd
00000030: 7e2f 09c0 aa98 1d40 9c0a 89c0 a8a3 3a41
00000040: 507c 02c1 fdbb 14c0 837e 16c1 4c8b f33f
00000050: a6ef e640 c7a8 1cc0 a4ed 4f40 dd40 9940
00000060: 23ca b03f ac5d 8140 3b82 98bf 80f0 cac0
00000070: aaea 8240 f301 0cc0 0059 6741 0c81 0cc0
00000080: cca6 fec0 587a 5741 92a4 acc0 9591 f3c0
00000090: bc61 0141 2245 eabc 2d05 ed40 8b02 0dc1
000000a0: 246d db40 f43b f73f 7c41 1440 e367 27bf
000000b0: 151e 88c0 3d29 8bbf 0775 72c1 d2a9 d6c0
000000c0: bfee 3cc0 667b bec0 6755 98c0 0811 5c40
000000d0: d4b3 05c1 3c7d 42c0 745f 27be edce 76c0
000000e0: cc44 e4bf e929 8b40 eac3 c940 b243 313f
000000f0: 44c8 1340 c2be fdc0 742b 14c0 0301 5d40
00000100: 0b85 f5bf 2c28 8ec0 e061 bebf 8360 31c0
00000110: 6a4d edbf 065a 8640 f57e 0540 4cb5 f0be
00000120: 6284 acc0 5147 3cbf 88bb 983d b9b1 9f40
00000130: eb8d e6c0 aca6 3ebf 1b81 4bc0 d199 d33e
00000140: 2cd2 9b3f 3685 0ac0 7492 e640 b2ba 513f
00000150: c199 e4bf 89c9 0f41 7e11 d13f 1937 2341
00000160: 6391 2a40 11c4 f740 a0e8 ddc0 8232 4a41
00000170: aced 3440 3581 32c1 d213 8041 f7ce a040
00000180: 02b1 91c0 263d 85bf a789 8740 c555 7f40
00000190: 3c01 a6c0 c360 3641 76ed 8540 86f3 08c0
000001a0: 2dbf 2ac1 e252 2940 e5c8 3841 ace4 86bf
000001b0: db6c 2ac0 a3bd 89c0 8874 94c0 11e7 1541
000001c0: a5fd 09c1 8817 16c0 6a9f 70c0 d29b b7bf
000001d0: 634d 0b3f 6e58 873f ac55 1841 ea0f fb40
000001e0: de35 05c1 fe23 3cc0 2669 3cc1 6c5a 4241
000001f0: 0a24 31c1 973f 00c1 fd80 00c1 0622 f9c0
00000200: 87da 0d41 76f9 aabf 1985 6940 b7be 8441
00000210: 2d24 b5bf 5e94 7dc0 fe3a 7a40 d3c1 ca40
00000220: e8c4 ed40 f32e 2740 a0dd a43f 66a3 5840
00000230: 8704 0ac0 8b3f a0c0 1e97 fa40 c37c 0a41
-4.4515963 7.229931 1.2187669 2.563031 7.1342382 -4.54922 0.507843 4.3585916
7.955651 -3.0109468 7.172995 -0.09978668 -2.1435237 2.4624429 -4.282545 11.664955
-8.15535 -2.323974 -9.405887 1.9026885 7.216754 -2.4478014 3.2488794 4.789168
1.3811687 4.0426846 -1.1914743 -6.341858 4.0911455 -2.187619 14.4592285 -2.1953764
-7.957861 13.467369 -5.395089 -7.6115212 8.086361 -0.028597418 7.406882 -8.813121
6.857073 1.9315171 2.3164968 -0.65392894 -4.253672 -1.087196 -15.153571 -6.70823
-2.952072 -5.9525633 -4.760425 3.4385395 -8.356403 -3.0388937 -0.16345006 -3.8563797
-1.7833495 4.348866 6.3051653 0.6924392 2.3090982 -7.929536 -2.3151522 3.4531868
-1.9181226 -4.442404 -1.4873619 -2.7715156 -1.853925 4.198489 2.0858738 -0.4701332
-5.39116 -0.7354632 0.07457644 4.9904447 -7.204824 -0.7447307 -3.179755 0.4132829
1.2173514 -2.1643806 7.2053776 0.819255 -1.7859422 8.986703 1.6333463 10.200952
2.6651237 7.742684 -6.9346466 12.637331 2.8270063 -11.156545 16.009678 5.0252643
-4.5528574 -1.0409286 4.2355533 3.98961 -5.1876507 11.398623 4.185237 -2.1398635
-10.671674 2.6456838 11.5490465 -1.0538535 -2.662894 -4.304399 -4.639225 9.368913
-8.624425 -2.3451862 -3.7597299 -1.4344428 0.5441496 1.0573862 9.520916 7.8456926
-8.325651 -2.9396968 -11.775671 12.147076 -11.071299 -8.015525 -8.031491 -7.7854033
8.865851 -1.335738 3.6487486 16.593122 -1.4151665 -3.9621806 3.9098506 6.33616
7.4302864 2.6122406 1.2880135 3.384973 -2.1565263 -5.0077567 7.830947 8.655459

bias f4 [12]
00000000: ba49 94bf c724 cc40 bc98 f640 6734 7e40
00000010: f68b ce3f 0f9d 0b3f 85f2 c3c0 e723 4d40
00000020: 223a 8a40 e688 4a40 1ca0 d840 bb52 dc3f
-1.1585 6.3794894 7.7061443 3.9719484 1.6136463 0.5453653 -6.1233544 3.2053163
4.3195963 3.1646056 6.7695446 1.7212747

weight f4 [12, 12]
00000000: e276 f63f 0de6 bf40 aa9a aabf fc68 38c1
00000010: 5327 35bf ecd4 99bf 49bc de40 10ab 0441
00000020: d4d0 9740 78e4 9c40 2c37 ac40 11ef 6f40
00000030: 4271 3740 ae7d 8340 b9fd 9fbf 04d4 80be
00000040: 8c97 bcc0 a2db 4cc0 ca5b 1dc0 d7cd 3240
00000050: de3f 66c0 8245 823e 3203 4541 3e95 0941
00000060: 6694 ca3f df5a d7bf 0247 1ac0 4896 8ac0
00000070: 1a70 bdbe c08d 42c0 2172 7c3f 9779 11c0
00000080: df33 1cc1 5fe8 5ac0 a9a7 89c0 6292 76bf
00000090: a564 0dbf 0996 523f da15 bd40 5cd0 d5bf
000000a0: 364b b4be 0263 84be beec b63b fc87 dcbf
000000b0: 3fae 3d40 16c7 8b3f 5f39 4540 c9da b63f
000000c0: f30a afc0 281b c53f 53c0 4dc1 0aed 6840
000000d0: 8587 b4bd 2a92 bcbf f199 cf3f c4c3 1c40
000000e0: 54b0 37bd 6521 de3e 4128 013f b4cc 783e
000000f0: 68e1 1640 6130 02c0 ac8d f93f 6612 8040
00000100: f2fa b0be 517d 0240 2d8b 4dc0 cec8 28c1
00000110: f5cf b7c0 7054 80c0 dabf 91c0 d288 e7c0
00000120: 9cf2 67c0 5a3f 0440 2332 ae40 f5ce 4040
00000130: f508 abbe a507 2b40 1c34 7ec0 2be0 50c0
00000140: 9df6 c140 c2a4 b0bf 5dad d440 3126 e840
00000150: a789 9040 eb56 f440 c518 78c0 2a1e 88bc
00000160: e14a 0840 eb13 27bf 761c 2940 d24c 3c41
00000170: fef0 7b3f 843e 2240 8920 1d41 3dba 58c0
00000180: 901f 4b3f c6ae 50ba 45ad 9b3e 2256 a13f
00000190: 609c f03d 0591 3a3c b0f8 97be e6b8 383f
000001a0: c1fb ef3e d93f 963e 1ae2 0e40 494e 41bd
000001b0: e931 f0bf 09bc 1ec0 1c0f 1c41 3504 de3f
000001c0: 6fba dabf 5e08 983f bfe6 82c0 1438 3abf
000001d0: 460e a3be 5cf9 acc0 ebb1 d5c0 4076 1dc0
000001e0: 8ed7 8abe 9638 1341 5840 a4c0 a4a8 cf3f
000001f0: 1ac9 c840 b1fe 8e40 7f39 0840 3398 9d40
00000200: 0b74 2ec0 607d bd40 5f3f e340 911b bdbf
00000210: 7f09 d43f 644c edc0 7c57 3f3f ac4a 0741
00000220: 285b a8bd 84d9 e33f 471c 9fc0 32f0 1740
00000230: cfd8 8a3f e0b2 b5c0 39a9 13c1 97e1 1fc0
1.925503 5.9968324 -1.332845 -11.525631 -0.7076313 -1.2018104 6.960484 8.291763
4.7442417 4.9028893 5.381735 3.7489665 2.8662877 4.1090918 -1.2499305 -0.25161755
-5.8934994 -3.2009053 -2.4587274 2.7938135 -3.5976481 0.25443655 12.31328 8.598936
1.5826538 -1.6824607 -2.410584 -4.330845 -0.3699959 -3.0399017 0.98611647 -2.2730463
-9.762664 -3.4204328 -4.3017163 -0.9631711 -0.55231696 0.82260185 5.9089174 -1.6704211
-0.3521363 -0.25856787 0.005582421 -1.7228999 2.9637601 1.0920131 3.0816267 1.4285518
-5.4700866 1.5398912 -12.859454 3.6394677 -0.08814911 -1.4732106 1.6218854 2.4494486
-0.044845894 0.43384853 0.5045205 0.24296838 2.3575077 -2.0342028 1.949636 4.002246
-0.34566456 2.0388987 -3.2116196 -10.549025 -5.7441354 -4.0103073 -4.5546694 -7.2354517
-3.6241827 2.0663667 5.44362 3.0126317 -0.3340527 2.6723416 -3.9719305 -3.2636821
6.061354 -1.380028 6.6461625 7.254662 4.5168033 7.63561 -3.8765118 -0.016615946
2.1295702 -0.6526477 2.642362 11.768755 0.984146 2.5350657 9.820443 -3.386367
0.79345036 -0.00079606136 0.30405632 1.2604411 0.11748576 0.011387114 -0.2968192 0.7215713
0.4687176 0.29345587 2.2325501 -0.0471938 -1.8765231 -2.4802268 9.753689 1.7345034
-1.7088145 1.1877553 -4.0906672 -0.7274182 -0.31846827 -5.4054394 -6.6779685 -2.4603424
-0.2711758 9.201315 -5.1328545 1.622334 6.2745485 4.4685903 2.1285093 4.924829
-2.7258327 5.9215546 7.1014857 -1.4774038 1.6565398 -7.415575 0.74742866 8.45573
-0.08220512 1.7800756 -4.972202 2.3740354 1.0847415 -5.6780853 -9.228814 -2.498144

bias f4 [12]
00000000: 17a4 62c0 a59e 5e40 4807 a6bf cf26 2c3e
00000010: dbac 64bf 7195 cc3d a323 a640 f41e 5e3f
00000020: c1dc 4a38 11e2 4d3f 321c 3740 7e75 1940
-3.5412652 3.478433 -1.2970972 0.1681168 -0.89326257 0.09989441 5.19185 0.8676598
4.8366146e-05 0.80423075 2.861096 2.3977962

weight f4 [12, 12]
00000000: e5c3 19bf 9d2b 2940 b666 5240 c1e9 c5bf
00000010: 2993 9b3f e8a5 89c0 5302 7140 2114 9140
00000020: b71a c5c0 8b6b 06c1 6d58 c240 e0f9 5fbf
00000030: 14fa 9b40 748a db3b ad8c 2cbf f5c1 63c0
00000040: 46f6 623f c5b1 7fc0 0f84 3c40 1991 2fbd
00000050: bb0b 05c1 72a2 dac0 8ae2 33c0 5adb 0f40
00000060: de97 8b40 9f27 e5c0 d2db 2241 2090 5740
00000070: 8a87 91c0 1234 ed40 eb2b b2c0 cec1 1bc0
00000080: 1671 9a40 bf6d 9e40 1035 c0c0 2d8c aac0
00000090: d6cd eebf 36f5 0dc0 ab0e bf37 b153 14c0
000000a0: 62de b33e a500 d3bf 2c1d e8bf 886a 01c0
000000b0: 1f27 41c0 ba08 1dc0 f6d5 e23f 00de 9abf
000000c0: 5d50 053f 3fe7 f43c ab71 8639 8329 a73f
000000d0: c492 cabc 096b 84be 9a7f f83c f94a 343f
000000e0: c153 a33f 4dd2 6b3f 448b 1840 5573 4e3f
000000f0: 6598 9b3f 2284 6c3f e827 f43c 95af 4b3f
00000100: f4b4 8b3e 2620 383e 7391 323f 05e2 0c3e
00000110: f5bc 8c3f 1a5b 573f 3244 af3e 5adc b63e
00000120: d752 5c3f 4387 763d 7c69 73ba fc04 8e3f
00000130: 52f4 8d3d 78c0 193f a4cc fa3e 92df 193f
00000140: 7bb3 7f3f 22d2 d83e a497 323f 2574 0e3f
00000150: 444f 2fc0 ec0e 9740 a119 3540 6db7 08c0
00000160: a658 8540 90ad 943f 53f2 dec0 cf75 af40
00000170: 09c6 a33e 43c5 b8bf 4571 a240 1eda e23f
00000180: d447 b0bf 47b3 47c0 a2ab 33c0 247f a7bf
00000190: 797a 23c0 67fe 7ec0 867a a5bf 3250 f1be
000001a0: 93fd 4ac0 a3ff ebbf 115e 48c0 2737 3fc0
000001b0: f873 fe3e 7a3d 923e c77a 39bf e5a6 373e
000001c0: 14a8 50c0 b737 023e fc15 5b3f 9889 35c0
000001d0: f454 0ec0 50b6 02c0 bfa7 a8bf ee8e 30c0
000001e0: ad93 f9c0 565f 59c0 e28b b0be 091e 81bf
000001f0: d0ac 7ec0 25a0 c73f 5832 4a3f ceea 21c0
00000200: 1fa4 2fc0 f89c b5bf d777 83c0 f832 7c3f
00000210: eb7f 1940 a201 f33f 3e7c efbd 7662 df3f
00000220: 0706 833e 77b2 2fbf b646 1f40 da5b 1140
00000230: c186 5a40 2fc5 d23f 86d3 e93f 8032 3b3e
-0.60064536 2.643287 3.287519 -1.5461961 1.2154285 -4.301502 3.7657669 4.533707
-6.159511 -8.401256 6.073294 -0.87490654 4.874277 0.0066998545 -0.67402154 -3.5587132
0.88657033 -3.9952252 2.9455602 -0.042862985 -8.315364 -6.8323298 -2.8107018 2.2477632
4.3622885 -7.1610866 10.178667 3.3681717 -4.5477953 7.4126062 -5.567861 -2.433704
4.8263044 4.9508967 -6.0064774 -5.3296113 -1.8656566 -2.2180915 2.2775805e-05 -2.317608
0.35130602 -1.6484572 -1.8133903 -2.0221272 -3.0180128 -2.4536576 1.7721546 -1.2098999
0.5207575 0.029895423 0.0002564316 1.3059543 -0.024728186 -0.2586291 0.030334283 0.704269
1.2759935 0.9211777 2.3835 0.8064473 1.2155882 0.9238912 0.029804185 0.7956479
0.27286494 0.17981014 0.6975319 0.13758095 1.0995165 0.84123385 0.34231716 0.3571499
0.86063904 0.06018759 -0.0009285433 1.1095271 0.06931366 0.6005931 0.48984253 0.60106766
0.9988324 0.4234782 0.69762635 0.5564597 -2.739213 4.7205715 2.8296893 -2.1361954
4.1670713 1.1615467 -6.9670806 5.483131 0.31987026 -1.44352 5.076327 1.7722814
-1.377192 -3.1203172 -2.8073506 -1.3085675 -2.5543501 -3.9842775 -1.2928016 -0.47131497
-3.171727 -1.8437389 -3.1307414 -2.9877412 0.49697852 0.28562528 -0.7245297 0.17934759
-3.2602587 0.12716566 0.8558042 -2.836523 -2.2239351 -2.0423775 -1.3176192 -2.7587237
-7.799277 -3.3964438 -0.34481722 -1.0087291 -3.9792976 1.5595747 0.7898307 -2.5299563
-2.7443922 -1.4188528 -4.108379 0.9851527 2.3984325 1.8984873 -0.11693619 1.7451923
0.25590536 -0.6863169 2.4886909 2.2712312 3.4144747 1.6466426 1.8267677 0.18280983

bias f4 [12]
00000000: 5c82 8cc0 944b e9c0 6569 e63f 5b2a 59c0
00000010: 87b7 a93f f0e9 723f c77a 9a3f 61d4 003f
00000020: 3329 4ac0 37fc e5bf 58cc 4ebf 66a7 1d40
-4.390913 -7.290476 1.8000914 -3.3932102 1.3259133 0.9488821 1.2068719 0.50324064
-3.1587646 -1.7967595 -0.80780554 2.4633422

weight f4 [3, 12]
00000000: 0d98 c63e 7402 533e 9cba 25bf d9cb 423e
00000010: 900a 0f3f 9e17 80be e366 863e 5e2e 983d
00000020: 4d72 4dbe 74dc 5cbd 6098 2dbe 56d3 37be
00000030: cb5b a8be bb70 08bf f44b 103e 4985 41be
00000040: 7ce6 e8be 1d1e 97be d58b 03bf 6c91 af3d
00000050: 4fb2 9cbe 7466 823d 918c afbe 1554 183f
00000060: ef39 02bf 9ca2 9dbe 0d51 9fbd 0014 d7bc
00000070: dcf2 12bf 7b0f 853e 2b99 b73e b535 983d
00000080: e8d5 a4ba 48fc 563d a692 5cbe d55f c13e
0.3878788 0.20606405 -0.6473787 0.19023074 0.5587549 -0.25018018 0.2625037 0.07430719
-0.20063134 -0.053921178 -0.16952658 -0.17951712 -0.32882532 -0.53297013 0.14091474 -0.188985
-0.45488346 -0.29515162 -0.5138524 0.08572659 -0.3060479 0.06367198 -0.3428693 0.595033
-0.5086965 -0.30788124 -0.07779131 -0.026254654 -0.57401824 0.25988373 0.35859045 0.07432119
-0.0012575956 0.052486688 -0.21540317 0.37768427

bias f4 [3]
00000000: 7842 943f 0cec 64bf 18db 09be
1.1582785 -0.8942268 -0.13462484
