data/NN_trained_models/trained_net_7423.tar (torch_old, 7903 bytes, 6 tensors)

weight f4 [12, 12]
000000 8d 9e 63 bf ad 15 0b 41 f8 c1 12 41 b6 a6 98 bf
       -0.88913804 8.692792 9.172356 -1.1925876
000010 25 f3 cf 3f ae 5b 40 c1 f7 4a 3f 40 9d bf 60 be
       1.6246077 -12.022383 2.9889505 -0.21948095
000020 95 56 9e 40 67 e4 d2 3f 11 47 3b 40 ed 70 94 c0
       4.948069 1.6475953 2.9262125 -4.638785
000030 e2 d8 1f c1 7f 8c 05 c1 4a c1 1a 40 47 d5 fb 40
       -9.99045 -8.346801 2.4180474 7.869785
000040 13 72 61 be 06 fa 18 41 4c 3e 8b c0 da ce 40 41
       -0.22016172 9.561041 -4.3513546 12.050501
000050 08 26 c8 c0 50 a3 83 3f 5f f3 d2 c0 80 b1 14 40
       -6.2546425 1.0284214 -6.5922084 2.3233337
000060 89 05 fb c0 38 04 52 41 96 2a 0e 3f 22 a3 c4 40
       -7.8444257 13.12603 0.5553373 6.1449137
000070 9e cf 87 c0 3e 73 4c c0 88 48 db 3e 22 e9 98 3f
       -4.244094 -3.1945338 0.42828774 1.1946146
000080 fd d3 e0 c0 54 f7 48 3e 75 20 04 c1 c4 ea 2e 40
       -7.0258775 0.19625598 -8.257924 2.733079
000090 25 52 48 c0 88 95 b1 bf 19 c3 84 c0 c4 2f 66 40
       -3.1300137 -1.3873758 -4.1488156 3.5966654
0000a0 91 63 1f 41 3b 57 5d c0 70 3b 2e 40 d9 b0 c7 c0
       9.961808 -3.4584491 2.7223778 -6.240338
0000b0 54 da 07 bf 4e 2c e3 40 fd 58 9d c0 cb 67 d0 c0
       -0.5306752 7.0991583 -4.917113 -6.51267
0000c0 32 9b 8b 40 be 0d 25 bf e4 5e 17 c1 23 79 85 bf
       4.3626947 -0.64474094 -9.460667 -1.0427593
0000d0 66 e8 1b 41 73 18 d1 40 fb 18 01 c1 66 ee 91 40
       9.744238 6.5342345 -8.068599 4.5603514
0000e0 01 19 02 41 1d 46 b6 40 38 f6 a4 bf 8b b7 c9 40
       8.131104 5.6960588 -1.288764 6.303655
0000f0 a2 40 dc 40 7f 14 c7 c0 74 39 b9 c0 56 62 3f c1
       6.8828897 -6.221252 -5.7882633 -11.961508
000100 d8 e2 a4 40 f6 99 f0 bf fc f2 84 c0 f0 ad 17 40
       5.152691 -1.8796985 -4.154661 2.3699913
000110 62 61 d4 c0 2c a7 16 c1 61 e2 09 c1 4d 60 66 3f
       -6.6368876 -9.415813 -8.617768 0.89990693
000120 e7 98 97 40 8a 6f 4e c1 f8 62 9c c0 c0 32 57 bf
       4.737415 -12.902231 -4.887081 -0.84061813
000130 28 d1 68 40 be fd 66 c0 a0 bb 0b c1 87 ea 12 40
       3.637766 -3.6092372 -8.733307 2.2955644
000140 c1 0b c7 c0 78 bc e5 40 53 a4 1b c0 8d 10 be c0
       -6.220185 7.1792564 -2.4319046 -5.9395204
000150 56 7a 0c c0 1c 43 38 41 da e8 87 c0 b4 66 4f 3e
       -2.1949668 11.516384 -4.2471743 0.20254022
000160 d5 62 05 41 63 70 a9 c0 77 40 78 40 9e 98 d2 40
       8.336629 -5.294969 3.8789346 6.58113
000170 24 4e fa c0 c4 a1 f5 3d 80 fe f4 40 83 25 0c c0
       -7.8220387 0.11993745 7.656067 -2.1897895
000180 3d 31 d7 40 90 5f aa bf b0 22 85 41 47 01 36 c0
       6.7247605 -1.3310413 16.641937 -2.843828
000190 fa 64 42 bf a5 16 03 c0 fe 62 cb bf 41 29 59 c1
       -0.7593533 -2.048257 -1.5889585 -13.572572
0001a0 07 97 6e 40 19 9b 7f be 6e 5d de 3f f8 1e 2e 3f
       3.727968 -0.24961509 1.7372262 0.68016005
0001b0 d8 ac ae c0 c9 84 82 40 5c fc 01 c0 79 87 ba bf
       -5.458599 4.078709 -2.0310278 -1.4572593
0001c0 82 be b3 bf 2e e7 0e c1 3b 7e 95 3f cf 3e 58 be
       -1.4042513 -8.93144 1.1679147 -0.2111771
0001d0 5a 4e 23 41 50 36 86 c0 6c 8d b4 40 39 98 71 c0
       10.206629 -4.19413 5.6422634 -3.774916
0001e0 5e 12 99 c0 cd 57 fb 3f ec 09 a9 c0 18 07 be c0
       -4.783492 1.963617 -5.282461 -5.938366
0001f0 dc 3f 98 3f 11 6c 48 c0 80 de 24 c1 69 27 d1 3e
       1.1894488 -3.1315958 -10.304321 0.4085038
000200 9c 3f 88 bf 65 4e d4 c0 56 e7 a3 3f 4e a8 0d c1
       -1.0644412 -6.6345696 1.2804973 -8.85359
000210 31 29 7d 40 c0 32 1d c1 5d ee 1c c1 39 7c 1c 40
       3.9556391 -9.82489 -9.808194 2.445082
000220 44 3a 9e 40 e2 b8 b6 c0 fd 97 5c 40 05 90 82 40
       4.9446125 -5.7100687 3.4467766 4.0800805
000230 6c a8 bf c0 b3 f8 b1 40 84 5b e2 c0 12 43 87 40
       -5.9893093 5.561609 -7.0736713 4.2269373

bias f4 [12]
000000 1f 6d ba 3e a3 de 63 3f 68 08 c6 bf 5e e4 2b 41
       0.36411378 0.8901159 -1.5471315 10.743254
000010 22 9d c9 40 83 34 21 40 96 3e 45 c0 db f9 e0 c0
       6.3004313 2.51883 -3.081945 -7.0305
000020 1d 4e a9 40 51 62 ff 40 22 bf ec c0 5d f5 fb 3f
       5.2907853 7.9807515 -7.3983316 1.9684254

weight f4 [12, 12]
000000 7a 7d 6c 3f 8e 73 11 bf 1f 5f 00 c0 19 42 f9 3e
       0.9237896 -0.5681695 -2.0058057 0.4868324
000010 3f b0 df bf e9 41 ec bf 5e f4 4b 3e d4 f2 82 3e
       -1.7475661 -1.8457614 0.19917437 0.25575888
000020 d6 f8 97 bf f1 32 26 c0 70 4b 95 3e cf 05 99 3e
       -1.1872814 -2.5968592 0.29159117 0.29887244
000030 d2 99 51 c0 7e 6a e0 bf 0e 74 69 c0 b4 e4 9c 3d
       -3.2750134 -1.7532499 -3.6477084 0.07660809
000040 5c 0c 47 c0 36 a6 7d 40 18 3d 33 c0 f4 13 67 c0
       -3.1101294 3.9632697 -2.8006039 -3.6105928
000050 50 6a 89 c0 60 2f b2 3f a5 77 de bf b7 9a 68 40
       -4.2942276 1.3920708 -1.7380263 3.634443
000060 94 c2 0d bf 97 31 32 bf 7d e8 06 3f 2b 34 9f 3f
       -0.5537503 -0.6960692 0.526985 1.2437795
000070 e8 58 b0 bf 80 d0 a5 be 06 58 10 3f de 3c c9 be
       -1.3777132 -0.32385635 0.56384313 -0.3930425
000080 37 28 5b be a5 fb 09 3f 02 e0 32 bf 8d 14 c9 3e
       -0.2140206 0.53899604 -0.6987306 0.39273492
000090 e9 f0 9b 3f 2a d1 e2 3f 09 09 6a c0 dd 67 fc bf
       1.2182895 1.7720082 -3.6568015 -1.9719197
0000a0 83 65 86 c0 d9 69 d6 bf 4d 10 26 40 d6 e1 24 40
       -4.1998916 -1.6751052 2.594745 2.576284
0000b0 ec 68 c6 3f 6b be 51 bf 26 5f 56 bf 5e 1a a7 be
       1.550077 -0.8193118 -0.83738935 -0.32637304
0000c0 50 1c 1c 40 9a 6a a1 40 16 c0 4f 3f 16 dd 03 40
       2.439228 5.044263 0.81152475 2.060369
0000d0 9d 75 96 3f b7 35 78 40 d6 82 42 40 af 55 e0 bf
       1.1754643 3.8782785 3.0392356 -1.7526149
0000e0 d9 b7 37 c0 57 25 1c 40 25 71 58 c0 74 80 1b c0
       -2.8705962 2.439779 -3.3819058 -2.4297152
0000f0 56 84 a3 3e c8 e4 69 bf a3 bc 32 c0 52 a6 2e 3f
       0.31936902 -0.9136472 -2.7927635 0.68222535
000100 e9 56 40 bf 76 ab 82 bd 2c 46 b0 bf cc 2f e3 bf
       -0.75132614 -0.0638036 -1.3771415 -1.7748961
000110 56 58 98 bf 6c 26 32 bf 5c ec b0 3f c1 5a 47 bd
       -1.1901958 -0.6958988 1.3822131 -0.048670534
000120 ab f5 5d bf db 16 90 3f 32 07 65 bf dc 2e 1a 3e
       -0.86702985 1.1256975 -0.89464104 0.15056938
000130 6b dd 93 bf bb e1 2c 3f c4 c0 50 bf 2d 2d f1 bd
       -1.1551946 0.6753194 -0.81544137 -0.11776195
000140 1c c8 8b be c1 a8 c6 be 89 4d 66 bf ff 5d 69 bf
       -0.2730111 -0.38800624 -0.8996206 -0.9115905
000150 90 f6 21 3b 52 1c f7 be 01 5c af bf d1 21 b2 3f
       0.0024713613 -0.48263794 -1.3699952 1.391657
000160 e4 2c be bf 94 54 0a 40 60 46 c1 bf 61 c1 aa bf
       -1.485745 2.1614122 -1.5099602 -1.3340265
000170 ec 19 80 bf 8e 67 15 3e 39 59 92 3e 9e 7d 0a 3f
       -1.0007911 0.14590284 0.28583696 0.54097927
000180 02 23 8c be 17 7d 30 3e 5d df 79 be f3 c1 3d 3f
       -0.2737046 0.17235218 -0.24401613 0.7412407
000190 a7 45 22 bf 26 ed 8b 3f 60 c8 d1 bf 47 7d 07 40
       -0.6338753 1.0931747 -1.6389275 2.1170213
0001a0 94 f2 ff 3f 48 72 c3 be ec 33 0f bf b3 81 2b 3f
       1.9995904 -0.38173127 -0.559386 0.6699478
0001b0 0b e5 23 c0 38 f9 02 bf d7 1d ba bf a8 52 ca 3f
       -2.5608547 -0.5116153 -1.4540356 1.5806475
0001c0 f0 03 1e bf 1a ad 97 3f 9d db c7 bf 6f 0b 00 c0
       -0.6172476 1.1849701 -1.5613896 -2.0006979
0001d0 0c 3e b8 3d a6 d3 1a 40 ce 63 9e 3f 39 f7 5e bf
       0.089962095 2.419168 1.2374208 -0.8709598
0001e0 d3 cb ac bf c2 95 40 c0 43 79 90 bf 8b 5a 8c bf
       -1.3499702 -3.0091405 -1.1287006 -1.0965132
0001f0 36 ba b7 bf 5e 6d 96 bf 1e 71 64 c0 00 26 16 3e
       -1.4353702 -1.1752126 -3.5694041 0.14662933
000200 bb 8a d0 bf 36 7e 83 c0 4f a9 1c 40 3e e7 8e 3f
       -1.6292337 -4.1091566 2.4478338 1.116432
000210 e1 bb 2c be 9a 53 34 3d 49 69 b8 3f 09 1a 00 bf
       -0.16868545 0.04402504 1.440713 -0.50039726
000220 25 fd b7 3f b5 30 fd 3e fe 7b 91 3e fa 7c ec 3d
       1.4374129 0.49451223 0.2841491 0.11547275
000230 9d f6 af 3f ab 34 4a 3f a1 ae 4d 3e 96 29 9f bc
       1.3747135 0.78986615 0.20086147 -0.01942901

bias f4 [12]
000000 e0 60 32 c0 58 20 c1 c0 c3 a5 4e c0 ad 92 40 c0
       -2.7871628 -6.035198 -3.2288673 -3.0089524
000010 6b 92 ef c0 ea c9 86 c0 f4 13 1b c0 90 36 0c c0
       -7.4866233 -4.2121477 -2.4230928 -2.1908302
000020 47 e4 6a c0 65 b5 9f c0 2e b9 77 c0 ff b0 49 c0
       -3.670183 -4.990893 -3.8706775 -3.151428

weight f4 [3, 12]
000000 08 f1 48 be 7a d9 3a 3f 6a 26 0f 3d b9 14 3a 3f
       -0.19623196 0.7298809 0.034948744 0.7268787
000010 16 e0 9b 3f ba 68 bb bd 89 8f e2 bd 37 00 14 3f
       1.2177761 -0.091508344 -0.110625334 0.5781283
000020 86 d2 c1 bd 2b 91 a6 3e bd 4d 52 3d 05 40 35 3e
       -0.09463982 0.3253263 0.05134367 0.17700203
000030 60 07 f4 3e 2d 7d 8b be c3 f3 01 3e b5 0a 9d 3d
       0.47661877 -0.2724394 0.12690644 0.07668058
000040 d5 5e 23 c0 44 b4 6e 3b c9 99 09 3f af 8f 55 3d
       -2.552663 0.0036423365 0.5375028 0.05213898
000050 db dd 5a be 5c 70 5e 3e d0 5f 98 3f e8 3d ca be
       -0.21373694 0.21722549 1.190424 -0.39500356
000060 a8 cc 44 be 87 4f e3 be a5 ee 21 3e 5f 04 ee be
       -0.19218695 -0.44396612 0.15813692 -0.4648771
000070 69 26 15 be 14 d1 c3 be 39 8b db 3e e5 fd 48 be
       -0.14565434 -0.3824545 0.42879656 -0.19628103
000080 4e a6 8f 3e 1f be 9f be f6 c3 df be 41 3d 82 3d
       0.28056568 -0.31199738 -0.43704194 0.063593395

bias f4 [3]
000000 f3 ff 1c 40 45 bd 92 c0 55 a6 66 3d
       2.453122 -4.585604 0.05631097
