data/NN_trained_models/trained_net_9735.tar (torch_old, 14145 bytes, 6 tensors)

weight f4 [36, 12]
00000000: f1d7 abbe c376 b43c 35f9 7fbe 2d82 323e
00000010: b9a9 853e 6d2d 8b3d d0b4 94be efcc b3be
00000020: 8774 4b3e f012 dcbc 211e 933d 37c2 13bf
00000030: 06e4 abbc 51ba d2be ae0c 2dbd 099d 183f
00000040: 3636 ebbe 4f1d 8c3e 9512 d53d b614 13bc
00000050: 20bf 013f d4eb 39bd 1ea0 bdbe 1c55 403e
00000060: 11b1 5a3e f176 93be d4be adbd 4f0d 5f3d
00000070: b505 bb3e 204a 5dbe 354a 78be 39d0 b0be
00000080: 1ca4 b5be 01da d33d af05 88be 43bd 7f3e
00000090: 2aab e7bd 556b 773e 6d21 d83d 4f2c 49be
000000a0: dc76 7ebe 6b41 bf3e 22ad 1cbe 9b57 b5be
000000b0: 2fde 96bc d7a8 50be e177 443e d1e4 ea3e
000000c0: ddfe 28bf 651e bdbd fb13 f73d 09c4 d43e
000000d0: 1d4a 53be d2f2 56be df57 c1be 488e 473e
000000e0: 85a6 4d3c 2066 3dbe f3bb c6bd 958d 373e
000000f0: fba8 0abe 4896 563b 5261 96be a053 07bf
00000100: b065 47be 4bf5 cfbb 4c2d 253e 430c 7dbe
00000110: 73b0 75be 3334 2e3e e80a 7bbe 3599 b4be
00000120: c135 71be 57ee c23e 139f 8cbd 579c 5ebd
00000130: 8d3b 66bf ab2e 363e 73eb 093e b105 503d
00000140: 1b7d 5abe 4d0e 823e a57a 93be 8a0b 1e3e
00000150: 0b96 8ebe 0613 96bd 9561 9fbe 42c4 edbe
00000160: 1931 893e aab0 433e a248 993e 7b1e 3bbf
00000170: 5a2c 9e3d 9de0 983e 0cc5 893c fedb e9be
00000180: 27a8 ea3e 3048 9f3c d8a1 36be 93db ee3b
00000190: 8c53 153e 0743 b03e ea55 b6bd b728 d73d
000001a0: c158 28bf 32ce 723e faf1 ca3e 1254 1cbe
000001b0: 9f41 ce3e 01b8 833d d99e 8fbe cc07 0a3e
000001c0: 0c08 e33d 6a3a e13e 4b57 d63e b9a6 9ebe
000001d0: 136b 12bf 835e fbbe 151b 003e b3b6 6b3e
000001e0: e990 3f3e 52c0 30be 785d 0d3e 876c ed3d
000001f0: 85a9 ce3e b33f 25bd a23c 5cbe 9be6 40be
00000200: a14d a5be 2ae9 d7bd ea46 a9bd b2e3 02bf
00000210: bf59 d8be a039 103d 7c67 a73e 5197 dfbe
00000220: 6e65 373f 10f4 7dbe 36dc bfbe 24fa e73d
00000230: ca8f 983e b3e6 c73e d7f1 233f 60e5 00be
00000240: 2471 af3e 0cf3 51be 94bd 5bbe 2730 d7be
00000250: 7155 6f3c 4535 013e 42e7 053d 1834 0bbc
00000260: c79c a1bd 9ccb 49bd 6641 1dbe cb62 c2bc
00000270: 3e62 913e fe8c 25be 8781 40be 247c 86ba
00000280: bc60 c53e 8ff8 b6be 70aa 153e 28a1 383e
00000290: f011 5bbd 35ba 9abe eb8c 9f3d cb65 64be
000002a0: a5c3 88be e9e3 59be 0bea 15bf e7d2 1a3e
000002b0: 2981 15be 829f 96be 6238 0d3d a902 203f
000002c0: d510 0abd 0134 2e3e 9b93 cfbd 4f64 fcbe
000002d0: a5b0 803e 4c0c 9bbd af2e 3fbe 26fc 393e
000002e0: 9941 6bbe 0b62 f8be 403f 6dbe 2d2a 60be
000002f0: 0c92 d2bd 1154 913e 160f 7a3e 01f4 73be
00000300: b4b4 bb3e a250 82bd d969 eb3d 9b26 69bf
00000310: c967 f03b 9537 d0bd 865d 153e 0abc 30be
00000320: c3ca 063e 7a46 713d 633a d43e 78d5 143d
00000330: cea2 a3bd 5d1e 263e 1ddc 54be 9e36 19bf
00000340: f5bc c1bd dd15 d63e af09 36be 82c8 193e
00000350: 8f19 b4bc 9c88 e4be 7ade a2be dca4 6d3e
00000360: 2951 a5be deb7 65bd ae57 ccbc 883e 06bd
00000370: e1bb 89be 8823 013b 258a 8cbe cfdd 8e3e
00000380: 11b0 0d3e 4a27 95be fa88 803e d4a0 913e
00000390: 16e1 993e 13b5 113e 7ef9 aabc 34d1 62be
000003a0: 7201 e13b 1ced 63be 5fcd 023f ad76 873e
000003b0: efd0 933d df99 9d3d 66c0 c63d 62cc b93d
000003c0: c447 a83d 6117 813e 1766 053f 4e04 eabe
000003d0: 6a29 963e 7bb7 2dbe aebc 9b3d 32ab bcbe
000003e0: 28fc 0abe 108c 5b3e d3c3 1b3e a029 a33d
000003f0: ef75 d63c 4a3c cc3e 0239 bb3d 2e01 783e
-0.33563188 0.022029286 -0.24997409 0.1743247 0.2610605 0.06795774 -0.290442 -0.3511729
0.1986867 -0.026864499 0.07183481 -0.57718223 -0.020982753 -0.41157773 -0.04224842 0.59614617
-0.45939797 0.2736611 0.10403935 -0.008977106 0.5068226 -0.04539092 -0.37036222 0.18782467
0.21356608 -0.28801683 -0.08483663 0.05445605 0.36527792 -0.21610308 -0.24247058 -0.3453386
-0.35476768 0.10344315 -0.26566836 0.24974541 -0.11311944 0.24162038 0.105532505 -0.19645809
-0.24850029 0.37354597 -0.1530042 -0.354184 -0.018416492 -0.20376907 0.19186355 0.45877698
-0.6601389 -0.09234313 0.12064358 0.41555813 -0.2063374 -0.20991066 -0.37762353 0.1948787
0.012551908 -0.18495989 -0.09703817 0.17925103 -0.13541023 0.0032743383 -0.29371125 -0.52861977
-0.19472384 -0.00634638 0.1613056 -0.24711709 -0.23993091 0.170121 -0.24515879 -0.35273138
-0.23555662 0.38072464 -0.068662785 -0.054348316 -0.8993462 0.1779124 0.13468723 0.050786678
-0.21336786 0.25401536 -0.28804508 0.1543409 -0.2784885 -0.07327847 -0.31129137 -0.46438795
0.2679527 0.1911036 0.29938227 -0.73093385 0.07723303 0.29858866 0.016817592 -0.45675653
0.45831415 0.019443601 -0.17835176 0.007289359 0.14582652 0.34426138 -0.089031056 0.105058126
-0.6576043 0.2371147 0.39637738 -0.15266445 0.4028444 0.0643158 -0.2805088 0.13479537
0.11085519 0.4398988 0.41863474 -0.30986574 -0.5719463 -0.49095544 0.12510331 0.23018913
0.18707623 -0.17260864 0.13805187 0.115929656 0.40363708 -0.04034395 -0.21507505 -0.18837969
-0.3228579 -0.105425194 -0.08265479 -0.51128685 -0.4225597 0.035211205 0.3269614 -0.43670133
0.71639144 -0.24800134 -0.37472695 0.113270074 0.29797202 0.39043197 0.64040893 -0.125875
0.34266007 -0.20502871 -0.21459037 -0.42028925 0.014607773 0.12617977 0.032691248 -0.008496307
-0.07891231 -0.049266443 -0.15356979 -0.023728749 0.28395265 -0.16167066 -0.18799411 -0.0010260385
0.38550365 -0.3573651 0.14615798 0.18030226 -0.053483903 -0.3022019 0.0779055 -0.22304456
-0.26711765 -0.21278347 -0.58560246 0.15119515 -0.14600052 -0.2941857 0.0344776 0.6250406
-0.03370746 0.17012025 -0.101355754 -0.4929528 0.2513477 -0.07570705 -0.18670152 0.18162593
-0.22974242 -0.485123 -0.23168659 -0.21891089 -0.102817625 0.2838445 0.24419817 -0.23823549
0.36661303 -0.06363036 0.11494798 -0.9107453 0.007336591 -0.101668514 0.14586458 -0.17259231
0.13163285 0.058905102 0.41450796 0.036336392 -0.07990037 0.1622252 -0.20787092 -0.59848964
-0.09459869 0.41813555 -0.17777131 0.15017894 -0.021984844 -0.44635475 -0.3181036 0.2320742
-0.32288483 -0.056083553 -0.024944153 -0.03277448 -0.26901153 0.0019705016 -0.27449146 0.27903602
0.13836695 -0.29131538 0.25104505 0.28443015 0.3005454 0.1422923 -0.02087092 -0.22150117
0.0068666274 -0.22258419 0.5109462 0.2645773 0.07217585 0.07695364 0.09704666 0.09072186
0.08216813 0.2521315 0.521089 -0.4570641 0.2932847 -0.16964523 0.07604347 -0.36849362
-0.13572752 0.21440148 0.1521142 0.07966924 0.026179282 0.39889747 0.09141733 0.242192

bias f4 [36]
00000000: 8f9d 4abe 8976 743e 667c 1a3e 58fc adbd
00000010: dfbf 0b3e 0335 2cbb 92b3 623e 2ffe 733e
00000020: eeb8 0e3e 36fb 023e afd7 f53e 7620 da3c
00000030: 93e3 053e 7a25 ce3d 8206 22bc 0a5a 8abe
00000040: dd55 8f3e d4c7 a53e 469d c5bd 5fce 913e
00000050: ac76 983d 5e7b dfbd 7ba3 8c3e 8308 833e
00000060: aeec 14bf 3c0d e33e 546b 773d fe80 ba3e
00000070: 604c c13e 4049 aa3c 91b8 aebe f799 e3be
00000080: ea5b 46be 82e8 db3a 923d 19bd ffeb a0be
-0.19786666 0.23873343 0.15086517 -0.084953964 0.13647412 -0.0026276715 0.22138813 0.23827432
0.13937733 0.12791142 0.48016116 0.026626807 0.13075094 0.10065742 -0.009889247 -0.2702182
0.27995196 0.3237902 -0.09649138 0.2847776 0.0744451 -0.10912202 0.27468476 0.2559243
-0.58173645 0.44346035 0.06040509 0.36426538 0.37753582 0.020786881 -0.34125188 -0.44453403
-0.19371 0.0016777667 -0.037412234 -0.3143005

weight f4 [36, 36]
00000000: 2e46 4f3e a627 8fbd da60 9bbe 8c2e 703d
00000010: 1400 9a3e 8327 94be 1d75 6f3b 5fd4 55be
00000020: 7d6f 7e3e 169b 2fba e9ce 81be b8b1 c53c
00000030: be32 4abe faad 21be 0e63 a9be 9340 9abe
00000040: a70c 8ebc 4011 063e cb0e 203f 211a 76be
00000050: 494b 53bd f1d0 1a3d 1124 96be e789 d5be
00000060: e463 91be 27ac 98be de73 c13b 5d1a 3e3d
00000070: 94be 5c3d 016a 2dbe ec06 f8bd ceff 793e
00000080: 4801 51bd edcb 263e e076 87be 5c99 893e
00000090: 2ac6 97bc b4b5 eb3d f189 f1bd 2b0b e13d
000000a0: 631d 4bbd 67d9 223e bd63 963e 6c2f dd3e
000000b0: 1fc5 0abe 919a 933e d22f 26bf 4f63 8cbe
000000c0: 2c8d 3d3e 87b0 21bd fc9a ddbd bc3b aa3e
000000d0: d24a bd3c d3cd a53d 102e ffbd 317b fd3d
000000e0: c039 b3be d7fc 613e 93f3 59be 4fdb 97bd
000000f0: 991a fb3e 2232 a13c 2e5e 75be 7a32 87be
00000100: f77e 83bd 2a03 5cbc 1756 e73e 2ffe 0a3f
00000110: 4000 a5be 5ce1 a0be 978c c33d 43a1 49be
00000120: d542 8b3e 5234 0bbf e39d 843e 61e9 be3d
00000130: 5d4e 143f 81f5 8bbd 5a84 bbbd 6e17 773d
00000140: 730d 6ebe 738a 443d e22a 553e 34c2 34be
00000150: 95e0 debe fd93 093c 11a4 5dbd 1e60 c1bd
00000160: 4821 3dbd 9df8 2dbd 5b44 e83d 9740 e4be
00000170: b3d6 063d e890 903e 4d57 b7be 0144 e9bd
00000180: e69a 4dbe 06ec cebe c06d 09bf a86d 1b3e
00000190: 7fd2 aebe eddb 8cbd c862 dcbb 36af 373e
000001a0: c226 7b3e 0887 6b3e 2523 823e 2df3 933e
000001b0: b18b 58be 3f39 b1be 6204 193e 8b26 eebd
000001c0: a96e 12bd 75ab 363d 8052 87bc 52ba fc3d
000001d0: 6af5 4dbc 0c27 25be eab6 b2be 07fe b3bd
000001e0: e5ca cabe db8e f8bd 3936 853d e714 cf3e
000001f0: d65a 5abe 5a38 e5be 7aca 0dbe 6f5a c4bd
00000200: 4a3c 233e 39d4 593d 1dd4 cfbe 5756 b5bd
00000210: 9075 993d 9b91 c43e 57e1 cfbe 64d6 2dbf
00000220: a637 03be ebec ba3e 8219 db3d d746 473f
00000230: 508b 463e 60b6 cbbd 8ccd 4ebe 7467 5c3d
00000240: 5549 7abd a391 923e 049c dc3d 1d9f fbbd
00000250: 5f75 2a3e 6ca9 243e f5e8 7ebd 5178 743e
00000260: 610b 88bd 3a49 16be 4052 9a3d f4d8 b43e
00000270: 742e 9dbc 4935 cb3d 5885 c43e 9d01 243d
00000280: cb9e 4abd 84ef 153d 9338 09be cc01 433e
00000290: 7858 3e3c ede7 283e 9ba4 c03d 7cbb 89bd
000002a0: dc54 2abe 8894 c93e 453c 733e 5b47 5fbd
000002b0: 5534 253e 87b3 453d 61c1 8dbc 60a7 85bd
000002c0: 2dec 50be 9dc6 633e 4a7d a9be 03fb 7fbe
000002d0: f211 47be 0da5 8c3d 22bb 2b3d 76b4 40be
000002e0: 53e9 063e d77d 3abe dd4d 6cbe 939b 04bf
000002f0: dec2 62be d967 82be df49 c4bc 8dc3 803d
00000300: 2299 b13b cce4 8c3e 9612 a13e 5362 cc3d
00000310: 0328 d1bd c778 993d ef9d 0a3e 8dbf 0d3e
00000320: 068f 9cbe 8315 43be 6a22 e73d 4dd5 a23e
00000330: 9da4 993e 94df 343e 30b2 89be e4f1 f2bd
00000340: 7ef0 f6bd 707d 593e 3395 9bbe 746a 37be
00000350: c8fe 1a3e 7ce7 e53d cfa3 0e3e 14f3 123d
00000360: 5fa7 e6bd 6bf8 5a3e 47d6 733d 6fd0 3f3d
00000370: 1f83 403d 1bbf 8ebc 01a8 373e 7288 8a3e
00000380: d957 bf3d 11d5 91be b3af 823e 6dab aa3e
00000390: 9e5c a53e 62f6 16be cbd6 75bd 66b9 40bd
000003a0: fd8b 403e 388a 393e 44c2 fe3d 1766 9fbd
000003b0: e97c 0d3e f12a b7be 9a96 41bd e435 e9bd
000003c0: 5daf 3dbe 9fd9 013c 3e44 753e 6a3d 883e
000003d0: 66a1 79bc ea57 0ebe 3f3e f0bd 8a6f 94be
000003e0: 1a77 8ebc 7cfe 57bd c00a cebe 5c8f 26be
000003f0: b541 6a3e fbe5 01bd 9be5 13be 2d14 3a3e
0.20241615 -0.06989984 -0.3034733 0.05863814 0.30078185 -0.28936395 0.003653831 -0.20881794
0.24847217 -0.000669883 -0.25353172 0.024132594 -0.19745919 -0.15789023 -0.33083385 -0.3012739
-0.017340017 0.13092518 0.6252257 -0.24033405 -0.05158547 0.03779692 -0.2932439 -0.41706774
-0.28396523 -0.29818842 0.005903705 0.04641186 0.053892687 -0.16934969 -0.12110695 0.24413988
-0.051026613 0.16288729 -0.26457882 0.26874816 -0.01852711 0.115092665 -0.11793888 0.10988458
-0.049588572 0.15903245 0.2937297 0.43200243 -0.13551758 0.28828862 -0.6491672 -0.27419516
0.18510884 -0.03947499 -0.108205765 0.332487 0.023106966 0.080958985 -0.124599576 0.123770125
-0.35004997 0.22069107 -0.21284322 -0.07414877 0.4904373 0.019677226 -0.23961708 -0.26405698
-0.06420701 -0.013428489 0.4518287 0.54294103 -0.32226753 -0.31421936 0.095483 -0.19690423
0.27199426 -0.5437671 0.25901708 0.09321857 0.5793207 -0.068339355 -0.091561034 0.06032508
-0.23247318 0.047983598 0.2081714 -0.17652208 -0.43530717 0.0083971 -0.054111544 -0.09442161
-0.046174318 -0.042473424 0.11341163 -0.44580528 0.032919597 0.28235555 -0.35808793 -0.11389924
-0.2007862 -0.40414447 -0.5368309 0.1517855 -0.3414497 -0.06877885 -0.006725643 0.17937931
0.24526504 0.23000729 0.25417438 0.28896466 -0.21147038 -0.34613988 0.14943078 -0.11628445
-0.035750065 0.044597108 -0.016518831 0.12340225 -0.012570718 -0.16128176 -0.34905177 -0.08788686
-0.3960792 -0.121366225 0.06504483 0.40445635 -0.21323714 -0.44769555 -0.1384677 -0.09587561
0.15940967 0.053180907 -0.40591517 -0.08854359 0.074931264 0.38392338 -0.40601608 -0.6790526
-0.12814197 0.3650888 0.106982246 0.7784247 0.19389081 -0.09946895 -0.20195597 0.053809598
-0.06110509 0.28626737 0.10771945 -0.12286208 0.16646336 0.16080254 -0.062233884 0.23874022
-0.06642795 -0.14676371 0.07535219 0.35321772 -0.01918719 0.09922273 0.38382983 0.0400406
-0.049467843 0.036605373 -0.13400488 0.19043654 0.011617772 0.16494723 0.09406396 -0.06725213
-0.16633934 0.39371133 0.2375346 -0.05451141 0.16133244 0.048266914 -0.017304124 -0.06526065
-0.20402594 0.22243734 -0.331034 -0.24998097 -0.1944044 0.068674184 0.04192651 -0.1881884
0.13174944 -0.18212067 -0.23076577 -0.5179989 -0.22144648 -0.25469854 -0.023961006 0.06287298
0.005419866 0.27518308 0.31459492 0.09979691 -0.1021271 0.074937396 0.1353681 0.13842602
-0.30577868 -0.19051175 0.11285861 0.3180336 0.30008402 0.17663413 -0.2689376 -0.11862543
-0.12057589 0.21239257 -0.30387267 -0.17911702 0.15136254 0.11225793 0.13929676 0.03587635
-0.11262392 0.21383826 0.059530523 0.046829637 0.047000047 -0.01742511 0.17935182 0.27057225
0.093429275 -0.2848287 0.25524673 0.33333912 0.32297224 -0.14742425 -0.060019296 -0.04705181
0.18803401 0.18119133 0.12439397 -0.07783144 0.1381718 -0.3577495 -0.047262765 -0.11387232
-0.18523927 0.00792542 0.23951814 0.26609355 -0.015236234 -0.13900724 -0.117306225 -0.28991348
-0.017390776 -0.05273293 -0.40242577 -0.16265625 0.22876628 -0.031713467 -0.14443056 0.18171759

bias f4 [36]
00000000: b85c 08be e6f5 64be a0b1 01be 7f3e 3dbe
00000010: 7529 703e 13f4 c1bd e03e 863e b561 4f3e
00000020: a433 d2bd e83f 683d 6715 183d acb7 323c
00000030: 1a33 0c3e a257 33bd 1d42 753d b3af 6e3e
00000040: 179a 833e ae05 19bd 1880 0f3e 2e8c e63d
00000050: 8881 b23d 1b64 b93c 9782 cb3d 4e86 5d3d
00000060: 6429 f63d 4083 e5bd 8f6e 21bd a201 c83c
00000070: afb8 ea3d 530a 87be c9e5 073d 95fd 3e3d
00000080: 45a7 453e c639 98be b6db 403e 3442 773e
-0.1331662 -0.22359428 -0.12665415 -0.18480872 0.23453315 -0.094703816 0.26219845 0.20252116
-0.10263756 0.05670157 0.037129786 0.010908049 0.13691369 -0.043784745 0.059877504 0.23309211
0.257035 -0.037358932 0.14013708 0.11257206 0.087161124 0.022630742 0.099370174 0.05408316
0.120196134 -0.112066746 -0.039412078 0.024414841 0.11461007 -0.26375064 0.033178125 0.046628553
0.1930209 -0.29731578 0.18833813 0.24146348

weight f4 [3, 36]
00000000: e469 34bf 6405 603c 761e babe 2544 1c3f
00000010: eaba 063e 6848 f73e 90ba 9fbd 416f ebbe
00000020: 0558 4bbf 09a1 163f 39f9 503e 73f2 bf3e
00000030: c5ce 5b3e a2b7 75be 5f87 eebc 3437 393e
00000040: 0d64 97bb 8fca c7be e8ed 7d3c faad e83e
00000050: fabd 51be aad2 c13e 52b1 5b3e bff9 53be
00000060: a8e6 093e fe33 253f eac9 6cbd d0a3 d33e
00000070: 5351 dbbe 6990 cd3e ea37 d7bd 7b68 35be
00000080: 4d17 7c3e 87ab aebc 1881 90bc 7657 1c3e
00000090: daf9 f43c 9109 043f fc39 283f 1800 f8bd
000000a0: c018 d8be fd30 073d 6102 42be 5d82 8a3e
000000b0: 54f5 823e 7e7a 89be 0a2d 33be 3e73 05bf
000000c0: 5733 eabe 1cac c2bd 5951 54be 3a98 d9be
000000d0: 88ae 69be d773 d33b 2228 00bf 9716 9cbe
000000e0: 2dc8 14be cfa3 6a3e 0273 cebe 2c07 6fbe
000000f0: 19d1 dabe 09e9 2ebf 6124 2abf e66a 96be
00000100: 5876 bfbd 4396 9abe 2953 9abe f9d2 2b3f
00000110: 3ac8 04be ddaf 1d3f 698e 04bf a677 c9be
00000120: c0f5 9f3e cb9c 33bf b956 92be 3f49 41bf
00000130: d009 7e3d 800f 02bf a7b2 573e 3cc2 b43d
00000140: 7df1 953e acf5 c6be c2bf dcbe fa04 87be
00000150: ad96 973d 917c 8c3d 4433 a43e 6bbb 7cbe
00000160: 34ff 873e 8f1c 403e 5e16 6f3e d553 91be
00000170: d9c2 d23d bda6 21bf 8c0f 12be bb93 843d
00000180: 81cd 7a3e a212 76be cbdd 443e b2b9 b3bd
00000190: f779 1b3f cb71 043d 033c ab3d 091b 9cbe
000001a0: 1575 89bd 909c fabe 040a 6c3e 5355 93bd
-0.70474076 0.01367316 -0.36351365 0.6104148 0.1315724 0.4829743 -0.07799256 -0.45983317
-0.7943118 0.5883947 0.20407571 0.37489662 0.21465595 -0.23995832 -0.029117284 0.18087465
-0.0046200813 -0.39021727 0.015498616 0.45445234 -0.20482627 0.37856036 0.21454361 -0.2070074
0.13466895 0.6453246 -0.057809748 0.41335917 -0.42835483 0.4014924 -0.10508712 -0.17715637
0.24618264 -0.021322025 -0.017639682 0.15267739 0.029904295 0.515771 0.6571348 -0.12109393
-0.42206383 0.033005703 -0.1894622 0.27052584 0.25577796 -0.26851267 -0.1749765 -0.5212897
-0.45742294 -0.095054835 -0.20734157 -0.42498952 -0.22820485 0.006453018 -0.5006124 -0.30485985
-0.14529486 0.2291405 -0.4032212 -0.2334258 -0.42737654 -0.68324333 -0.6646176 -0.29378432
-0.09348744 -0.30192766 -0.3014157 0.67118794 -0.12967005 0.6159647 -0.517798 -0.39349097
0.3124218 -0.7016112 -0.2858179 -0.7550239 0.062021077 -0.508049 0.21064244 0.0882611
0.29285803 -0.38859308 -0.4311505 -0.26370984 0.07401786 0.06859697 0.32070363 -0.2468087
0.26561892 0.18760894 0.23348376 -0.2838427 0.102910705 -0.6314505 -0.14263743 0.0647349
0.24492456 -0.24030545 0.19225232 -0.08775653 0.6073298 0.032335084 0.08361056 -0.30489376
-0.06711785 -0.48947573 0.23050696 -0.07194009

bias f4 [3]
00000000: b8f6 c73b f56b 31be 5a2d 43bd
0.006102409 -0.17326339 -0.047650672
