data/NN_trained_models/trained_net_12997.tar (torch_old, 19957 bytes, 8 tensors)

weight f4 [36, 12]
000000 10 76 45 be dd 80 87 bd 54 6b 4f 3d 6d c1 a0 3e
       -0.19283319 -0.066163756 0.050639465 0.31397572
000010 21 bf 41 be eb 6b 86 3c 22 a4 5b 3d 3d f4 0e 3d
       -0.18920566 0.016408881 0.053623326 0.034900893
000020 88 67 4b 3e f7 2e 76 3d 1f 32 60 3e 23 4a b6 be
       0.19863713 0.060103383 0.2189412 -0.35603437
000030 43 f4 fc 3d e6 24 9f 3e 40 26 01 3f ec 97 03 3e
       0.12351277 0.3108284 0.5044899 0.12850922
000040 10 99 d3 ba 9e 5a 8d 3e 98 0b 29 3e 9b 33 1f 3d
       -0.0016143639 0.27608198 0.16508329 0.038867574
000050 12 89 17 3e 86 c1 bf 3d 58 8e 80 3e 3c b8 81 3d
       0.14798382 0.093630835 0.251086 0.06333968
000060 d4 ae e8 bd cc 7c eb be 8b ec b6 bd 89 56 01 3d
       -0.11361471 -0.4599365 -0.08931836 0.031576667
000070 b2 1a 6c be 80 a9 3e 3e 74 9b 9a 3d 85 74 95 be
       -0.23057058 0.18619347 0.075491816 -0.2919046
000080 ab f7 d7 3e 3d 14 4f bd 66 96 77 be ac 4e 94 3e
       0.42181143 -0.05055641 -0.24178466 0.28966272
000090 6c 7b 8f 3e 71 1c 45 3e 51 f4 62 be 2d 10 d1 bc
       0.2802385 0.19249131 -0.22163512 -0.025520409
0000a0 82 b7 f9 bd 18 fd 2a 3e aa bf 77 3e b9 be 9d be
       -0.121932045 0.1669811 0.24194208 -0.30809572
0000b0 0f d0 18 bd c1 d3 8c 3e d5 aa fd 3e c2 55 9c be
       -0.037307795 0.27505305 0.49544397 -0.30534178
0000c0 d8 37 50 3e 69 cb 5b be 1e 99 0d 3e bc 0d 9e bc
       0.20333803 -0.21464314 0.13827941 -0.019293658
0000d0 32 d7 e0 3d ff da 6d 3d 7c e8 1d 3e 27 3c 75 3e
       0.10978545 0.05807018 0.15420717 0.23948728
0000e0 ae 84 95 3d 08 ba b7 3e 48 51 6d 3e 8c a8 0f bd
       0.07300697 0.35884118 0.23175538 -0.03507285
0000f0 f6 d0 bd 3d f1 26 2b 3e 00 0b d3 3d 7d ed c5 be
       0.09268372 0.16714074 0.103048325 -0.38657752
000100 66 6f f3 be 22 49 8a be 6b 34 d2 bc 2b 99 40 3d
       -0.47545928 -0.2700892 -0.02565976 0.047021072
000110 71 0e 0c 3d 4b 8e f6 be 4b 25 29 be 40 23 9b 3d
       0.03419346 -0.48155436 -0.16518132 0.07575083
000120 7f 1f 91 3e 24 54 55 3e bd 21 73 3e 6d d2 83 bd
       0.28344342 0.20832878 0.23743339 -0.0643662
000130 75 e4 e7 3c 04 8e 41 3e 97 5e 0c 3f 94 7d ce be
       0.028307179 0.18901831 0.5483183 -0.40330184
000140 06 1d e7 3d 43 e2 13 3e 3c b1 9a be f0 f3 05 3f
       0.11284833 0.14441781 -0.30213344 0.52325344
000150 eb d8 10 3e 0a a8 4b be f1 cb 06 3f cb ee ca 3c
       0.14145248 -0.1988832 0.5265494 0.024772068
000160 63 fa 58 be bc 90 60 3d 20 1f b4 bb d2 35 8b 3e
       -0.21189265 0.05482553 -0.0054968745 0.271895
000170 20 86 23 bd 93 11 9b 3d 7c 44 5d be 26 44 45 be
       -0.039922833 0.075717114 -0.21608156 -0.19264278
000180 76 14 b0 be 7c 09 79 be b1 d3 10 be 65 03 bd 3e
       -0.3439061 -0.24320024 -0.14143254 0.36916652
000190 5c 4f 71 3e 21 60 3a bd e3 56 af be 6b 5d 83 3e
       0.2356543 -0.045501832 -0.34245977 0.2565721
0001a0 ce bc a2 3e 93 46 9e 3e 09 25 01 bf 2a b3 be 3d
       0.31784672 0.3091322 -0.50447136 0.093115166
0001b0 73 82 79 be b5 95 2d be e9 36 00 bf 66 f8 65 3e
       -0.24366169 -0.1695164 -0.50083786 0.22458038
0001c0 a6 da 33 be fb 1f 23 3e c5 22 8d 3e 89 ae 15 be
       -0.17563877 0.15930168 0.2756559 -0.14617361
0001d0 a2 2a af be cf b7 8e be 25 6f bc be dd 3c a2 3e
       -0.34212214 -0.2787461 -0.36803547 0.3168706
0001e0 a3 a2 9b be 0a 7e 1e be ab c7 32 bf 15 ab 04 3e
       -0.3039752 -0.15477768 -0.6983592 0.12955888
0001f0 2c 2c a8 be b8 52 bf 3d 18 b3 ae be d4 a7 00 3f
       -0.328462 0.09341949 -0.34121013 0.50256085
000200 9d ca 66 be 7f 25 55 be 51 36 4d 3c 13 cf 8f be
       -0.22538228 -0.20815085 0.012525157 -0.28087673
000210 fe f0 b4 3d dc ed 66 3e 59 41 3a be bd 88 72 be
       0.08835028 0.22551674 -0.1818899 -0.23684974
000220 c8 72 b9 be 4e 4d e5 3d 9a b8 7b 3d 57 3a af be
       -0.36220384 0.11196385 0.061455347 -0.34224197
000230 4a 10 d3 3e 9b f8 0b bd 01 51 d3 3d c3 66 f5 bc
       0.41223365 -0.034172636 0.10318185 -0.029956227
000240 2f 45 9b 3e 32 ff 12 be 36 8a 49 3e 9b 00 e6 be
       0.3032622 -0.14355162 0.1968163 -0.44922337
000250 bf 11 de 3d 67 59 66 3e a6 be c4 bd a6 79 5c 3e
       0.108432285 0.22495042 -0.09606676 0.2153078
000260 16 d8 9d 3e 9c eb 47 3e 09 b0 cb 3e a1 ce c6 3e
       0.30828923 0.19523472 0.39782742 0.3882952
000270 69 98 3e 3d 80 d3 23 3e 7f c6 89 be 7c 4f 04 be
       0.04653207 0.1599865 -0.26909253 -0.12920946
000280 f6 3c 2c 3e 43 92 7f be be 0a 86 bd 1f a9 9d 3d
       0.1682013 -0.24958138 -0.06545018 0.07698273
000290 88 22 91 3e 5b 09 05 be 3e fc 89 3e bd 3a c2 3e
       0.28346658 -0.1299185 0.26950258 0.3793544
0002a0 fa e6 d0 3d f5 1d 91 be 4b 39 f3 3d 50 7d fc bd
       0.10200305 -0.28343168 0.11876162 -0.12328589
0002b0 16 e6 e2 3e 40 c0 c8 bd 69 29 04 be 7d ba 9b bd
       0.44316167 -0.09802294 -0.12906422 -0.07603929
0002c0 74 d5 85 3e 72 2b 36 3e 17 32 9d bd 83 cb c9 be
       0.26139414 0.1779001 -0.076755695 -0.3941308
0002d0 09 ee df 3e e7 66 6e 3e 31 b4 61 be 76 0b 0f 3d
       0.43736294 0.23281442 -0.22041394 0.03492304
0002e0 57 3f 40 3e ba 1e 15 3e 7d 90 a2 3c 5a ef fb bd
       0.18774162 0.14562503 0.019844288 -0.12301512
0002f0 b1 69 16 3e 5b 12 42 be fe 4f 82 3e 3f d8 9f 3e
       0.14688756 -0.18952315 0.25451654 0.3121967
000300 fe 1c b7 be 72 11 08 3e c3 b6 03 3e e0 76 7d 3e
       -0.35764307 0.13287905 0.12862687 0.24752378
000310 83 7f b2 3e 85 bd 9a be 98 a0 0a 3c 41 fb dd 3e
       0.3486291 -0.30222717 0.00846114 0.43355754
000320 52 5e ae 3d 79 a5 1d 3c aa 74 aa 3c 53 ac b0 be
       0.08514084 0.009621971 0.020807583 -0.34506473
000330 40 45 5e be 09 00 b0 3e 23 e6 bb 3d ce b1 55 bd
       -0.21706104 0.34375027 0.091747545 -0.05217152
000340 56 ef f0 be 09 72 78 be 20 f6 2d 3e 12 bd be 3b
       -0.470576 -0.24262251 0.1698842 0.005820879
000350 09 fe 4c 3e 78 bc 91 3d 6a 7d 39 be e2 c0 52 3e
       0.20018782 0.07116026 -0.18114248 0.20581391
000360 d4 c2 99 be bb c7 b0 be cc d4 98 3d 2a c2 cf 3e
       -0.30031455 -0.34527382 0.07462463 0.40577823
000370 b9 bb c7 3c 7f 3c 58 be 13 1d 82 3e 74 cf 92 3d
       0.024381505 -0.21116827 0.25412807 0.07168475
000380 fd ea ed 3b 96 1e 84 3e fb 3f 92 3e cc 96 c3 be
       0.007260679 0.25804585 0.28564438 -0.38200986
000390 73 eb 94 be 7a 35 17 3e 2e 1e f4 3b 3f 94 08 be
       -0.29085883 0.14766493 0.0074498868 -0.13337801
0003a0 56 da 15 bf cf 74 22 be 11 2c 0f 3d 77 b3 7d bd
       -0.5853628 -0.15864871 0.034954134 -0.06193873
0003b0 93 f9 3d be 5e 9f 23 3e 5a f5 c0 be e3 e2 0f 3e
       -0.18552236 0.15978763 -0.37687188 0.14051394
0003c0 b8 8a c8 3d d6 f4 15 bd 38 42 49 be ab d3 3f be
       0.097920835 -0.036610447 -0.19654167 -0.18733089
0003d0 5d d0 b9 be f8 28 ec bc c6 f3 68 bc 3e d5 d0 3e
       -0.3629178 -0.02882813 -0.014218276 0.4078769
0003e0 3b c0 32 be 78 e7 d7 be 64 3d 91 be 7e ab 18 be
       -0.17456143 -0.42168784 -0.2836715 -0.14909169
0003f0 1d f5 c4 bc e6 fb 2e 3e 55 9a a1 3e 1b 12 9f be
       -0.02404266 0.17088279 0.31563058 -0.310685

bias f4 [36]
000000 45 ba 15 bd 1e 6e 94 be 45 a1 05 3c ca 3f 5a 3d
       -0.036554594 -0.28990263 0.008156125 0.05328349
000010 5a 28 5f 3e 15 2b 02 3f db 4f d5 3e 7d de 7c 3d
       0.21792737 0.5084699 0.41662487 0.06173562
000020 a9 4a 69 3e 7e d8 03 3e 51 24 68 3e e8 41 3d 3e
       0.22782387 0.12875554 0.22670104 0.18482172
000030 ac 1c 1f be 59 32 de bd cc 4d 97 3d 54 b0 64 3e
       -0.15538281 -0.10849447 0.073878855 0.22332889
000040 f2 bd d3 3e 5b 53 9e bc 43 d0 67 be 8f d5 95 3e
       0.41355854 -0.019326856 -0.2263804 0.29264495
000050 f9 9e bb 3e 68 fa 92 bd 9b d2 94 3d b4 ee 6c be
       0.36644724 -0.071766675 0.07266732 -0.23137933
000060 86 a4 6c be cb c5 31 be b1 ee 76 3d af 1a 85 be
       -0.23109636 -0.17360608 0.060286228 -0.2599692
000070 63 42 b5 3e 6c 87 c7 be 14 9d 84 be e0 e1 1b 3e
       0.35402212 -0.38970506 -0.2590109 0.15222883
000080 66 9b 8d bd 31 7a ca 3e fe 57 7a 3e 82 a4 b8 3e
       -0.069144055 0.3954635 0.24447629 0.3606301

weight f4 [36, 36]
000000 58 b9 19 be d0 04 3a be d1 ac 90 3e df cc e1 bd
       -0.1501211 -0.18165898 0.28256848 -0.11025404
000010 52 d6 7c 3d b2 c5 b1 3d 11 47 28 3e 8c 13 b3 b8
       0.06172783 0.086802855 0.1643336 -8.539026e-05
000020 9a 80 4d 3c 52 8e 2b be a6 0f a8 3e d5 b2 64 bc
       0.012542868 -0.1675351 0.3282444 -0.0139586525
000030 46 3d ae bd 73 cb 73 be cf f6 5f 3e 04 9e c4 3b
       -0.08507781 -0.23808078 0.21871494 0.0060002822
000040 50 7d 9d bd 62 f4 bf 3d 8b 9b 7f be 16 af fb bc
       -0.07689917 0.09372784 -0.24961679 -0.030723136
000050 98 c4 47 3e 25 37 ab bd 1c 88 31 be 1a 61 91 3e
       0.19508588 -0.08360127 -0.17337078 0.28394395
000060 67 76 f6 3c d0 ee a1 bc f2 8f dd bc 07 bc 37 be
       0.030085756 -0.019767195 -0.027046178 -0.1794282
000070 ec 69 06 be b6 85 e3 3d 73 7e 00 3e 85 35 86 3e
       -0.13126343 0.11109488 0.12548237 0.26212707
000080 4c 63 e1 3d fc 5a a7 bd 0e ec 29 3e 20 84 10 3e
       0.110052675 -0.08171651 0.16593954 0.14112902
000090 9b 32 10 be 20 5a 43 bd 13 32 2e 3e 93 0e db bd
       -0.14081804 -0.04769337 0.1701129 -0.10696139
0000a0 10 9c 30 bd d6 3d 8f bc 6f 7c 38 3e 6f ce 5e 3e
       -0.043117583 -0.01748554 0.18016218 0.21758436
0000b0 c3 69 71 3d 8b 35 3f be 47 fe 4c 3e 54 d3 46 be
       0.058938753 -0.18672769 0.20018874 -0.19416553
0000c0 08 44 74 be cd 56 23 be 5c c7 2a 3e 7b 10 99 be
       -0.23854077 -0.1595108 0.16677612 -0.29895386
0000d0 29 c4 69 be 2a 55 2d be 85 77 94 be ac 40 df 3c
       -0.22828735 -0.16927019 -0.28997436 0.027252518
0000e0 64 9e ad 3e 40 ea bc bd a2 be 50 bd 87 cb 65 3e
       0.33909905 -0.09224367 -0.05096305 0.22440921
0000f0 e6 cc 32 3e 1d 6e 89 be 52 6b a5 bc e4 fe dc 3c
       0.17460975 -0.26841822 -0.020192776 0.02697701
000100 bf 2c fd bd e8 9a e6 bd 73 e3 a2 3d e4 3c 5e 3e
       -0.1236205 -0.11260015 0.07953539 0.21702915
000110 96 e7 03 bd f3 34 64 bd 9a 14 b2 3c 51 01 d0 bd
       -0.03220328 -0.05571456 0.02173834 -0.10156501
000120 67 4f 09 3e 15 4b 78 bc cc d6 da bd cf 33 aa be
       0.13409196 -0.01515462 -0.106855005 -0.33242652
000130 02 9e d9 bd bd 56 27 3e e4 da 8c 3e 50 60 3a 3e
       -0.10625841 0.16341682 0.2751075 0.18200803
000140 ad 79 3a bd df d6 0d bd 43 df 75 be a2 05 81 3d
       -0.045526195 -0.034628745 -0.24010949 0.062999025
000150 c0 1a d1 3b 53 3d 70 be 3c 3c 98 be f1 6f d5 ba
       0.0063813627 -0.23460893 -0.29733455 -0.0016283971
000160 d7 83 48 3d 9b 34 c2 3c 60 a2 39 3e 4b 6b 82 bb
       0.048953857 0.023706725 0.18128347 -0.0039800755
000170 9f ea 8f bc 08 3e ca 3d b1 7f 3d 3d 0f 24 7b be
       -0.01756793 0.09875113 0.046264354 -0.24525474
000180 51 d5 0a bd 04 86 24 3e 1b d4 6f bd f1 dd 41 be
       -0.03389484 0.16066748 -0.05855189 -0.1893232
000190 95 73 03 3d 23 8a 86 be ad 94 44 be fd 1a fe bd
       0.03209265 -0.26277265 -0.1919734 -0.12407491
0001a0 ee 3e d1 bd 36 1a 7e be dd 87 aa be 70 2a 34 be
       -0.10217081 -0.24814686 -0.3330678 -0.17594314
0001b0 07 5a 52 3e 36 e6 a2 3d 03 7d 0d be dc 97 0d be
       0.20542155 0.079540655 -0.1381722 -0.13827461
0001c0 d7 96 70 bd 31 f8 57 3e 78 70 69 bd d8 c3 f6 bc
       -0.058737602 0.21090771 -0.056992024 -0.030122682
0001d0 4b 28 8b 3d 83 79 93 3d 41 a4 e1 bd 7e 0c 72 3e
       0.06794795 0.07200911 -0.11017657 0.23637578
0001e0 24 de 02 be 31 55 0e be 94 13 01 3d ad c8 08 3e
       -0.12780052 -0.13899685 0.03151281 0.13357802
0001f0 ff f6 3c 3b ac 1e c5 3d 81 ef 0c 3e 5d 6e 3f 3e
       0.0028833745 0.09624991 0.13763238 0.18694444
000200 1d c2 82 bc d1 49 c3 3d dd 54 8c 3d 2f df ce be
       -0.015961701 0.09535564 0.06852124 -0.4040465
000210 d8 0e 0b be 2a f4 73 3c c3 54 01 bd 58 08 c3 3d
       -0.13579881 0.014889756 -0.031574976 0.09523076
000220 ca 89 26 3e 77 89 fa bd cb 5d 87 bd 41 06 34 be
       0.162635 -0.122332506 -0.066096865 -0.1758051
000230 06 fc a2 bb 8d 8c b0 bb 4e 02 bf 3c 3a dd 39 3d
       -0.004973891 -0.0053878487 0.023316529 0.045376994
000240 ba 15 51 be 6c 94 31 be ac ce 8f 3d 57 85 47 be
       -0.20418444 -0.17341775 0.070218414 -0.19484459
000250 3b 17 4b 3d b1 ca d2 3d 50 f6 63 3e f0 bd 5c 3e
       0.0495827 0.102925666 0.2226193 0.2155683
000260 3e d5 4e bb 33 4d f8 bd fb c3 b7 3d ee bf e8 bb
       -0.0031560208 -0.121240996 0.08972927 -0.007102958
000270 0b c2 f4 bd f4 33 63 be 4a ac 41 3e 12 10 98 bd
       -0.11951073 -0.22187787 0.1891338 -0.0742494
000280 ba 5f 96 be b8 e0 1b be 05 86 e0 bd 82 bd 58 be
       -0.2936991 -0.15222442 -0.10963062 -0.21166041
000290 b5 68 61 3e 25 4a 58 be c8 0b af bd f1 a0 1e 3e
       0.22012599 -0.21122034 -0.08547169 0.15491082
0002a0 65 88 46 bd 98 6c 60 be 02 8b 9f bd b7 dc b4 3d
       -0.04846992 -0.21916425 -0.077901855 0.088311605
0002b0 5b 08 ed bd 26 fe 31 be 0c d5 79 3d 6e 0b 2b 3e
       -0.11573859 -0.17382106 0.060994193 0.16703579
0002c0 07 5a 10 3e 42 dd 73 3e 2f ba 2b 3e ae 23 02 3e
       0.14096843 0.23814872 0.16770242 0.12708923
0002d0 bd 66 97 bc b1 d8 46 3e 61 a3 c0 bd 9d 8a c5 bd
       -0.018481607 0.19418599 -0.09406162 -0.09645579
0002e0 f7 31 d1 bd 00 88 94 3e 83 7b 57 3e 1c df bd 3d
       -0.10214608 0.2901001 0.2104321 0.0927107
0002f0 7e f4 f7 bc ae 46 1f 3e 5d 6a 81 be fe aa a2 3c
       -0.03026795 0.15554306 -0.2527646 0.019856926
000300 88 eb 46 bc 2a a7 2c be f2 ee 1b be bd e5 43 3e
       -0.012141116 -0.16860643 -0.15227869 0.19130607
000310 8a 3e 1a 3e df c5 02 3e 68 93 39 3e c2 6e 11 3e
       0.1506292 0.12770794 0.18122637 0.14202407
000320 62 22 ee bd 3f c8 80 3b 2f a9 18 3e 57 bd a4 be
       -0.11627652 0.003930121 0.14908288 -0.32175705
000330 18 83 71 be 87 16 c9 3d 3c 5c 9b 3d 7d d4 36 3e
       -0.23585165 0.0981875 0.07585952 0.17854495
000340 a4 fd 74 3e d6 3e 05 3e e4 e3 8b bd a4 72 e0 3d
       0.23924881 0.13012251 -0.06830576 0.10959366
000350 63 9d 42 bc e2 ce e4 be 62 38 8f be 2f e6 c4 be
       -0.011878344 -0.4468909 -0.27972704 -0.38456866
000360 34 f3 06 bd 24 4e 26 bc 7b d0 f0 bb a9 0f a1 bd
       -0.03294678 -0.010150466 -0.0073490716 -0.07864315
000370 76 64 b2 bd e0 03 e9 3d 90 71 0d 3e 8c dd e0 3d
       -0.08710568 0.11377692 0.13812852 0.10979757
000380 ba c6 4a 3e c6 7c 22 be af 3e 61 be d4 e9 64 3d
       0.1980237 -0.1586791 -0.21996568 0.05588706
000390 5f a8 16 3e 39 9f 0a bd b8 75 57 3e a9 2a ac bd
       0.14712666 -0.033843253 0.21041 -0.08406574
0003a0 c9 9b 64 3e e8 d3 14 bc 2c 39 fa 3d b0 cc 6a 3e
       0.22325052 -0.0090837255 0.12217936 0.22929645
0003b0 9c 01 26 be 49 84 d1 3d 39 a6 34 3e c9 89 b6 be
       -0.16211551 0.102303095 0.17641534 -0.35651997
0003c0 e3 01 38 be 47 74 2e 3c 84 07 5f 3e e1 a6 8a 3c
       -0.1796947 0.01064784 0.2178021 0.016925277
0003d0 2d d9 49 be 2e 7c b0 be 37 01 cf 3c e8 eb 38 be
       -0.19711752 -0.34469742 0.025269134 -0.18058741
0003e0 9f bf 03 be aa 13 0a 3d d9 91 a7 bd 47 42 8a 3e
       -0.12866066 0.03371016 -0.08182115 0.2700369
0003f0 43 f2 8c 3d d4 f4 4b be ae 10 99 be 42 f2 1d be
       0.06882145 -0.19917613 -0.29895538 -0.15424445

bias f4 [36]
000000 d6 0c 5d 3d 4f 8a 2e 3d 3c 30 77 3d ee 4a 20 3e
       0.05396732 0.04261237 0.060348734 0.15653583
000010 68 ba 22 bc 9f f5 81 bd 40 f2 53 3e ca ba 48 3e
       -0.009932138 -0.06345677 0.2069788 0.19602504
000020 28 f8 63 bd 35 86 4e 3e c8 a5 84 3d 5c c0 41 3d
       -0.055656582 0.20168383 0.06476933 0.04730259
000030 b0 b5 78 3e 6c 3e 1b 3c d0 30 dc 3c f9 cf de 3d
       0.24288058 0.009475332 0.026878744 0.108795114
000040 77 85 93 3e 84 58 82 bd 8d c2 6b 3e 48 59 27 3e
       0.28812763 -0.06364539 0.23023434 0.16342652
000050 55 79 2b 3e c9 66 b1 3d 94 ae ca 3d f1 84 0d 3e
       0.16745503 0.08662183 0.098965794 0.13820244
000060 60 5c ef bd f4 bb 0c 3e 5d 2c 65 3e e9 d1 be bd
       -0.11687541 0.13743573 0.22380204 -0.09317381
000070 bb bc 6f b9 7a 63 b9 bd 86 98 8a 3d a8 99 14 be
       -0.00022863124 -0.09052177 0.06767373 -0.1451174
000080 95 09 de bd 54 5d 8c 3d ac b6 fc 3d 8e 00 94 3d
       -0.108416714 0.068537384 0.123395294 0.07226668

weight f4 [36, 36]
000000 fd e0 f4 3d 9e c0 cc 3e 25 e3 cf 3d 30 d0 8c be
       0.119569756 0.39990705 0.10150746 -0.27502584
000010 1b ef 81 3c 61 6a ad be b9 98 e0 3d 32 2d 99 be
       0.015861085 -0.33870223 0.109666295 -0.29917294
000020 97 9a a4 3e 1b 9a 91 be 09 16 ad be 15 f3 c4 3e
       0.32149193 -0.28437886 -0.33805874 0.38466707
000030 0d 8e f8 3e 95 aa 1c be 85 4b 15 3e fc f4 45 3b
       0.48545876 -0.15299447 0.1457959 0.0030205837
000040 19 c7 af 3e 2e fb a6 be f2 89 96 3e 1b 8d a7 3e
       0.34331587 -0.3261351 0.2940212 0.32724842
000050 34 f7 9e 3d a5 df e2 3e c4 e8 bb 3e e4 38 29 3f
       0.07761994 0.44311252 0.36701024 0.66102433
000060 a2 2f f4 bd 06 23 60 3d 99 85 c4 3e b2 4f a8 3d
       -0.11923148 0.0547209 0.38383177 0.08218326
000070 ae fc 09 be 61 98 26 3c f1 03 b8 3e cf 42 48 be
       -0.13475296 0.010168166 0.35940507 -0.19556735
000080 e2 6e 91 be e6 c8 7c bd a7 32 a3 3d 5d bf e7 3d
       -0.2840491 -0.06171503 0.079686455 0.113157965
000090 a8 b8 29 be 7d 96 ce bd 5f 55 7e 3e 46 e4 29 3e
       -0.16574347 -0.10087297 0.24837254 0.16590986
0000a0 da 26 aa 3d 2e af eb 3d ff e9 cc 3e ca 0a 84 3e
       0.083081916 0.11508022 0.40022275 0.2578948
0000b0 cb 9d 32 be a2 53 30 bd e3 0d 7f be 7f ae c1 bc
       -0.17443006 -0.04304851 -0.24907641 -0.023642777
0000c0 7a 4e b2 be 07 62 df 3d e7 bd 2f 3e 65 af c8 3d
       -0.34825498 0.10907369 0.17162286 0.09799079
0000d0 e8 22 22 be da ed bb 3e 5c e7 b6 3d 5b ba 75 be
       -0.15833628 0.36704904 0.08930847 -0.2399687
0000e0 5c 34 85 3e e8 33 30 be 8d c6 d5 be 6a 28 12 3e
       0.2601651 -0.172073 -0.41753045 0.14273229
0000f0 8a 82 2d 3e 74 17 bc bc d6 46 34 3d b6 99 9b be
       0.16944328 -0.022960402 0.044012867 -0.3039071
000100 cb 47 8f 3e 82 84 8d 3e 98 79 c4 3e a1 0f c1 3e
       0.2798446 0.27640158 0.3837402 0.37707236
000110 9d fd 97 be 5f 7f 85 3d 3e 46 71 be 5c 9c 4c be
       -0.2968568 0.06518435 -0.23561952 -0.19981521
000120 3a f6 d5 3d 82 39 ec 3e 0f 69 a8 bd 0d 3e ea bd
       0.104473546 0.46137625 -0.08223163 -0.114376165
000130 1b c0 5c 3e 8e f9 a3 be 0b 46 d6 bd db 71 aa be
       0.21557657 -0.32026333 -0.104625784 -0.3328999
000140 9f 93 ba 3e 2d 70 8f be a4 e4 8e be 51 d5 cc 3e
       0.3644075 -0.2801527 -0.27908814 0.40006498
000150 48 1d bc 3e cf 62 02 be d8 eb 07 3e 45 cc 8a bd
       0.3674109 -0.12733005 0.13273561 -0.067772426
000160 85 1b c5 3e a8 10 bc bd da 8a 48 3e 11 22 ef 3e
       0.38497558 -0.091828644 0.19584218 0.46705678
000170 7a 5a bd bd d7 07 18 3e 74 aa c7 3e f3 f9 35 3f
       -0.09245773 0.1484674 0.38997233 0.7108452
000180 fb 40 8a 3d 90 64 c9 3d 8a 45 8a 3e c1 c8 34 3e
       0.06750675 0.09833634 0.2700618 0.17654707
000190 d0 1f 64 bd a9 b3 6f 3b 36 32 7a 3e c6 97 b1 3d
       -0.0556944 0.0036575592 0.24433216 0.086715266
0001a0 58 91 e9 be 8e 17 20 bd 6e 28 f2 3d 25 3a b4 3d
       -0.456187 -0.039084964 0.118241176 0.08800153
0001b0 fc b7 25 be d7 55 32 be 1b 91 b5 3d 3b 1e 85 3e
       -0.16183466 -0.17415558 0.08865567 0.25999627
0001c0 31 a1 87 be e5 36 c8 3e 5a ad 25 3e 47 4c dd 3e
       -0.26490167 0.3910438 0.1617941 0.43222257
0001d0 45 86 ac bd 4e a4 04 3e a0 0c 9e 3d e8 c2 fe be
       -0.084240474 0.12953302 0.07717252 -0.49758077
0001e0 db cc ef be f6 03 ca 3e 32 09 65 be 45 49 08 bd
       -0.4683598 0.39456147 -0.22366789 -0.033273
0001f0 8f 9d 9a be 5c d2 01 3f 3c 21 5c be 2c 61 82 be
       -0.30198333 0.5071161 -0.21497053 -0.2546476
000200 85 c1 b1 3e 7c d4 e1 be 39 1a a0 be ee d7 01 bf
       0.34717956 -0.44107425 -0.31270006 -0.5072011
000210 94 fd 8c 3d c1 66 af bd 1d 45 7f be 3b 96 ac bd
       0.06884304 -0.085645206 -0.24928708 -0.08427092
000220 07 0d 8b 3d 50 19 de 3d 0f 30 3c 3e 96 b2 8c 3e
       0.06789594 0.10844672 0.18377708 0.2748
000230 2d 48 cd 3e ad ac af 3e bb e4 b8 bd 75 a3 63 bd
       0.40094128 0.3431143 -0.09028002 -0.055575807
000240 ca 63 7b 3e 4a 00 a7 3e 11 29 a6 3d 2a 4e 5a be
       0.24549785 0.32617408 0.081133015 -0.2131888
000250 0c da 04 3e 1e 24 86 bd e1 e7 85 3e cd 7c 82 bd
       0.12973803 -0.065498576 0.26153472 -0.0637146
000260 48 a5 2f 3e 29 a9 30 be 3b 2c 39 be 5d c6 76 3e
       0.17152894 -0.1725203 -0.18083279 0.24099107
000270 4a cf 5d 3e f9 d8 9e bd e0 01 17 3e 22 39 57 3e
       0.21661106 -0.07756228 0.14746809 0.21017888
000280 23 b3 09 3e e3 d8 45 3e e5 f3 0b 3f a6 43 b6 3e
       0.13447241 0.19321017 0.5466903 0.35598487
000290 54 9c 31 3e 39 93 a5 3e e5 31 15 3e 95 1d e0 3e
       0.1734479 0.32338884 0.14569815 0.4377257
0002a0 0b cc d5 3d bf c9 60 3e 9c 51 9e 3d c7 f9 29 3e
       0.10439309 0.2195196 0.077304095 0.16599189
0002b0 ab 85 8c 3d d2 51 bc 3d 63 29 11 3f 72 ac 1f 3e
       0.06861433 0.091952935 0.56703776 0.15593126
0002c0 5c 05 c9 be b4 af 97 3d 6c b0 76 3e bf 92 04 3e
       -0.392619 0.074065596 0.24090737 0.12946604
0002d0 99 e0 61 3d 40 74 98 3e 71 1d 8a be 16 98 8a be
       0.055145834 0.29776192 -0.26975587 -0.27069157
0002e0 8b c1 8a 3e 9b 57 46 be e2 4e 2a bd be 08 25 be
       0.27100787 -0.19369356 -0.041579135 -0.16116616
0002f0 44 00 a4 3e 64 db 1f be bb aa 85 3d f6 c1 75 3e
       0.32031453 -0.15611035 0.06526705 0.23999771
000300 0f c0 b8 3e 65 a8 ad be 90 64 09 3e f7 10 86 be
       0.3608403 -0.33917537 0.13417268 -0.26184818
000310 4a 13 c7 3e 76 0f cb be 84 d9 2c bd 3c 07 61 3e
       0.38881904 -0.39660233 -0.042199627 0.21975416
000320 e9 63 c7 be 70 28 55 3e 78 d1 bb 3e 49 95 2d 3e
       -0.38943413 0.20816207 0.3668325 0.16951479
000330 78 d6 80 be 1f 9d 53 3e 29 fa 02 3e 54 02 f6 3d
       -0.25163627 0.20665406 0.12790741 0.12012163
000340 0c 2c a3 be 42 78 ba be 98 ed 66 be be 64 b0 be
       -0.31869543 -0.36419874 -0.22551572 -0.3445186
000350 c5 d8 8c 3d 74 41 b9 be ef 84 a0 3e 23 fe 6b 3d
       0.06877283 -0.3618275 0.3135142 0.05761541
000360 97 9f 07 be d8 60 97 be d5 33 01 3e d8 68 1b 3e
       -0.13244472 -0.29566073 0.12617429 0.15176713
000370 f1 5d 12 be 59 e4 ba 3e 7a b8 04 3e 8e 1f ee 3e
       -0.14293648 0.3650234 0.12960997 0.4650845
000380 73 b4 79 be 94 d5 a3 3d e5 45 72 3e f6 22 f3 bd
       -0.24385242 0.07999721 0.23659475 -0.11871903
000390 65 a2 9b be 09 08 b4 3e 41 f8 80 be 4b 8e 48 3e
       -0.30397335 0.3516238 -0.25189403 0.1958553
0003a0 69 30 44 be c4 da 45 3f ea 61 0f bd ea cf de be
       -0.19159092 0.77286935 -0.035005488 -0.43518
0003b0 de 5a 80 3e 44 a5 90 be aa bd c3 be c4 28 35 be
       0.25069326 -0.28251088 -0.3823064 -0.17691332
0003c0 d5 d5 39 3e aa 0a 94 be 19 bd 66 be ca d0 0f be
       0.18147977 -0.28914386 -0.22533073 -0.1404449
0003d0 5f 44 b6 3e 7d f2 c1 3e 49 1e 12 3e 05 89 ea 3e
       0.35599038 0.37880316 0.14269365 0.45807663
0003e0 00 71 18 3e 79 ab ed 3e 91 1b 65 be bb d2 19 be
       0.14886856 0.46419886 -0.22373797 -0.15021794
0003f0 06 b4 50 be ea 00 d1 bd f9 f9 c0 3d 3e fc ee 3d
       -0.20381173 -0.102052525 0.094226785 0.11669205

bias f4 [36]
000000 56 20 53 3c 49 6a 28 be c3 95 76 3d d4 f4 cd 3d
       0.012886127 -0.16446795 0.060201418 0.10056463
000010 78 43 31 3c 77 d1 06 bd c0 ec ee bd cc be 7e be
       0.010819308 -0.032914605 -0.1166625 -0.2487747
000020 62 44 92 bc 2f 3c 61 3b dd 0e 0a bd 60 22 dc 3d
       -0.017854873 0.0034368148 -0.03370558 0.10748744
000030 e6 fd d4 bd c1 ef bb bb 06 d6 aa 3d 00 17 4c 3e
       -0.1039999 -0.005735368 0.08341603 0.19930649
000040 92 11 23 be ff bd 2c 3e 37 3f 2e 3c d8 b6 84 bd
       -0.15924671 0.16869353 0.010635189 -0.06480187
000050 07 62 31 3b 28 45 2e 3d 44 3a 23 3d 26 f6 e9 3d
       0.0027066485 0.04254642 0.03985049 0.11423902
000060 d2 c2 5d 3d 55 96 8a bd f8 67 36 3e 54 ba 88 3d
       0.054140873 -0.06766955 0.17813098 0.06676164
000070 92 17 88 be b1 d2 87 bd 0f 2e b7 3d 2d 84 4d bd
       -0.26580483 -0.06631983 0.08944332 -0.05017488
000080 35 51 84 3c e2 c9 6b bb 98 4d 2c be e7 71 13 be
       0.016152004 -0.0035978486 -0.16826475 -0.14398919

weight f4 [3, 36]
000000 d8 ae 87 3e 2f 83 ad be 9c de 5d 3e 80 9f 9e be
       0.26500583 -0.33889148 0.2166695 -0.30981064
000010 5d 2b 48 bd 0b 7f 9c 3e 38 9b dd be 1f 10 8a be
       -0.04886948 0.30565676 -0.43282485 -0.26965424
000020 85 0f d5 3d 3e 3a 9b 3e 30 3e 0d 3e 04 84 bb 3d
       0.10403351 0.30317873 0.13793254 0.09156039
000030 e2 54 c8 3c bb ce a9 3e 56 61 a2 be 1a 0f ac 3e
       0.024454538 0.33165535 -0.31714886 0.33605272
000040 34 a6 d4 be 8a 4b 5d 3e 96 df a8 bd 62 b8 1c be
       -0.41533053 0.21610847 -0.08245771 -0.15304711
000050 58 dd c2 3e b8 bd a3 3e 96 06 a5 3e c3 78 05 be
       0.38059497 0.3198068 0.32231587 -0.13034348
000060 5d 23 af 3e 73 f8 c5 be c8 63 c6 3e d9 21 a0 3e
       0.34206668 -0.38666114 0.38748002 0.31275824
000070 c2 06 c9 be f7 28 c2 3c 01 78 c5 be f6 62 83 bd
       -0.39262968 0.023701174 -0.38568118 -0.0641536
000080 24 9e c1 3d 38 40 c7 3e 87 0b be be 0e df 70 3e
       0.09453991 0.38916183 -0.3711817 0.23522589
000090 16 41 29 be cf e1 06 be 60 4a a7 be bc f5 68 3e
       -0.16528735 -0.13172077 -0.3267393 0.2274999
0000a0 8f 24 40 be b9 e6 ae bd 3d d1 ca 3d 8d b5 a0 3d
       -0.18763946 -0.085401006 0.0990319 0.07847128
0000b0 35 3d 42 be 4c 63 42 be 0e d2 a9 be 7f 49 91 be
       -0.18968661 -0.18983191 -0.33168072 -0.28376386
0000c0 9e dd 47 be 81 a8 18 be df 87 28 3e 3a a4 16 be
       -0.19518134 -0.14908029 0.1645808 -0.14711085
0000d0 6f f6 55 3e 0d 63 77 bc 12 99 9a 3e cc 52 cc bc
       0.20894788 -0.015099299 0.30194908 -0.024941824
0000e0 29 9d ee bd 48 32 8f be 26 4d a7 be f7 42 a0 3e
       -0.1165107 -0.2796805 -0.32676047 0.3130109
0000f0 2c 3d 93 bd 18 e2 59 3e ae fa 30 bd 85 8a 2f 3e
       -0.07189402 0.21277654 -0.043207817 0.17142685
000100 c8 1e de 3d 8b 73 51 be f3 0c 10 3e b5 72 33 be
       0.10845715 -0.20454232 0.1406744 -0.17524226
000110 69 ea a3 be 6b 52 f5 bd 41 b1 a5 bc 90 ed 63 be
       -0.32014778 -0.119786106 -0.020226123 -0.22258592
000120 0c 8f 29 3e a6 8a 89 3e 89 45 b1 3d 5f c8 dc 3c
       0.16558474 0.26863593 0.08655841 0.026951013
000130 97 20 12 3d da 1e a4 be b7 0c a0 3d 0e ca 3f 3e
       0.03567561 -0.32054788 0.07814925 0.18729421
000140 10 e6 2d 3e 4d 12 d0 bd 76 17 36 bd 7c a0 a7 bd
       0.16982293 -0.101597406 -0.044455968 -0.08184907
000150 b3 0a dc 3d 55 7d 37 bd 11 72 3f 3e b7 02 26 be
       0.10744228 -0.04479726 0.18695857 -0.16211973
000160 30 6e ad 3e e7 f2 ad be 80 12 94 be bc 5e a6 3e
       0.3387313 -0.33974382 -0.28920364 0.32494152
000170 6e 05 8e be 7f 21 5c be 84 b5 96 be 3a a8 41 be
       -0.27738518 -0.21497153 -0.2943536 -0.1891183
000180 0c b3 95 be 81 39 d1 3a f9 30 7e be fa 49 4e be
       -0.29238164 0.0015962572 -0.24823369 -0.20145407
000190 a7 d3 a1 3e e2 48 73 3e e1 dd 14 3e 5c 7e c5 3d
       0.3160679 0.23758271 0.14537765 0.09643242
0001a0 3e 99 8a 3d df eb cf bd 32 d0 73 3e fb f0 62 3e
       0.0676751 -0.10152411 0.23809889 0.22162239

bias f4 [3]
000000 6f cb 4b bd 52 6a 84 bd 00 70 7d 3c
       -0.049754556 -0.064655915 0.015468597
