data/NN_trained_models/trained_net_3604.tar (torch_old, 7674 bytes, 4 tensors)

weight f4 [24, 12]
0.11492796 0.47318572 0.5098359 0.0149155725 0.1331201 -0.0318479 0.3129603 -0.43042985
0.15232173 -0.05187165 0.6685327 0.25631732 -0.34078088 0.051861804 0.5891212 0.46899226
-0.18919173 0.19298801 -0.13425988 -0.74153954 -0.104859866 0.7692542 0.47732988 -0.6466591
-0.56424206 0.5299693 -0.3028815 0.31060484 -0.3999333 -0.44463316 -0.5277267 -0.24388076
-0.77126145 -0.15514235 -0.51756805 0.041191127 0.25006136 0.042684015 1.4553698 -0.24112174
0.15974502 -0.20125185 0.14377181 -1.2717464 -0.011603931 0.029347362 -0.10888647 0.43161485
0.4748698 0.40115488 0.64065063 0.0047641047 0.36437663 0.5075433 -0.22874698 -1.0957999
-0.13179788 -0.3155246 0.36369365 -0.007774274 0.022203036 -0.24244776 -0.20242244 -1.1744778
0.077125534 -0.24983835 -0.00270911 -0.83318263 0.6240318 0.2618263 -0.4496376 -0.55840003
0.20277712 -0.12975189 1.2453226 -0.54851687 0.14465368 0.0650941 0.3229348 -1.064321
-0.3504656 -0.5176798 0.09869038 1.0217587 -0.54564834 0.21539897 -0.7590567 0.21543764
-0.16283366 -0.26566145 -0.31004652 -0.22505261 1.0159293 -0.9823533 0.2771435 -0.79388744
-0.15453672 -0.50662696 0.87437713 1.6034062 0.68893325 -0.34521452 0.11574905 -0.11488515
0.37860423 0.43829802 -0.48713002 0.6868279 0.090409495 -0.63163006 -0.06427199 -0.45181158
0.49978983 -0.82088876 -0.27073345 -0.06463075 -0.25093415 0.19237101 -0.1608926 0.4096514
-0.8661083 -0.3415822 0.386906 0.03965169 -0.29276738 0.8548682 -0.404592 0.80070543
0.12809616 0.2112037 -0.4849654 -0.48932782 0.2301331 0.43095228 -0.4728992 -0.5843128
0.22902368 -0.29455137 0.51436865 -0.38596964 -0.6611912 -0.093138 -0.34195378 -0.48422915
-0.28203726 0.6505773 0.17351 0.1516639 -0.4643947 0.39899787 -0.20482978 0.4895925
-0.008959659 0.43788534 -0.045142937 -0.25622988 -0.16069883 0.34635273 0.29385638 0.20324115
-1.0557384 0.008963001 -0.3629927 -1.7916452 0.23047361 0.8936209 0.3584365 -0.11994453
-0.06827845 0.3952817 -0.27410436 0.058485974 -1.0801015 0.25391832 0.05219659 0.46119338
-0.413603 0.1341599 -0.103602715 0.6743188 0.12301368 0.38102984 0.23202702 0.20193438
-0.040596105 -0.06720979 -0.86733764 -0.018476734 -0.19034238 0.7622109 -0.13870642 -1.0147233
-0.5476224 -0.014493625 -0.49387202 -0.058943212 1.1632452 -0.108031 -0.4405047 -0.66226166
0.38374186 -0.323275 -0.17134303 -0.12590238 -0.40981495 0.6509363 0.22367878 0.09699114
0.62725353 -0.40934765 -0.025612742 -0.044458173 0.054766566 0.58888173 0.4400462 -0.20152502
0.14818159 -0.0024274394 0.48030165 0.33216912 -0.20313798 0.01157235 0.8590767 -0.11381664
-0.015248661 0.026591765 -0.72758526 -0.18979271 0.3268284 0.6866989 -0.54838145 -0.11487798
-0.2532221 -0.20449331 -0.3581222 -0.058177855 0.01112528 -0.22455816 -0.1754661 -0.23352787
-0.2019625 0.52338314 -0.34984142 -0.7598619 0.3517325 0.033623587 -0.34562144 -0.13511476
0.038448445 -0.602184 0.63421255 0.6482932 -0.28385493 0.5581428 -0.65229315 0.009110943
00000000: 5a5f eb3d 6645 f23e 9b84 023f 7260 743c
00000010: a350 083e f272 02bd 553c a03e 4d61 dcbe
00000020: 3afa 1b3e 5e77 54bd f624 2b3f 063c 833e
00000030: d57a aebe 0b6d 543d a6d0 163f c11f f03e
00000040: 7abb 41be a69e 453e 6c7b 09be 89d5 3dbf
00000050: c5c0 d6bd d8ed 443f 9564 f43e 738b 25bf
00000060: 2b72 10bf 11ac 073f 4913 9bbe 9907 9f3e
00000070: 0fc4 ccbe f5a6 e3be 1919 07bf e1bb 79be
00000080: 6471 45bf a3dd 1ebe 577f 04bf 07b8 283d
00000090: 0b08 803e 6fd5 2e3d 8f49 ba3f 9ee8 76be
000000a0: 3394 233e f714 4ebe eb38 133e 96c8 a2bf
000000b0: 6a1e 3ebc e169 f03c dfff debd 9ffc dc3e
000000c0: 2222 f33e 2c64 cd3e ae01 243f 351c 9c3b
000000d0: 938f ba3e 5cee 013f a63c 6abe 2c43 8cbf
000000e0: 06f6 06be 718c a1be 0e36 ba3e 56bf febb
000000f0: 24e3 b53c 3a44 78be d447 4fbe 4a55 96bf
00000100: fef3 9d3d a0d5 7fbe 538b 31bb 754b 55bf
00000110: 8cc0 1f3f 190e 863e e636 e6be 4ef3 0ebf
00000120: cea4 4f3e aedd 04be bb66 9f3f 9a6b 0cbf
00000130: 1820 143e 0e50 853d b657 a53e ac3b 88bf
00000140: 3a70 b3be aa86 04bf 2f1e ca3d fdc8 823f
00000150: 9caf 0bbf 8c91 5c3e 8a51 42bf af9b 5c3e
00000160: debd 26be c704 88be 6bbe 9ebe 3174 66be
00000170: f909 823f 827b 7bbf c1e5 8d3e 353c 4bbf
00000180: e03e 1ebe 4eb2 01bf 2ed7 5f3f 6a3c cd3f
00000190: ee5d 303f f5bf b0be d70d ed3d e848 ebbd
000001a0: 6ad8 c13e 9968 e03e 1b69 f9be f4d3 2f3f
000001b0: 9d28 b93d 82b2 21bf 08a1 83bd d953 e7be
000001c0: 74e4 ff3e c425 52bf 939d 8abe 205d 84bd
000001d0: 717a 80be e8fc 443e 08c1 24be d4bd d13e
000001e0: 46b9 5dbf dde3 aebe 8b18 c63e cf69 223d
000001f0: 9be5 95be a4d8 5a3f af26 cfbe 08fb 4c3f
00000200: a42b 033e c845 583e 634d f8be 2d89 fabe
00000210: 03a8 6b3e c7a5 dc3e d81f f2be 8695 15bf
00000220: 2f85 6a3e 70cf 96be aaad 033f d09d c5be
00000230: d443 29bf 23bf bebd 9114 afbe e2ec f7be
00000240: 3067 90be 3c8c 263f 9bac 313e c84d 1b3e
00000250: 24c5 edbe 7349 cc3e e6be 51be deab fa3e
00000260: 89cb 12bc 8232 e03e cde7 38bd 9030 83be
00000270: 3c8e 24be 2555 b13e 5874 963e 731e 503e
00000280: 7022 87bf 8dd9 123c 2eda b9be a154 e5bf
00000290: 4601 6c3e 57c4 643f fd84 b73e 7aa5 f5bd
000002a0: 92d5 8bbd 5d62 ca3e 6857 8cbe fd8e 6f3d
000002b0: c440 8abf 9501 823e 17cc 553d 8a21 ec3e
000002c0: c6c3 d3be 3661 093e a92d d4bd 28a0 2c3f
000002d0: 99ee fb3d 5816 c33e 7e98 6d3e e3c7 4e3e
000002e0: 1a48 26bd 49a5 89bd d709 5ebf 855c 97bc
000002f0: 1de9 42be 4120 433f 0e09 0ebe 74e2 81bf
00000300: fb30 0cbf ab76 6dbc cbdc fcbe 706e 71bd
00000310: 38e5 943f 5b3f ddbd d589 e1be fb89 29bf
00000320: d079 c43e 4d84 a5be 8c74 2fbe 8eec 00be
00000330: 44d3 d1be c3a3 263f 0d0c 653e 4aa3 c63d
00000340: b093 203f 0496 d1be d0d1 d1bc c619 36bd
00000350: e852 603d f4c0 163f bc4d e13e 935c 4ebe
00000360: eabc 173e ad15 1fbb 19ea f53e 1212 aa3e
00000370: 6703 50be f499 3d3c 73ec 5b3f b318 e9bd
00000380: 85d5 79bc f9d6 d93c 0743 3abf 0559 42be
00000390: 0d56 a73e 80cb 2f3f ba62 0cbf 2545 ebbd
000003a0: 54a6 81be b266 51be cb5b b7be e74b 6ebd
000003b0: ce46 363c 93f2 65be 63ad 33be ee21 6fbe
000003c0: 42cf 4ebe 70fc 053f 6a1e b3be 4f86 42bf
000003d0: 4816 b43e e3b8 093d 4bf5 b0be 865b 0abe
000003e0: 1e7c 1d3d bb28 1abf c15b 223f 8bf6 253f
000003f0: 6f55 91be 72e2 0e3f affc 26bf 1146 153c

bias f4 [24]
0.015373313 -0.9055506 0.48566383 -0.11328962 0.19592163 -0.27060297 0.39332962 -0.74303204
-0.76401436 0.62677 -0.33751932 0.6991817 0.20743874 -0.9364824 -0.3537201 0.8204921
0.9415391 0.17178592 0.745155 -0.627809 0.16081193 0.3788219 0.43073082 0.17863053
00000000: 59e0 7b3c 2ad2 67bf eea8 f83e 6304 e8bd
00000010: ae9f 483e 798c 8abe 8062 c93e 5937 3ebf
00000020: 7296 43bf 0074 203f 55cf acbe 92fd 323f
00000030: d26a 543e 50bd 6fbf cd1a b5be c50b 523f
00000040: b508 713f a6e8 2f3e 7ac2 3e3f 17b8 20bf
00000050: e2ab 243e f2f4 c13e c088 dc3e ecea 363e

weight f4 [3, 24]
-0.35370722 0.0010709354 -0.6712957 -0.7062924 -0.55803317 -0.775945 -0.94115096 -0.7017233
-0.8234733 0.80736214 0.61069304 0.6223472 -0.6236582 0.6048775 -0.36345336 -0.8083904
0.7888801 -0.2966742 0.63499 -0.58336234 0.042143624 -0.83650994 0.41677734 0.82498693
0.35087997 0.8543045 0.14784937 0.50927114 0.71459323 -0.39820892 0.20500486 0.92607296
0.8338582 -0.5493741 0.008810812 0.1910815 0.28279755 0.95997876 0.8004676 -0.56222475
-1.0152408 -0.70424104 -0.94844246 0.7487307 0.71541405 -0.23525983 0.20658061 -1.0098407
0.26465267 -0.6642583 0.51241976 0.1305072 -0.08495331 0.8947283 0.57430816 0.028473714
0.65120155 -0.44664377 -0.46300346 -0.4552877 0.5239048 -0.9103097 0.235993 0.9855123
-0.17422792 0.67999816 -0.22854875 0.112737186 -0.42142117 0.73778445 -0.31742802 0.034081098
00000000: 1d19 b5be a15e 8c3a 09da 2bbf 94cf 34bf
00000010: 43db 0ebf 55a4 46bf 45ef 70bf 23a4 33bf
00000020: 25cf 52bf 49af 4e3f 6156 1c3f 2552 1f3f
00000030: 10a8 1fbf 40d9 1a3f 8f16 babe acf2 4ebf
00000040: 0cf4 493f aee5 97be b48e 223f 3c57 15bf
00000050: cb9e 2c3d 8425 56bf d763 d53e 5832 533f
00000060: 8aa6 b33e b3b3 5a3f d365 173e 985f 023f
00000070: 95ef 363f 0ae2 cbbe cbec 513e 1e13 6d3f
00000080: bb77 553f c8a3 0cbf 395b 103c deaa 433e
00000090: d7ca 903e 2bc1 753f 72eb 4c3f f6ed 0fbf
000000a0: 69f3 81bf 2449 34bf 20cd 72bf d1ac 3f3f
000000b0: 6025 373f f4e7 70be de89 533e 7642 81bf
000000c0: 8e80 873e d50c 2abf f12d 033f aea3 053e
000000d0: 00fc adbd ea0c 653f dc05 133f b541 e93c
000000e0: 25b5 263f 7eae e4be ca0e edbe 781b e9be
000000f0: a01e 063f 0e0a 69bf 26a8 713e 894a 7c3f
00000100: ce68 32be 5c14 2e3f af08 6abe c1e2 e63d
00000110: 84c4 d7be 71df 3c3f ed85 a2be 9f98 0b3d

bias f4 [3]
0.37381062 -0.3419316 0.27971256
00000000: 1b64 bf3e a911 afbe 7c36 8f3e
