data/NN_trained_models/trained_net_677.tar (torch_old, 6521 bytes, 4 tensors)

weight f4 [6, 12]
000000 35 1c b3 c0 fd 67 dd c1 43 8d 17 c2 cd 70 a7 bf
       -5.5971932 -27.675776 -37.88795 -1.3081299
000010 62 c3 f0 c0 62 7e 7f 40 17 b7 42 c0 37 4d c4 41
       -7.5238504 3.9920888 -3.042425 24.537703
000020 9a b7 50 c1 03 44 e5 c0 68 b3 14 c1 2f a6 fd c1
       -13.044825 -7.164552 -9.2938 -31.706144
000030 9e 9a 3d c1 26 7b aa c1 b1 44 46 41 1e c0 c4 c1
       -11.850248 -21.310131 12.39177 -24.593807
000040 55 06 12 42 48 00 b1 c0 76 8a d8 41 48 d9 d9 c0
       36.506184 -5.5312843 27.067608 -6.8077736
000050 1a 71 85 40 e9 7f 89 c1 32 42 d2 c0 90 34 71 bf
       4.1700563 -17.187456 -6.5705805 -0.9422083
000060 d7 a0 af c1 d6 12 2a 42 13 ad bc 40 f8 da 9f c0
       -21.953535 42.518394 5.896127 -4.9954796
000070 3b 40 ff 41 e7 0c d4 c1 49 02 5b 41 01 b0 b2 40
       31.906363 -26.5063 13.688058 5.583985
000080 23 0f 05 41 51 33 87 c1 6b 12 b0 41 b1 44 2c 40
       8.3161955 -16.900057 22.008993 2.6916926
000090 19 1f 95 c0 2b 30 01 42 42 47 04 42 c8 f1 a5 41
       -4.660046 32.29704 33.069588 20.743057
0000a0 71 8c 2f 42 a3 3c 36 c1 f4 df 6f c1 6d 2c a0 c0
       43.88715 -11.389804 -14.992176 -5.005423
0000b0 0e cd 3d c1 84 96 53 40 d0 3c 7a 40 3b 24 16 41
       -11.862562 3.3060617 3.9099617 9.383845
0000c0 5e 9e 1f c1 48 07 c5 41 6f b3 91 3f cc cf ae c1
       -9.976164 24.628555 1.1382884 -21.851463
0000d0 ea f4 fb 3f c7 16 4c c0 01 3c b0 3f a0 ef 0e c2
       1.9684117 -3.1888902 1.3768312 -35.73401
0000e0 07 68 1c 41 f8 b3 02 42 df cd 99 41 55 d1 53 3e
       9.775397 32.67575 19.225523 0.20685323
0000f0 ab 83 0b 42 d7 81 90 41 bf 44 57 41 a0 48 ad 41
       34.878582 18.063398 13.454284 21.660461
000100 38 11 85 41 ce 65 e8 41 95 64 01 bf ea 72 92 c1
       16.633408 29.04971 -0.505441 -18.30611
000110 43 74 73 40 c3 14 b8 c1 41 8f aa c0 4d 5e 11 c1
       3.803971 -23.010138 -5.329987 -9.085523

bias f4 [6]
000000 cf df 80 40 39 76 ea 41 70 a1 30 3f 60 80 c2 40
       4.0273204 29.307726 0.68996334 6.078171
000010 3b 4e dc 41 ab 83 54 40
       27.538198 3.3205364

weight f4 [3, 6]
000000 eb 1e 81 3f a8 97 c9 3f 28 ad 59 bf 6d fc d6 bd
       1.008756 1.5749407 -0.8502984 -0.10497365
000010 56 c0 f2 bf b5 d9 0c bf 50 36 92 bf 37 4d b1 bf
       -1.8964946 -0.55019695 -1.1422825 -1.3851689
000020 85 6e b7 3f 87 9a 65 bf 76 b9 81 40 8e 2f fa 3f
       1.4330603 -0.89688915 4.0538893 1.9545763
000030 b9 ac bd bd 5f 1d 27 3e 8f 61 06 be 0e 47 e8 3e
       -0.0926146 0.16319798 -0.13123153 0.4536671
000040 70 49 4b bf 86 6a 75 be
       -0.7940893 -0.23966417

bias f4 [3]
000000 01 40 29 40 83 5f d5 c0 c2 0f 0f 40
       2.6445315 -6.667909 2.2353368
