data/NN_trained_models/trained_net_8102.tar (torch_old, 10449 bytes, 6 tensors)

weight f4 [24, 12]
000000 97 27 83 3f 86 2c b5 3f 79 f7 53 be 14 96 00 c0
       1.0246457 1.4154212 -0.20699872 -2.00916
000010 ee 6b 01 c1 23 f3 c6 bf ac 4b 4c 3f ab 1e 81 c0
       -8.08885 -1.554295 0.79802966 -4.0349936
000020 d6 4b b1 be 8d e0 04 40 29 7e 15 3f e5 a5 93 bf
       -0.3462817 2.0762055 0.5839563 -1.1535002
000030 40 25 8a 3f eb f0 95 3f be 06 06 c0 27 fc 2b 3d
       1.0792618 1.1714147 -2.0941615 0.041988518
000040 8d 15 9e 3f 6b 51 b7 be ca dc 70 bf 78 6a 5c 40
       1.2350327 -0.35804304 -0.940869 3.4439983
000050 d8 b5 c5 bf 91 a1 1f bf 3a 0a a6 bf 16 01 ba 3e
       -1.5446119 -0.62355906 -1.2971871 0.36328954
000060 e7 64 14 be 21 62 f5 3f 9e 50 3e 40 72 9b ab c0
       -0.14491616 1.9170572 2.9736705 -5.3627253
000070 ca 54 96 3f 15 e3 42 bc 06 75 0d c0 53 f1 ac c0
       1.1744626 -0.011894961 -2.2102675 -5.4044585
000080 9e 4c 15 3f 6c 82 92 bc 9e d1 9b 3e cc b6 ba be
       0.58320034 -0.017884456 0.30433363 -0.36467588
000090 43 c2 62 40 08 d8 40 c0 eb 13 46 c0 b2 d0 62 3f
       3.5431068 -3.0131855 -3.0949657 0.88599694
0000a0 75 a1 2e 3f 8d 03 09 c0 0c d9 c8 3f 81 59 93 bb
       0.68215114 -2.1408417 1.5691237 -0.0044967537
0000b0 46 83 f0 bf 8d c2 bc 3e 1a 09 f5 3f 88 61 8f c0
       -1.8790061 0.3686718 1.9143403 -4.4806557
0000c0 1b 24 de 3d ef 82 78 3f 57 27 0f 40 e9 fa 92 40
       0.1084673 0.9707479 2.236776 4.5931287
0000d0 51 73 04 40 7d 49 49 40 55 8a b6 bf 0c c5 21 c0
       2.0695384 3.1451104 -1.4260966 -2.5276518
0000e0 11 e0 2d c0 64 cc ef bf c2 da 0b c0 f8 bb 60 bf
       -2.716801 -1.873425 -2.185227 -0.8778682
0000f0 be f1 dd 3f cc 13 9b bf 3d 43 13 c0 9f 70 0f c0
       1.7339399 -1.2115417 -2.300979 -2.2412488
000100 ff d5 9b 40 7d a3 fc be 38 8c 40 bf 0a 51 77 c0
       4.8698726 -0.49343482 -0.75213957 -3.8643212
000110 0c 05 8d 3f 80 27 1a c0 3f e0 3d 3f 81 78 ba bf
       1.1017165 -2.408661 0.741703 -1.4568025
000120 03 22 23 40 9c 79 2f 40 9d 8e 6b 3f 2b 96 4f 40
       2.548951 2.7417974 0.92014486 3.2435405
000130 e0 e6 80 bf 5b 2f bd be bb bf 28 3f 04 7f 09 40
       -1.0070457 -0.36950192 0.6591756 2.1483774
000140 e2 2c 45 bf a5 77 7f c0 5a 02 fc 3e 63 31 93 3f
       -0.7702161 -3.9916775 0.49220544 1.1499447
000150 e9 d0 88 3d 69 34 07 bf 58 41 00 40 8b d1 94 40
       0.066804715 -0.52814347 2.0039883 4.650579
000160 5a 47 10 c0 c3 8d 11 c0 15 e3 31 40 51 2e 3b c0
       -2.254355 -2.2742774 2.779485 -2.924702
000170 a5 b1 a8 bf 04 78 92 bf 39 c1 e8 bf 11 1d d7 3f
       -1.3179213 -1.1442876 -1.8183967 1.6805745
000180 62 20 ef bf ad 9f 41 40 a4 3f be 3f 12 3a 39 40
       -1.8681757 3.0253708 1.4863172 2.8941693
000190 8f a4 1c c0 b6 db d2 3f 9a 8c d1 3f db 96 dc 3f
       -2.4475439 1.64733 1.6371033 1.7233537
0001a0 fd c0 19 40 f7 a8 fa 3f 5a 6d 8f 40 58 8a 8e bf
       2.402404 1.9582814 4.4820986 -1.1135969
0001b0 1b 40 21 3e 3e 40 34 bb 4c ec 85 3f c3 db 2a 40
       0.1574711 -0.0027504112 1.0462737 2.6696632
0001c0 07 9b 61 c0 91 3e d3 bf a4 89 37 40 36 07 fa bd
       -3.525087 -1.6503469 2.867776 -0.122084066
0001d0 a7 23 0a 40 d4 2e 56 c0 e4 b9 4f be e7 61 37 3f
       2.158426 -3.3466082 -0.20285755 0.7163376
0001e0 6c 16 04 bf 93 a7 e9 3d 90 27 69 3f fe 7c b2 3f
       -0.51596713 0.11408915 0.9107599 1.3944395
0001f0 12 9e 92 40 df 12 f3 bf 48 42 73 c0 81 ea af 3f
       4.5817957 -1.8990134 -3.8009205 1.374344
000200 bf 33 ed 3f 65 9d b1 3f 28 6e 91 3f e6 b9 cf 3f
       1.8531417 1.3876158 1.1361742 1.6228607
000210 3b 65 86 3e 7c 07 67 3f 17 44 cf bf 71 ec 5e c0
       0.26249108 0.90245795 -1.6192654 -3.4831812
000220 de 08 51 40 eb b1 75 40 d7 e7 ca 3f cb 64 55 bf
       3.2661662 3.8389843 1.5852002 -0.8335692
000230 43 f7 34 c0 87 ec e4 3f f8 a0 a5 3f 06 85 77 bf
       -2.8275917 1.7884682 1.2939749 -0.9668735
000240 43 9d 29 40 e0 25 c3 3f a7 2f df bf 0c 2f 6b bf
       2.6502235 1.5245934 -1.7436417 -0.9186866
000250 c0 e0 93 bf 06 24 b2 3e 7a 3e 83 3f fe 2d 13 c0
       -1.1552963 0.3479311 1.0253441 -2.2996821
000260 78 ce b1 bf b6 fd 0e c0 5e 94 72 40 f0 be 50 bf
       -1.3891134 -2.2342353 3.7903056 -0.8154135
000270 fa e7 7d c0 b0 1b 2f 40 df c4 b7 bf a2 5b 9d 3e
       -3.9672837 2.736065 -1.4356955 0.30733973
000280 08 a2 02 c0 18 ef a9 bf e8 2c 84 3f 61 2a db bf
       -2.0411396 -1.3276091 1.0326204 -1.7122308
000290 f4 bd 29 bf 0b 2e 68 c0 73 0c 0f c0 4d 16 84 3f
       -0.6630547 -3.6278102 -2.2351348 1.0319306
0002a0 0a 1b 43 bf 6c b5 3a 40 90 46 26 be 5e 39 15 40
       -0.76213133 2.917323 -0.16237855 2.3316264
0002b0 f1 69 75 3f 9b 4f 79 c0 18 a6 15 c0 0c b4 36 40
       0.9586478 -3.8954837 -2.3382626 2.8547392
0002c0 3b fa 37 c0 54 5f a5 3f 1c 29 e8 3f 01 a7 1a bf
       -2.8746479 1.2919717 1.8137546 -0.6041108
0002d0 41 3e 88 be f5 47 aa 3f 02 0a fc 3f ee 24 c2 c0
       -0.26609996 1.330321 1.9690554 -6.067008
0002e0 bc b7 ab 3f 3f 60 d9 bf dd 2f a4 3e 31 15 f9 bf
       1.3415446 -1.6982497 0.32067767 -1.9459592
0002f0 48 05 e3 3f ff a1 15 40 c0 b4 cc 3f 4f 4d 47 40
       1.7735987 2.3380125 1.599266 3.1140935
000300 5d 6f 4b c0 91 5e bd bf e6 07 b3 3f ca 3b c8 bf
       -3.178672 -1.4794484 1.3986785 -1.5643246
000310 30 39 8f bf fe 18 12 c0 3e b6 6c bf 6c a1 41 40
       -1.1189327 -2.2827754 -0.9246558 3.0254774
000320 e7 19 57 bf 9c af 8b 3e 27 ba 83 3e ce 2b d5 bf
       -0.840239 0.27282417 0.2572796 -1.6653993
000330 e9 b9 7d c0 28 a9 95 c0 f5 f9 7c bf 20 15 04 40
       -3.964472 -4.676899 -0.98818904 2.0637894
000340 75 9a cc bf 00 6f 86 3e 3d 58 5f 3f d1 21 90 bc
       -1.5984637 0.2625656 0.87244016 -0.01759425
000350 c2 a2 b5 bf 99 f5 d1 3d af 2b 2d 40 0f 8d 89 bf
       -1.4190295 0.10251922 2.7057912 -1.0746173
000360 5d f8 3c 40 51 9b 0c 40 88 89 0e 40 7e f7 1b bf
       2.952659 2.1969798 2.2271442 -0.6092452
000370 91 89 99 40 2a 08 0b 40 b4 2d 34 3f c8 1b 98 40
       4.798043 2.1723733 0.7038224 4.7533913
000380 8a 3e 39 3f 57 94 2a bf a4 7a 55 c0 a1 09 55 bf
       0.7236105 -0.666326 -3.3356104 -0.8321782
000390 c0 70 02 c0 77 41 07 c0 83 13 28 bf fa 07 1a 40
       -2.0381317 -2.1133707 -0.6565477 2.4067369
0003a0 9c 0b 91 3f f6 d2 91 be 38 88 bf bf 95 1d a8 3e
       1.1331668 -0.28481263 -1.4963446 0.3283507
0003b0 1a 10 db 3f da 34 f4 bf 85 0c 1c bf 32 9e 4c c0
       1.7114289 -1.9078629 -0.60956603 -3.1971555
0003c0 ae 98 2b c0 2c 7f 88 bd b6 37 cc 3f 40 06 19 c0
       -2.6811938 -0.06664881 1.5954502 -2.3910065
0003d0 10 3c 36 3f 5b 75 43 be 8d 89 82 c0 22 7c 43 3e
       0.711854 -0.19087736 -4.079291 0.19090322
0003e0 e6 44 25 40 7b cb 2e be 27 37 18 c0 bb 1f 0f c0
       2.5823302 -0.17069809 -2.3783662 -2.2363117
0003f0 5b 59 88 c0 d8 c7 8b c0 df 82 76 40 48 e3 fe be
       -4.2609076 -4.368145 3.8517377 -0.49782777

bias f4 [24]
000000 d2 25 32 be 1b be ed bf 16 b7 34 be 21 05 8c bf
       -0.1739724 -1.857364 -0.17647967 -1.0939065
000010 da cf 2b 40 cb ee 31 bf f6 70 2b c0 9c bc 15 40
       2.6845613 -0.69504994 -2.6787696 2.3396368
000020 47 06 5d be 21 44 b8 bf 3f 38 c8 3f 96 eb 51 3f
       -0.21584426 -1.4395791 1.5642165 0.820001
000030 29 e2 09 c0 51 b2 df bf 55 d6 a1 bf 58 d7 6b 3f
       -2.1544287 -1.7476293 -1.2643534 0.92125463
000040 1c ea 36 c0 0a 18 c0 bc 8c e1 bc 3e 10 a0 8c 40
       -2.858039 -0.023448963 0.3689083 4.394539
000050 61 3c e9 3e 35 31 86 be 38 60 df 3d 4d 0f 57 3e
       0.45553878 -0.26209417 0.10907024 0.2100193

weight f4 [24, 24]
000000 da fd 8a be f6 d9 e3 bd ab ac bd be 27 29 2f 3d
       -0.27146798 -0.11125557 -0.37045798 0.042763855
000010 c1 7e 99 bc 47 43 13 3f 79 4e 79 3f b8 ad 14 3e
       -0.018737199 0.5752453 0.97385365 0.14519393
000020 ca 32 2f bf f9 ef 5c 3f 8e 8b ae be d4 b0 f9 be
       -0.6843687 0.8630367 -0.34090847 -0.48767722
000030 29 d1 02 3f f8 39 65 bf 39 32 53 bf 71 90 4d bf
       0.51100403 -0.8954158 -0.8249851 -0.80298525
000040 d5 b4 80 bf 66 b8 0f 3f 4e 79 30 bf 63 64 b0 be
       -1.0055186 0.56140745 -0.68935096 -0.3445159
000050 c7 28 0f 3f 9f 52 fa be db 37 65 3f 2f 43 68 bf
       0.55921596 -0.4889116 0.89538354 -0.90727514
000060 99 34 47 bc 30 93 47 3f 3a 75 81 be 7f 27 aa 3e
       -0.012158536 0.77958965 -0.2528475 0.33233258
000070 61 20 2a bf 83 57 ae 3f f3 d6 9d 3e 18 c4 9a 3f
       -0.66455656 1.3620456 0.30828056 1.2091093
000080 ce 43 bb be 65 90 54 3f 98 d0 18 bf 7a 5e 8f 3f
       -0.36575168 0.8303283 -0.5969329 1.1200707
000090 e6 ef 82 3f 03 f3 0c 3f b7 7e 77 be 32 fd 82 3d
       1.0229461 0.55058306 -0.24169432 0.063959494
0000a0 be b6 3f 3e 3f d4 5e 3c cc 89 93 3e 1c 27 4a bf
       0.18722054 0.013600408 0.28816068 -0.78965926
0000b0 b7 6c 74 3f 78 61 df 3e a6 31 85 3f 1e f4 60 be
       0.95478386 0.4362905 1.0405777 -0.21968123
0000c0 78 98 12 c0 7d ca f5 3e 26 39 18 be 3f e6 7e bd
       -2.290556 0.4800605 -0.1486555 -0.0622313
0000d0 bf d2 3c bf fc b0 f7 be 1e 1e 62 3e 6a 5a c2 bf
       -0.73759073 -0.48377216 0.22081801 -1.5183842
0000e0 10 6a af bf 4e a2 96 3f 2a 4a ae be c9 79 99 be
       -1.3704243 1.1768281 -0.34040958 -0.29975727
0000f0 bc d2 75 be 96 0f b9 bf 82 7b 59 be 49 26 21 c0
       -0.2400617 -1.4457881 -0.2123852 -2.5179617
000100 f9 3f d4 3e 8e 17 c7 be 5a 7a 8d bf e4 aa 9a 3f
       0.41455057 -0.38885158 -1.1052964 1.2083402
000110 3d 8c 00 bf 47 af 4e 3f 1f 1d 4d 3f e3 30 0f bf
       -0.50213987 0.807362 0.8012256 -0.5593397
000120 56 cc cb bf 95 5b 49 be 56 1f fc be 0d 10 a6 bf
       -1.5921733 -0.19663842 -0.49242657 -1.2973648
000130 4b 00 d0 be 7c 77 7b 3f 62 4d c2 3f ff 0b 17 c0
       -0.40625224 0.98229194 1.5179865 -2.3601072
000140 1f ca ff be 63 0a 88 3f ab 0c 56 bf 0f 52 b6 bf
       -0.49958894 1.062817 -0.8361308 -1.4243792
000150 9f 04 5a 3f 37 e5 8c bf 72 18 3b 3f 62 e9 d5 bf
       0.851633 -1.1007451 0.73084176 -1.6711848
000160 30 be 3a 3f f1 47 8b bf 0d 7a d6 bf e6 e6 5a bf
       0.72946453 -1.088133 -1.6755997 -0.85508573
000170 2f 0c 52 bf 25 81 22 40 5c 1d be bd 2a 52 b7 bd
       -0.8204984 2.5391324 -0.092829436 -0.089512184
000180 9c d2 63 3f 55 7c 19 3f 04 dc 19 bf 0f d5 a5 3f
       0.8899324 0.5995534 -0.6010134 1.2955645
000190 50 4b 0a bf e5 46 28 be 34 b0 8d bf 2c ec 30 3f
       -0.5402117 -0.16433294 -1.1069398 0.6911037
0001a0 6a a7 04 3f b5 2b 8c 3c 4d 29 42 3f 0f 0c 97 bf
       0.51817954 0.017110685 0.7584427 -1.1800555
0001b0 d3 08 f1 be 88 5b 0f bf 1d 9f 6e be fc 19 97 3f
       -0.47077045 -0.5599904 -0.23302884 1.1804805
0001c0 87 e7 a0 3f 65 13 c6 3e 8a 03 c0 3f 95 ac f1 bf
       1.2570657 0.38686672 1.500108 -1.8880793
0001d0 28 98 d5 3f 85 4a 0a c0 50 b3 06 be cb 65 60 3f
       1.6687059 -2.1607983 -0.1315434 0.87655324
0001e0 fc 00 95 be ae 13 78 3f 93 12 ab bf bc 4d 1f 3f
       -0.29102314 0.9690503 -1.3365043 0.6222799
0001f0 7e 37 a1 bf 1e 20 e3 3e 50 ca 2a 3f fa f0 8c be
       -1.259506 0.4436044 0.66714954 -0.275276
000200 46 0b cf bf fc 4c 84 3f 4e b4 54 bf 5e af 94 bd
       -1.6175315 1.0335994 -0.83087623 -0.07260011
000210 59 bb fb 3e 58 76 6b bf 92 1a d2 be e4 18 6c bf
       0.49166372 -0.91977453 -0.41035897 -0.9222548
000220 3c ef 74 bd 16 4f a7 3d 83 9a ce be 9b e3 b2 3d
       -0.059798464 0.08169381 -0.40352258 0.087348185
000230 e0 2d e4 be 3c 2b 38 3f ab 7c 64 3e 8f 97 46 be
       -0.4456625 0.7194097 0.22313182 -0.19393753
000240 2b c7 9a bf b1 a3 ec 3e 8b d8 90 be bd 56 06 40
       -1.2092031 0.46218637 -0.2829021 2.099044
000250 55 f2 30 c0 79 be 22 40 e8 ed 25 40 22 c5 5c 3f
       -2.7647908 2.5428755 2.5926456 0.862383
000260 3d 4d bb 3f a2 a0 16 3e 5b 57 b6 3f de 41 c9 3e
       1.4632946 0.14709714 1.4245409 0.39308065
000270 55 f7 00 40 b5 1e a1 bf 95 9d a5 bf 79 05 90 bf
       2.015096 -1.2587496 -1.2938715 -1.125167
000280 c6 98 0d 3f 8b 46 d4 bf 02 37 3f bd d4 c6 09 c0
       0.5531124 -1.6584028 -0.04668332 -2.1527605
000290 dd e5 81 bf ee d6 5d 3f b6 95 39 40 98 ba af bf
       -1.0148274 0.8665608 2.8997626 -1.3728819
0002a0 a1 e9 8f bf 2c 30 d2 3e 72 8c 7f c0 a5 21 ca be
       -1.1243173 0.41052377 -3.992947 -0.39478794
0002b0 2f 4d 9e bf ef 4a a0 3e 3b b8 35 bf 2b f0 bb 3f
       -1.2367305 0.3130717 -0.7098424 1.4682668
0002c0 e0 64 80 c0 56 26 02 c0 5f d8 4f bf a1 58 0f 40
       -4.012314 -2.0335898 -0.8118953 2.2397845
0002d0 f4 93 19 bf 72 e8 97 bf 94 7a 60 bf a0 68 30 c0
       -0.59991384 -1.1867812 -0.8768704 -2.7563858
0002e0 db 74 10 3f 11 0d 43 bf cd 41 96 bf bb 6c 20 bf
       0.5642831 -0.7619181 -1.1738831 -0.6266591
0002f0 1a 35 f1 3f 10 eb 92 40 b6 65 21 40 d8 61 cf bf
       1.884433 4.591194 2.521833 -1.6201735
000300 f8 47 54 3e 8f 58 de 3e 23 3d d5 3e c9 8d 6f 3f
       0.20730579 0.4342694 0.41648206 0.9357572
000310 71 58 5d 3e a4 9a 8a 3f be 44 55 3f d1 95 0e 3f
       0.21615769 1.0828443 0.8330802 0.5569735
000320 e5 21 49 bf 05 af d9 3d c0 d5 63 bf 02 b5 c8 be
       -0.78567344 0.106290855 -0.8899803 -0.39200598
000330 5c f3 6f 3f c1 1c f7 be a3 f9 4d bf ac 8a ed be
       0.9373071 -0.48264125 -0.8045904 -0.4639486
000340 a7 fe ea 3d 55 16 92 be 77 b3 f5 be 16 0d d8 3e
       0.11474352 -0.28532663 -0.47988483 0.42197484
000350 45 00 a1 3f 1f 58 0f bf 9b 2c 5e 3f 8c 5d 5d bf
       1.2578207 -0.5599384 0.8678681 -0.86470866
000360 1b 57 5c 3f 81 70 ad bf b2 41 54 bf 10 dc 5a bf
       0.8607041 -1.3549958 -0.82912743 -0.8549204
000370 84 35 49 3e 58 c1 6d 3f 11 14 1c 40 52 95 4e c0
       0.19649321 0.92873144 2.4387248 -3.2278638
000380 21 ab 9f 3e 5c 59 12 40 5c fd 26 be 84 22 88 bf
       0.31185248 2.286704 -0.16307586 -1.0635533
000390 ba 96 f0 3e a7 bf e9 bf 73 6a db 3f 4f 77 16 c0
       0.46989995 -1.8261613 1.7141861 -2.351032
0003a0 0b 35 03 40 82 60 a7 bf 2b 52 16 c0 55 f7 96 3e
       2.0501125 -1.3076327 -2.3487651 0.29485574
0003b0 b1 57 21 be b7 65 a1 3f c0 5b bd bf ce 1f e5 be
       -0.15756108 1.2609166 -1.4793625 -0.44750828
0003c0 aa 84 13 be b4 94 87 3d 69 eb 3e bf 07 69 b2 bd
       -0.14406076 0.0662016 -0.7457796 -0.087114386
0003d0 ec 23 44 bf 32 89 90 be 88 26 70 3e 31 f7 d8 3d
       -0.7661731 -0.28229672 0.23452199 0.10594023
0003e0 a1 29 61 bf 35 99 9c 3e b7 36 46 bf e0 d4 86 bc
       -0.87954146 0.30585638 -0.7742724 -0.016458929
0003f0 b2 73 5d bc ce bf fa bf b7 fc ec be ec 01 0f c0
       -0.013516353 -1.9589784 -0.46286556 -2.2344923

bias f4 [24]
000000 e7 f0 37 bf 23 10 07 c0 bc b5 a9 bf 05 ce 15 c0
       -0.7185196 -2.11036 -1.3258586 -2.3406994
000010 7b 3c 1c c0 b2 62 96 bf a8 69 77 bf dc b5 2d bf
       -2.4411914 -1.174887 -0.96645594 -0.6785562
000020 d1 a8 c3 bf d0 f9 35 c0 2c e6 a0 bf 96 4d 1b c0
       -1.5285894 -2.8433723 -1.2570243 -2.4266105
000030 1f 4b 20 c0 13 b6 11 c0 c0 68 af bf 71 fa b2 bf
       -2.504585 -2.276738 -1.3703842 -1.3982679
000040 17 c4 f8 bf 9c c8 89 bf c3 d3 31 bd 01 1e ba bf
       -1.9434842 -1.0764346 -0.043414842 -1.4540406
000050 20 0b 75 bf d1 63 3e c0 73 02 94 bf 6b 44 fa bf
       -0.957201 -2.9748423 -1.1563247 -1.955213

weight f4 [3, 24]
000000 fc 4d ec 3d fc 75 17 3e 77 8b fb bd 0e 1a dc 3e
       0.11538312 0.14791101 -0.1228246 0.42988628
000010 94 16 28 3f e4 e2 e0 3d 69 91 03 3f 2e 44 82 3f
       0.6565945 0.10980776 0.51393753 1.0177057
000020 5f ea 9c bd f7 9e 9e 3e 6d 74 21 3e 49 19 3d 3f
       -0.0766189 0.30980656 0.15767069 0.7386671
000030 9e 64 33 3d 91 2a 1a 3f 73 3c da 3e 08 d3 ea 3e
       0.043797128 0.602212 0.42624244 0.4586413
000040 bb 75 c3 3e fa 4b 3c 3e 4e b0 1c 3f 31 88 ba bd
       0.3817576 0.18388358 0.6120652 -0.09108008
000050 9c 86 88 3e c6 d9 41 3e 6f b3 69 3e 6c 2f 75 bc
       0.266652 0.1893073 0.22822355 -0.01496492
000060 4d 93 46 3e 66 c3 eb be e9 1c 53 3e 0a 4d 42 3d
       0.19392128 -0.46047515 0.20616497 0.04743675
000070 2b c8 02 bf b8 90 a7 bd fc 4e d4 be 5c 5b c4 bf
       -0.5108668 -0.081819 -0.4146651 -1.5340381
000080 3e 34 4c be f2 99 54 3f 4a aa 61 3c 8a b2 3f 3c
       -0.19941804 0.830474 0.01377351 0.011700282
000090 4e f9 d6 bd 85 e9 94 3d 94 bc dd bd 80 d7 8e 3e
       -0.1049677 0.07271103 -0.10826984 0.27898788
0000a0 f4 cb 95 bd c8 ac 6a 3e 4f 65 ac be 1c f5 cc bd
       -0.073142916 0.22917473 -0.33671042 -0.100076884
0000b0 07 70 66 be 10 79 8a ba f8 40 17 be 4b 75 16 3f
       -0.22503673 -0.0010564644 -0.14770877 0.58772725
0000c0 6b f6 0f be 80 48 c4 3d 38 fd 4e bc 66 99 2f bf
       -0.14058845 0.09584141 -0.012633614 -0.6859344
0000d0 0f e2 e4 3d 46 a1 6a be 09 7f 10 be c4 c6 14 bf
       0.1117593 -0.22913083 -0.1411096 -0.5811579
0000e0 86 30 64 3e 49 84 0b bf a9 0a 8d be c6 77 1a bf
       0.22284135 -0.54498726 -0.27547196 -0.6033901
0000f0 f9 49 ae 3e 02 dc 62 ba 62 da 8e bd 69 8a 50 bf
       0.34040812 -0.00086539995 -0.06975247 -0.814612
000100 03 4d 01 be ce 6c b7 3a 90 f3 d5 be 1a 6f 0c 3c
       -0.12627034 0.0013994218 -0.41787386 0.008571411
000110 de da 3c bc 6d 84 17 3e 01 e8 4b be d0 ca e7 be
       -0.011526791 0.1479661 -0.19912721 -0.4527192

bias f4 [3]
000000 b0 d5 d6 3f 5d 4a 35 c0 02 43 e7 bd
       1.6783962 -2.8326638 -0.112920776
