data/NN_trained_models/trained_net_12810.tar (torch_old, 19957 bytes, 8 tensors)

weight f4 [36, 12]
00000000: 7965 003f 51fe 213f 64ea 60be 5375 383e
00000010: f403 353e 5f1d 0dbe 688d 433e d2fd 883d
00000020: 95a0 8d3e b022 d83e 86ee b13e 0cb8 c0be
00000030: a83b ca3c b3d3 03bf 2b86 debd 793a 8c3e
00000040: da9e b8be e795 83bd 4cb8 f7bc a85b 663e
00000050: 1675 03be 231a 0bbe 7d51 81bd 98b2 713e
00000060: 4811 16be 8294 dc3e 5fa5 533e c7af e83e
00000070: c51c cd3d 72b8 f1bd a9d3 e2bd b275 273d
00000080: aaed 9f3e 2a83 793d 7ba5 7b3e c789 5a3e
00000090: b5b7 0dbf 44d4 8f39 f6a2 26bf 9f3e 4b3d
000000a0: 42a2 1bbf 56cf ef3d ba64 2bbe 0fa5 4c3f
000000b0: f5ac 88be 51c3 a8be 7e47 6c3d 2d72 45bf
000000c0: 6167 dbbd f8e1 ebbe 5693 c3be cc91 173e
000000d0: e321 803e 521b 7dbe 5c6b dabd 9156 0c3f
000000e0: a7d8 a2be e082 593b 7821 5abc 031e 0ebe
000000f0: f9d3 30be ccb2 d8be daae f7bd 82bc c3be
00000100: d29b 183e f717 4a3e e47a 6e3d 359c d3bd
00000110: 59a2 a9be e19b 1e3d 61ce 54bc 53bd 1abe
00000120: edcd 083f 9836 003d 8672 bd3c dc22 d4bd
00000130: 7e7a 3a3e a53a afbe 8f64 e0be 85b1 c3be
00000140: 60c6 ec3e 6b8f 973e 260a b1be 5173 a4be
00000150: e00c 2cbd 91fb 2d3d 590f 3fbd be5a 7dbe
00000160: 241e d1be 1517 353e 8591 1b3f 60fd bebe
00000170: 2234 d93d 646f 80be 8c77 40be ab6b 29bd
00000180: 0e75 8d3e fc9d 95bd 4146 b33e 87d8 973d
00000190: 9b68 0d3d de9a d4bd 59da f8bd 36eb e43d
000001a0: 5149 41be 30a0 47be 543e 2fbe 867f e23d
000001b0: 4759 42be 2931 31be 5c56 c63e 1a83 44be
000001c0: d51b cebd 5351 f3be 2345 6fbd 1fe6 683e
000001d0: 200b 1d3e cb4a 703e 3afb 113e 6b94 f63d
000001e0: 32d4 a93d 2597 f53d 448a cebd 195d 31bf
000001f0: 8ac2 3b3d 36bb 493e 2e11 95be dc77 1d3e
00000200: ad1a 1ebf 034a 00be 4e31 dc3e 1bd7 b1bd
00000210: cd65 ec3b 4ddd 6b3e c0eb cabe 0d20 d6be
00000220: 99c6 d33d 1658 b9be 71e8 f53e a544 763d
00000230: 0825 243d c02b a6be 2656 fd3e 9c86 c83e
00000240: f032 10be cb59 29be 8658 3abf 797b 7d3e
00000250: a007 c9bd e5bb 78bd 0c76 babd add0 2c3f
00000260: df84 f13d a3d1 f23e 06af 97be ea3a 2abf
00000270: 05f8 f03e 2e6e 96be 9c9b 92be e987 68be
00000280: a5f7 cf3e 6c53 403e 4ce3 27be 0cc2 e93c
00000290: 8fcc de3e 0c24 2c3e 86e6 90be 71d4 8a3e
000002a0: 0268 353e 8c9d 3c3e 87dc 5a3e 8ea3 873d
000002b0: b21a 2e3e a751 813e 123b febe e865 57bf
000002c0: dbf6 abbe b2e5 33be b82a 04be 2220 e83d
000002d0: e61c bebe 7ef4 d03d 3a11 0a3c 275b e2bd
000002e0: df0d b6bc a624 763e ec4a 07be 2917 fc3e
000002f0: 58d6 233e d4da 93be 4f83 eb3e 3f00 8c3e
00000300: 6866 a83e 3c34 c03e d5e7 cfbc 8f4a 1cbf
00000310: 7e24 b5be 9fa0 d63e 0653 843e 3bf8 e6be
00000320: 5680 a73e 3d6c 8e3e f993 c63d 2c5e 2bbf
00000330: c1b8 b43e 06c3 9e3e d249 b33e b918 273d
00000340: 9b5c 65be 7ace 55be e3f3 c3be c713 42be
00000350: 5b6c b33e 9971 513e 81b1 993d e06e cbbb
00000360: 7054 423d 7837 48be 6edc c5be d3fa 90be
00000370: 55c7 f53e 5581 2b3e d7ed 98be 7fc3 a1be
00000380: ffa8 34be 8134 37be 7243 013b bf81 bf3d
00000390: 2974 10be 866b 0cbe 2a16 8ebe 4383 db3b
000003a0: e089 9238 712b b5be 497f fdbe 383c 99be
000003b0: a374 4b3e 5fd9 be3e e920 c33d 96a4 05bd
000003c0: d51f 98bd e82f e73e 8cbb 313e d823 5f3e
000003d0: 8195 ebbd 093e 163d 5b6c 6abe 402b 3c3e
000003e0: 6674 1dbe 6027 7e3d ed3a 0bbd 637c 823e
000003f0: 0b65 6d3e 1f2f d83e 253e 0fbd 8e21 a73e
0.50154835 0.6327868 -0.21964413 0.18013506 0.17677289 -0.13780735 0.19096911 0.066890374
0.27661577 0.42213964 0.3475229 -0.37640417 0.02468665 -0.514949 -0.10865434 0.2738836
-0.36058694 -0.06425076 -0.030239247 0.22495902 -0.12837633 -0.13584189 -0.06314371 0.23603284
-0.1465503 0.43082052 0.20668553 0.45446607 0.10015253 -0.11802758 -0.11075527 0.040883727
0.3123601 0.060916103 0.24574845 0.2134162 -0.5535844 0.00027433236 -0.6509241 0.049620267
-0.6079446 0.11709468 -0.16737643 0.7993936 -0.26694456 -0.32961515 0.057685368 -0.77127343
-0.10713077 -0.46070838 -0.38198346 0.14801711 0.25025854 -0.24717453 -0.106650084 0.5481959
-0.31805918 0.003318958 -0.013313644 -0.13878636 -0.17268361 -0.4232391 -0.12093897 -0.38229758
0.1490319 0.19735704 0.058222666 -0.103325285 -0.33131674 0.038722876 -0.012988658 -0.15111284
0.5343922 0.031302065 0.023125898 -0.103582114 0.1821079 -0.3422443 -0.4382672 -0.38221374
0.46245098 0.29601607 -0.34578055 -0.3211923 -0.042004466 0.04247624 -0.046645496 -0.24741647
-0.40843308 0.17684586 0.6076892 -0.37302685 0.10605647 -0.25084984 -0.18795604 -0.041362446
0.27628368 -0.07305524 0.35014537 0.07414346 0.034523588 -0.10381101 -0.121510215 0.111776754
-0.18875624 -0.194947 -0.1711362 0.110594794 -0.18979369 -0.1730391 0.38737762 -0.19190636
-0.10063902 -0.47522983 -0.058415543 0.22744034 0.15336275 0.23466031 0.14255992 0.12040027
0.08292426 0.11991719 -0.10084966 -0.6928268 0.045839824 0.19700322 -0.2911467 0.15377754
-0.61759454 -0.12528233 0.43006366 -0.08683606 0.007214284 0.23033638 -0.39632988 -0.41821328
0.10340614 -0.36200017 0.480289 0.06012406 0.04007438 -0.32455254 0.4947979 0.391652
-0.14081931 -0.1653816 -0.72791326 0.24754132 -0.098159075 -0.060726065 -0.09104547 0.67505914
0.11792921 0.47425565 -0.2962572 -0.66496146 0.47064224 -0.29380935 -0.28634346 -0.22708096
0.40618625 0.18781823 -0.163953 0.028534912 0.4351544 0.16810626 -0.28300875 0.27115205
0.17715457 0.18419474 0.21373187 0.066229925 0.17002371 0.25257608 -0.49654442 -0.8413987
-0.33586773 -0.1756809 -0.12906921 0.11334254 -0.37131423 0.10202883 0.008426959 -0.11052542
-0.022223411 0.24037418 -0.13212174 0.4923642 0.15999734 -0.2887789 0.45998618 0.27343938
0.3289063 0.37539852 -0.0253791 -0.6105127 -0.35379404 0.4191942 0.25844592 -0.4511126
0.327151 0.27816954 0.09696192 -0.6694057 0.35297206 0.31008166 0.35017258 0.04079506
-0.22398607 -0.20879546 -0.38272008 -0.18952857 0.35043606 0.2045349 0.07504559 -0.0062082857
0.047443807 -0.1955241 -0.38644737 -0.28316364 0.4800364 0.16748555 -0.29868957 -0.31594464
-0.17642592 -0.17891122 0.0019724038 0.09350919 -0.14106812 -0.13712892 -0.27751285 0.006698997
6.987504e-05 -0.35384706 -0.49511173 -0.29928756 0.19868712 0.37275216 0.095277615 -0.032627665
-0.074279465 0.45153737 0.173567 0.21791017 -0.11503125 0.036680255 -0.22892897 0.18375874
-0.15376434 0.06204927 -0.033991743 0.25485525 0.23183076 0.4222345 -0.034971375 0.32642788

bias f4 [36]
00000000: 4f78 723d 733b 0bbe df38 2abe 1c5e a93e
00000010: 6f82 453d 8849 073d 0aca 0c3e da53 aabd
00000020: 5c08 803c 1b33 7c3d bfd9 dbbd b109 b8be
00000030: 26c2 5cbe 84cd 57be c040 7f3d 9e65 043c
00000040: bf0a b9bc 0b62 383d aa65 273e d16a e13c
00000050: ee03 48be b1a8 e2bd b8ce 743e 03cb 323e
00000060: 69e4 253e 9d52 9bbe aae9 02be ed8e 56be
00000070: e7bd 1f3e 439d 613d 6321 363e 55f3 6fbe
00000080: 8a7c 8c3e 4c9f d7be 07a8 75bd e23a 2cbe
0.059196766 -0.13596897 -0.16623257 0.33079612 0.048220094 0.03302911 0.13748947 -0.08316775
0.015628986 0.061572175 -0.10734891 -0.35944894 -0.21558437 -0.21074492 0.06231761 0.008080868
-0.022588132 0.045015376 0.16347376 0.027516754 -0.19532749 -0.110673316 0.23906982 0.17460255
0.16200413 -0.30336466 -0.12784448 -0.2095296 0.15599786 0.055081617 0.17786174 -0.23432668
0.27438766 -0.4211372 -0.059974696 -0.16819337

weight f4 [36, 36]
00000000: 150b 873e 661a c03e 6453 493e e039 f83d
00000010: 8a50 363d 7d2c 8bbe 7d7c f53e e63f 95bd
00000020: c969 99bd 504b 42be 5808 793e ef8f ae3e
00000030: 8f75 623e 41a6 f53e 0c77 8b3e dfab 373d
00000040: bf81 91be 3fc2 fa3e 3972 093e e678 063e
00000050: 0fea b83d dd7f b73d 5fda 20bd 062f d5bd
00000060: ba4d 05bf 4c98 a63d 0c58 6abe 67bb 5bbc
00000070: 1a65 cebe 34bd 73be c0eb d3be d6aa 213e
00000080: 212a 57be 7ed6 433e dab3 eb3d af85 843e
00000090: e39d 54be d1f1 793e 5019 48be e297 c63e
000000a0: aa51 3f3e a089 9abe 7510 333e 4d45 35be
000000b0: 1cdf 933e 43fc 913e 8b48 793c 4272 95bc
000000c0: 1bd0 0bbd 3c2e b8bd 5e65 273e 7451 34bd
000000d0: dc5a 8bbe f6ce a03b ebeb 20bd a31f 4b3e
000000e0: 6b57 443d eff5 24be fe07 883e 73b2 573e
000000f0: 6c94 3bbe 2793 993e ba5a e13e 9189 adbd
00000100: 3ff2 fabc 68fe fb3d 984e b1be f994 e43d
00000110: ad4e 40be b291 66be 5337 0f3e e775 99bd
00000120: 42d7 71be 4218 2cbd 56c2 6b3e db55 ebbe
00000130: 1ed3 b7bc 9588 a0be bd04 6bbe f409 36bd
00000140: e131 1fbd 44ab 8b3d 5606 cbbd a4d6 afbe
00000150: 7765 a8be 8446 1a3e 2889 c0bd c526 993e
00000160: bd88 843d 226d adbc 12d6 07be ad11 ddbc
00000170: a431 783e 9a18 013c 3b4a 863e 32ad 66be
00000180: 5830 823e f15e 113d 792d b2be dfcc fd3d
00000190: 3136 bc3b 029a 2cbd a4b6 693d 3394 013e
000001a0: 59af 63bd 1b91 fbbd 1c71 d8bd 0131 5f3e
000001b0: 355a a1bd de47 953d 877d b93d 1a79 fe3d
000001c0: 8122 f2bd 3a50 7bbc 52e2 213f 64e2 bbbd
000001d0: 5ec9 debd 0c07 7cbc a304 b2bd 9ac0 b4bd
000001e0: 7dbc 793e e338 2d3e e213 d1be 027c babe
000001f0: 1aa2 893e 1474 d93d 237c ebbc 159e 9b3e
00000200: b163 1ebd 4ce8 cc3e e5bf 2e3d 74dd 9e3d
00000210: 7d86 12be e227 703d 7356 11bf 06ca b3bd
00000220: 3634 b53d 1ddb 873d e32e 643d de04 43bd
00000230: eeff c1bc b740 263f d485 a33d d672 9abe
00000240: f9b0 ab3e 600e 4b3e 67b1 5cbe 73a1 1f3d
00000250: f694 cebe 1ea2 7e3e 0d88 f83d 76da b03d
00000260: d3cd fa3c 6df3 4cbd b266 983e f2df 113e
00000270: 4a40 28be 8423 593d 5134 5d3e 66cf b3bd
00000280: 0595 a8bd f18e 893d 3fc0 783e 5725 cbbe
00000290: 7706 8dbd db0d 653d 4e32 9cbe 46d1 e03d
000002a0: 6cc9 0dbf 7f30 813e dfea 9e3e 0c5d b63e
000002b0: b1dd e4be fb73 6e3d 636c 17be 1995 a63e
000002c0: bf01 dcbb 4ad9 1a3e 26e0 4b3d 0338 f9bd
000002d0: 21be 4dbe 53c1 523e b1b9 4a3d 1550 373e
000002e0: fb75 4e3e 825e 393d dc8d 26be e117 b5be
000002f0: 7d22 88bc ed91 9e3e b9e4 ad3d 5035 97be
00000300: 0257 083e e31b a5be 7c06 b0bd 80b5 d7bc
00000310: e8ec 04bf f5cf d43d 228c 4a3d be4f 443c
00000320: ad12 ec3d ab07 48bc 5d7d 303e 0472 cdbd
00000330: 86e3 6ebe e34f 8b3e bb90 8f3d 4f09 89be
00000340: 96a2 df3d 8cd2 c23d 9d50 b43c 1bc2 d93c
00000350: 5157 b33d 2d64 a03d 0c75 333e c25f cdbe
00000360: 8082 54bd e97f 7b3e 46dd 7cbe 6a56 d83c
00000370: e142 8abb 9bb7 303e b479 92bd 2e04 853e
00000380: d906 e7bd c2ac 9f3e 3511 413d bc7b 273e
00000390: 5430 443d e993 323e 968c 69be 645a 903e
000003a0: 4a14 02bf f855 34bd 1f3e 133e 7672 5fbe
000003b0: 209d 31be 31dd b9bd dba0 4d3e ec8f 773a
000003c0: b4c0 fabe 366b 913e 2ed1 d83e 666f 1d3d
000003d0: 6579 ccbe edd0 9e3d da5a c9be 17d2 813d
000003e0: 0e6b 24be d316 fd3d 989b 383d a2b6 fcbd
000003f0: 562e 8f3d f31c 73be 4313 493d fe96 8a3a
0.26375642 0.3752014 0.19660717 0.12120414 0.0445104 -0.2718238 0.4794654 -0.07287578
-0.0749088 -0.18974042 0.24319589 0.34094188 0.22115158 0.47978404 0.27239263 0.044841643
-0.284193 0.48976323 0.13422479 0.13132057 0.09029018 0.08959935 -0.039270755 -0.1040936
-0.52071726 0.08134517 -0.2288515 -0.013411379 -0.4031151 -0.23802644 -0.413908 0.15787825
-0.21012165 0.19124791 0.11508913 0.25883242 -0.20763354 0.24408652 -0.19540906 0.38787752
0.18683496 -0.30183125 0.17486747 -0.17702217 0.28881156 0.28512773 0.0152150495 -0.018242959
-0.03413401 -0.089931935 0.16347262 -0.044022992 -0.27217758 0.004907484 -0.03928749 0.19836287
0.04793493 -0.16109441 0.26568598 0.21064167 -0.18318337 0.2999508 0.4401453 -0.08473504
-0.03063309 0.123043835 -0.34630275 0.11161227 -0.18780012 -0.22516516 0.13985948 -0.07493191
-0.2361727 -0.04201532 0.23023352 -0.4596394 -0.022439536 -0.31354204 -0.22951026 -0.044443086
-0.038865928 0.06819776 -0.09913318 -0.34343445 -0.32889912 0.15065962 -0.094011605 0.2991239
0.06471393 -0.021170203 -0.13265255 -0.026985968 0.24237686 0.007879401 0.26228508 -0.22527006
0.25427508 0.035490934 -0.34800318 0.12392592 0.005743765 -0.04213906 0.057058945 0.1265419
-0.055587146 -0.12283536 -0.10568449 0.21796037 -0.07878534 0.07289098 0.090571456 0.12425442
-0.11822987 -0.015338952 0.6323596 -0.0917404 -0.108782515 -0.0153825395 -0.08692291 -0.08825798
0.24388309 0.16916232 -0.40835482 -0.36422735 0.26881486 0.10617843 -0.028745716 0.30394045
-0.038669292 0.40020978 0.042663474 0.077570826 -0.14309116 0.058631785 -0.56772536 -0.08778767
0.08847849 0.066335894 0.055708777 -0.047612064 -0.023681607 0.64942497 0.0798451 -0.30165738
0.33533457 0.19829702 -0.21552049 0.03897233 -0.40348023 0.2486653 0.121353246 0.08635418
0.030615723 -0.050036836 0.2976585 0.14245585 -0.16430774 0.053012386 0.21601988 -0.087797925
-0.08231548 0.06716717 0.24292086 -0.39676926 -0.06885999 0.055921417 -0.3050713 0.10977416
-0.5538547 0.25232312 0.31038567 0.35617864 -0.44700387 0.058216076 -0.1478744 0.32535627
-0.0067140753 0.15121952 0.04977431 -0.121688865 -0.2009206 0.2058156 0.049493495 0.17901643
0.20162193 0.045256145 -0.16265053 -0.3536978 -0.016618008 0.30970708 0.08490891 -0.29532862
0.13314441 -0.32247838 -0.08594987 -0.026331663 -0.5192399 0.10391227 0.049450047 0.011981903
0.115269996 -0.012208859 0.17235322 -0.100315124 -0.23328981 0.27209386 0.07010027 -0.26764914
0.10919683 0.09512815 0.022011096 0.026581815 0.08756889 0.07831607 0.17525119 -0.4011212
-0.051882267 0.24560513 -0.24693784 0.026408393 -0.0042193984 0.1725754 -0.07152119 0.2597975
-0.11280603 0.3118649 0.04713555 0.16355795 0.04789765 0.17439236 -0.22807536 0.28193963
-0.5081221 -0.0440273 0.14379166 -0.21821007 -0.17345095 -0.09075392 0.20080893 0.0009443748
-0.48975146 0.28402108 0.4234709 0.038436316 -0.39936367 0.07754693 -0.39327127 0.063388996
-0.16056463 0.12357869 0.04507026 -0.12339522 0.0699126 -0.23741512 0.049090635 0.0010573564

bias f4 [36]
00000000: 1de2 8a3d 03a0 69bd d278 71bd a678 12be
00000010: b237 1cbd a655 0c3e 2b09 acbc a683 0fbd
00000020: 5327 853d a331 0f3e abb7 383d d40b ad3c
00000030: 5118 163d 0e33 1dbe 6e11 9cbc 5e68 5e3d
00000040: 50d9 0b3c 28ba 94bd 7d4a 253d d81b 193e
00000050: 7a78 083d b9aa 90bd a25b 0a3c f234 873a
00000060: 04d0 833d e1d9 89bd cd9b 613e d2cf 8c3d
00000070: 847a 8dbc a690 9dbc 62b5 05bd 859d e93d
00000080: 839c 713d d184 3e3e 311f 983b 8604 0f3e
0.06781409 -0.057037365 -0.058953114 -0.14303836 -0.038139053 0.13704547 -0.021000465 -0.03503766
0.06501641 0.13983779 0.045097034 0.021123804 0.036644284 -0.15351507 -0.01905128 0.05429875
0.008535698 -0.07262069 0.04035424 0.14952028 0.03331802 -0.07063813 0.0084446985 0.0010315462
0.0643616 -0.0673101 0.2203209 0.06875576 -0.017270334 -0.019234013 -0.032643683 0.114069976
0.05898715 0.18605353 0.00464239 0.1396657

weight f4 [36, 36]
00000000: 3674 aebe 4a93 6cbe 3e8f 893e 0568 18bf
00000010: 3fb1 99be 1ed2 7dbe b7e6 863e 2a80 e5bd
00000020: b51c aabe 0704 1a3e adbe abbe ec3a 533d
00000030: e994 553e acca 9a3e b51a 20be eae2 c7be
00000040: 8add d3be f2d4 993e 01ac 243e 9e8f 1fbf
00000050: 1bcd 673e 7147 883e 2959 cb3e 8e0a 1d3e
00000060: adef 403e 585a fabc 1fb2 14bf 6889 18bf
00000070: 8f5a 43be dba4 dabc 1bc5 873e 2c09 00bf
00000080: e4ba b23d a865 c6be 62d0 53be 6125 a4be
00000090: 178d c93e dd8f a83e 3c12 79be 0395 b33c
000000a0: d958 db3e d148 283e 7dd6 bd3e 276a 98be
000000b0: 9e96 123d 1618 17be 1faf 833e 4ba4 90be
000000c0: 247d 44be 82ca 85be 1d6d 503d caf0 823e
000000d0: 68e3 84be 28ec 16bf 7ece 36be 33f3 213d
000000e0: 9b42 26be 4e7d 07bf 7ccf 653d c0b3 613e
000000f0: 253b 51be 3b2c 45be c2de 9f3e 14c1 2a3d
00000100: 7160 b33e add5 3abe 1588 acbe 9aa9 973e
00000110: cd1c 86be 2696 57ba 43ce 8cbe 0031 923e
00000120: eb30 49bf f06a f6bd ed19 5f3d b14f 883d
00000130: cba4 dcbe 6d4c e73d fab2 12bf ddf8 6e3e
00000140: 4a4c 86bd a451 aebd 7a46 09be cadf 5d3d
00000150: d8f2 473e 0d77 263e 88ad 98bd f27a 043e
00000160: 372c b93e e1c1 383e 0a69 133e ad2f 203e
00000170: 2bbb 203e 77d7 1a3e ff92 8dbd bf58 07bf
00000180: 1b11 9f3e d881 da3d 3848 04bd 1caf 483e
00000190: e03f debe 532c 193e 218e 8e3d de3d cebe
000001a0: c4a6 893d ad60 07bb db63 e83e 3f3e 95bd
000001b0: f2ee ec3e 9fad 983e b5dd d2be 9f4f f8bd
000001c0: 2621 023f 3919 4f3e 2368 bb3e 829e 7cbe
000001d0: a45b b03d 2f8d 68be 16db ca3d 44c9 ebbe
000001e0: 3bb1 46be c380 b2be ecae b4bc dc30 573e
000001f0: 63da 45be 727f 04bf c315 81be d38b 483e
00000200: f603 9dbd fc9d 22bf 204d 2abe 07ff 843e
00000210: aec2 87be 4312 b9be d3ac 0c3e f3e7 edbd
00000220: 8bca c33e cc76 22be 5cd4 11be dc0f ec3e
00000230: f2f1 99be a438 613e 59cf 98be f60f 5d3e
00000240: 0eb2 46bd 6d19 353e 9475 5bbd fd82 583f
00000250: 4a34 8a3d c65b 1a3f da0b c1be e765 bf3d
00000260: 90a5 b53e d102 51be 6429 f23e ac70 3dba
00000270: f88b 89bd 5d96 f8bd 79b9 8e3e 9f2a bc3e
00000280: 7bc2 023f dbf4 29bd dce5 10bd 9603 5f3f
00000290: 6d2f 1cbe 3aed 46bd 5e85 a5be 1157 16be
000002a0: 3d6b 70be 8a83 043e fee6 153f 77ed d83e
000002b0: ba1a 673e 198f 923d cbe2 5cbe c1cf 8c3e
000002c0: 1aa3 513c 8746 0c3f 00e6 0e3f b392 e43e
000002d0: ee18 78be 6ea4 143d ed60 203e 28e4 553f
000002e0: d58e 1ebe ce04 ad3e cfee c3be be26 653e
000002f0: 663c 163f 7bec 9abd 5dbe cb3e 2832 763d
00000300: 41a7 073d 3bb3 bebd a75f ac3e ef5f 043f
00000310: d654 f23e 1246 d9bd b841 cebd 5342 353f
00000320: e310 5cbe 2121 98bd 268d 8cbe 055b a2be
00000330: 193a 6c3c 2325 8c3d 302b 1c3f 6e97 133f
00000340: e1a6 e3bd 4012 2abe d0ce a6bd ded1 3e3e
00000350: cce2 17be 635e 683f 2899 153f 2f6c 473e
00000360: a545 6a3e f4e0 0ebe 8fbd e0bb 97c3 7cbf
00000370: ecc1 2c3e 59d1 06bf b22e 863e 8d50 cbbe
00000380: 1ca2 ddbe 88d2 083e 4de7 aebe 890f 65be
00000390: ba7e 153d e5cd c4bd eb92 cfbe 1baa 90be
000003a0: c91d aebe b69a 6dbc 5707 a6bb 9205 35bf
000003b0: 96f8 6d3e e3d6 6c3b a786 b93e 4a20 ff3e
000003c0: 2328 40bd 5324 54be 2562 05bf c45d 32bf
000003d0: e87f 2f3c 2a0d 8a3d 302e 143d b971 0fbb
000003e0: 02cf 923d b090 6bbf e9e7 edbe 29d5 97be
000003f0: b271 58bf 300b 96bd 2d47 e33d 7d2d c2bc
-0.34073037 -0.23103061 0.26867098 -0.5953372 -0.3001804 -0.24787185 0.26347896 -0.11206086
-0.33225027 0.15040599 -0.33543912 0.051569864 0.20857586 0.3023275 -0.15635188 -0.3904031
-0.41379958 0.30045277 0.1608124 -0.6232852 0.22636835 0.26617005 0.3971646 0.15336058
0.18841429 -0.030560657 -0.5808429 -0.59584665 -0.19077514 -0.026689937 0.26517567 -0.50013995
0.08727053 -0.38749433 -0.2068496 -0.32059768 0.39365456 0.3292226 -0.24323362 0.02192164
0.42841223 0.16434027 0.37077704 -0.29768488 0.03578817 -0.14755282 0.25719544 -0.28250346
-0.19188362 -0.26131064 0.05088531 0.25574332 -0.25954747 -0.58954096 -0.17852208 0.039538573
-0.16236345 -0.52925575 0.056106076 0.22041225 -0.20432718 -0.19255154 0.31224638 0.04168804
0.35034516 -0.18245573 -0.33697572 0.29621583 -0.26193848 -0.0008223973 -0.27501115 0.2855301
-0.7859027 -0.120321155 0.054468084 0.06655825 -0.43094477 0.11293874 -0.57304347 0.23337121
-0.0655752 -0.085116655 -0.13405791 0.0541685 0.19526231 0.16256352 -0.074549735 0.12937525
0.36166546 0.18042709 0.14395538 0.15643187 0.15696399 0.15121256 -0.06912803 -0.5286979
0.31067738 0.10669297 -0.032295436 0.19598049 -0.43408108 0.14958315 0.06960703 -0.40281576
0.06721261 -0.0020656988 0.45388684 -0.07287263 0.4627605 0.29819962 -0.41184774 -0.121245615
0.5083183 0.20224465 0.36602888 -0.24669841 0.08611229 -0.22710107 0.099050686 -0.4605199
-0.19403546 -0.34863862 -0.022056065 0.21014732 -0.19321589 -0.51756966 -0.25211915 0.19584589
-0.07666771 -0.63522315 -0.16630983 0.2597582 -0.26515716 -0.36146745 0.13737802 -0.116165064
0.38240466 -0.1586563 -0.14241165 0.4610585 -0.30067402 0.21994263 -0.29845694 0.2158812
-0.04850965 0.1768548 -0.053578928 0.8457487 0.067482546 0.60296285 -0.37704355 0.09345608
0.35477877 -0.2041123 0.47297204 -0.0007226567 -0.0671615 -0.121380545 0.2787588 0.36751267
0.51078004 -0.041493278 -0.03537546 0.87114847 -0.15252466 -0.04856608 -0.32328314 -0.1468165
-0.23478408 0.12940803 0.5855559 0.4236867 0.22568789 0.071562 -0.2157089 0.27502254
0.012795234 0.54795116 0.558197 0.44643173 -0.2422826 0.036289625 0.15661974 0.83551264
-0.15484174 0.33792728 -0.38268134 0.2237806 0.5868591 -0.07564636 0.39793673 0.060106426
0.03311849 -0.09311529 0.33666727 0.51708883 0.4733035 -0.10609068 -0.100711286 0.7080433
-0.21490817 -0.07428194 -0.27451438 -0.31710067 0.014418148 0.06843021 0.610034 0.5765294
-0.11115814 -0.16608524 -0.08144915 0.18634745 -0.1483261 0.9076902 0.5843682 0.19474863
0.2287813 -0.13953 -0.0068585346 -0.98735946 0.1687085 -0.5266319 0.262075 -0.39709893
-0.43287742 0.13361561 -0.34160843 -0.22369207 0.03649781 -0.09609584 -0.40541777 -0.2825478
-0.340071 -0.014502218 -0.005066793 -0.70711625 0.2323936 0.0036138825 0.36235544 0.49829322
-0.046913277 -0.20716982 -0.5210288 -0.69674325 0.010711648 0.06740792 0.03617686 -0.0021887852
0.0716839 -0.9201765 -0.46465996 -0.29654816 -0.84548485 -0.073263526 0.1109756 -0.023703331

bias f4 [36]
00000000: cdc5 9fbc 40f2 0e3e 7a46 b4bd 0d93 123d
00000010: 69ca c4bd 3adc 68bd 860d 783d faf1 56be
00000020: ae85 89bd d09c 2cbd a318 bcbd 3f99 373c
00000030: e8bd 87bd 5c07 3e3d 7da4 0e3e 6e87 f53d
00000040: 86c6 14be fffe 313e 3784 45be e7ff 04be
00000050: a954 c0bc d44f 43be e4d3 01be 996a 5ebe
00000060: 4753 173e a630 4abe b8c0 9dbd 03df debd
00000070: be98 77bd 217f 9cbc d2fc da3d e5dc 9c3c
00000080: 26fb b73a 30d9 e2bd 82ad 8fbd 6da6 fd3d
-0.019503498 0.13959599 -0.08802505 0.03578477 -0.09608919 -0.05685065 0.060559772 -0.20990744
-0.067149505 -0.042141736 -0.091843866 0.01120597 -0.066280186 0.046393737 0.13929935 0.11988722
-0.14528856 0.1738243 -0.19288717 -0.12988244 -0.02347787 -0.19073421 -0.12678486 -0.21720351
0.14777862 -0.1974512 -0.07702774 -0.1088238 -0.0604484 -0.019103589 0.10692753 0.0191483
0.001403664 -0.110765815 -0.07015516 0.12385259

weight f4 [3, 36]
00000000: e730 90be 64dc ce3e 4cbf 99be 8b83 d53e
00000010: f05e c73d 0197 953d aeac f5bd 9c8b 8fbe
00000020: 37aa 7b3d 8cd2 8d3e 07fe 833e b74d b33e
00000030: 098b a1be 7350 813e 4792 503e 1a54 1dbe
00000040: df3e c4be f64f b83e 5f03 93be f3e8 b2be
00000050: 1a7f cf3e cdde acbe 7981 adbe 6192 9fbe
00000060: 998c b93e 73c2 80be c2fc 3c3e dbc1 e93e
00000070: 618b ac3e ac6c b43e 4d92 e53e c9aa 8cbe
00000080: ed0a 35bc 8684 ea3e 8e63 4ebe f2c6 6cbe
00000090: 1a65 983e d98a f9bd 8881 09be da78 2dbe
000000a0: d710 f1be 60f3 e0be 43e1 723e a6bb a8bd
000000b0: 2576 f7be 3def d5be 6ec7 dabe d44f dfbd
000000c0: ab86 6b3e af02 f5be f781 883e 2129 893e
000000d0: 09d3 9e3d 9cb3 fbbe 85b9 ac3d 576e 07be
000000e0: 97c0 bbbe f400 26be 6b02 373e b3bc f5ba
000000f0: cbf4 9bbd 534f 8ebe 7489 edbe 54d0 83bd
00000100: 3c4c 1abe 4343 01bf 9843 093d 1148 fa3d
00000110: ff30 d5be 2763 0ebe ffc2 7e3e fd53 9d3e
00000120: 3614 11be 3173 9bbe 7f35 763e b883 b1be
00000130: cad1 003e aaeb 783e 1201 a6be 9a3d 053e
00000140: d6da 4f3e 763a 94be 103b 073c e786 c4be
00000150: 1a93 ff3d e4e1 ac3d 93c2 99be efa1 68be
00000160: 15b0 78bc 17de 46be 1831 0e3e f31c 673e
00000170: b50a c3bd d6c4 603e 0ea3 c53d 4189 023e
00000180: d7c5 67be 6590 233e 9d2f 943e a6d0 87be
00000190: f853 9ebe 2c54 29bc eb74 8abe 6d84 a73e
000001a0: 89b8 703e e11a 81be abdf 163e 3473 27be
-0.2816231 0.4040252 -0.3002876 0.41701922 0.09734905 0.07304192 -0.11995827 -0.280362
0.061441626 0.27699697 0.25779745 0.3502023 -0.31551388 0.2525669 0.203683 -0.15364113
-0.38329217 0.35998505 -0.2871351 -0.3494335 0.40526658 -0.33763734 -0.33887842 -0.31166366
0.3624008 -0.25148353 0.18455794 0.45655712 0.33700088 0.3523916 0.4483818 -0.2747405
-0.011049968 0.45804232 -0.20155165 -0.23122767 0.29764634 -0.12184686 -0.13428319 -0.16940632
-0.4708316 -0.4393568 0.23718743 -0.08238916 -0.48332325 -0.41784087 -0.42730278 -0.10903898
0.2300059 -0.4785361 0.26661655 0.2678919 0.077550955 -0.4916047 0.084338225 -0.13225685
-0.36670372 -0.16211301 0.17872016 -0.0018748253 -0.0761505 -0.27794895 -0.4639393 -0.0643622
-0.15068144 -0.5049326 0.033511728 0.12220777 -0.41638944 -0.13905011 0.24879073 0.3072814
-0.14167866 -0.30361322 0.24043845 -0.34670806 0.12580028 0.24308649 -0.32422692 0.1301178
0.20298323 -0.28950852 0.008253828 -0.38384172 0.12479229 0.08441523 -0.3003126 -0.22718023
-0.0151787 -0.19420658 0.13885915 0.22569637 -0.095235266 0.21950087 0.09650241 0.1274767
-0.22634064 0.15973051 0.28942576 -0.26526374 -0.30923438 -0.01033501 -0.27042326 0.3271822
0.23507895 -0.2521582 0.1473376 -0.1635254

bias f4 [3]
00000000: 8335 9e3d a533 e8bc 7180 0bbe
0.0772505 -0.028344939 -0.13623215
