data/NN_trained_models/trained_net_961.tar (torch_old, 6521 bytes, 4 tensors)

weight f4 [6, 12]
0	0x40a103fd	5.031737
1	0x41223995	10.139058
2	0x413542ff	11.328856
3	0xc0136be3	-2.30346
4	0x404da1d4	3.2130022
5	0xbfe24c67	-1.7679566
6	0xc101b0c5	-8.105657
7	0xc01c8fd3	-2.4462783
8	0x408274ce	4.0767584
9	0x403f1d6c	2.9861708
10	0xc04aa142	-3.1660924
11	0x3f29bcf0	0.6630392
12	0xc11b48de	-9.70529
13	0xbf5411ab	-0.8283946
14	0xc1432b05	-12.198003
15	0xc0af78db	-5.483503
16	0xbfe96c92	-1.8236258
17	0xc0062c0b	-2.0964382
18	0x40fa89f8	7.829342
19	0x3fbf6228	1.495183
20	0xc135e1ad	-11.367597
21	0xbf03d8e2	-0.5150281
22	0x3ed45dcb	0.41477808
23	0xc0e310e5	-7.0958123
24	0x3f586dfb	0.84542817
25	0x401f20ce	2.4863772
26	0x3e9bcdef	0.30430552
27	0xc0ded5f6	-6.9636183
28	0xc075e3be	-3.8420253
29	0xc04fd3ce	-3.2473025
30	0x40a8e714	5.278208
31	0xc1025f9e	-8.148344
32	0xc130554b	-11.0208235
33	0x404babe2	3.182366
34	0x40e087b7	7.0165668
35	0xc06b7a51	-3.6793406
36	0x3fb942bc	1.4473491
37	0x410bb101	8.730714
38	0x40ea5836	7.323268
39	0xc0c7d769	-6.245045
40	0x4035a5a6	2.8382354
41	0xc06ee7f2	-3.7329068
42	0xc027350e	-2.6126132
43	0xc10f3da9	-8.952554
44	0x3f983a20	1.1892738
45	0xbee7f517	-0.45304176
46	0x4021e9c3	2.5298927
47	0x4051592e	3.271068
48	0x40249ed9	2.5721953
49	0x412929f3	10.5727415
50	0x40931741	4.5965886
51	0x3f816164	1.0107846
52	0x411ed719	9.927514
53	0xc10a4ec4	-8.64423
54	0xc0abcfd3	-5.369119
55	0x3faa9dae	1.332937
56	0x40178d72	2.3680081
57	0x41036ab9	8.213555
58	0x409174e0	4.545517
59	0xc040f25b	-3.0147922
60	0xbf83d2b5	-1.0298678
61	0x413873ad	11.528241
62	0x3ffb3fad	1.9628807
63	0x40b8ce0e	5.775153
64	0xc0e0faaa	-7.0305986
65	0x40fa0e2e	7.814231
66	0x3e095d54	0.13414508
67	0x400e2373	2.2209136
68	0xbe811161	-0.25208572
69	0x40ddb661	6.928513
70	0x40301438	2.751234
71	0xc03960e6	-2.8965392

bias f4 [6]
0	0xc0fd5300	-7.916382
1	0x408790b1	4.2364125
2	0xc1055091	-8.33217
3	0xc00e3f9a	-2.222632
4	0x408829f0	4.2551193
5	0xc082f999	-4.0929685

weight f4 [3, 6]
0	0x3fc3d766	1.5300109
1	0x3febdeb5	1.842734
2	0xbf0e6add	-0.5563181
3	0xc019d666	-2.4037108
4	0x3e1c96e0	0.15291929
5	0xc04045d5	-3.0042622
6	0x3fa2d009	1.2719737
7	0xc047f895	-3.1245472
8	0x409854d8	4.760357
9	0xbff57704	-1.9176946
10	0xc084aee1	-4.1463475
11	0x40bddd93	5.9332976
12	0xc04fc5d1	-3.2464488
13	0x3eb623c0	0.3557415
14	0xc031e0d0	-2.7793465
15	0x403a43d8	2.9103909
16	0x4033f29c	2.8116827
17	0xbdc65750	-0.09684622

bias f4 [3]
0	0x405f2583	3.4866645
1	0xc11a07f4	-9.626942
2	0x3f2375ea	0.638518
