data/NN_trained_models/trained_net_4783.tar (torch_old, 8442 bytes, 4 tensors)

weight f4 [36, 12]
00000000: 94e5 973e 7237 bd3d 5042 873f edb8 7bbf
00000010: ada1 083e adc4 39be d8c1 973d a294 2bbf
00000020: 09f0 5e3e a5a0 abbd a30d 313e 7262 1c3f
00000030: 97f8 e73e 6359 143c 4de5 37be 12a5 c8be
00000040: 723e 10be 2996 7e3e 69b1 d23e 3caf dcbe
00000050: 33e1 bdbd 7e00 a8be 78f4 a83e 52ae 133f
00000060: 8a95 693e b328 a2bd 3ff4 e7be b65d 4abf
00000070: edff 7d3e cdfe 6ebe acb4 ad3c 4fdb 20bc
00000080: 0dbc c0be 9d53 d1be 5d86 9ebe 9098 003d
00000090: a83c e8be e2b3 3ebe 576d 81bf 77d7 a33e
000000a0: 035c 90be d3f3 263e d0aa 85be 3e4c 183f
000000b0: fb15 c5be a63f 53be c7fd f1bc e274 1dbf
000000c0: 59b2 f93e e047 a83e 1a95 593e 4905 c4be
000000d0: 1991 02be 4b39 9d3e cccc c03e 0dc5 98be
000000e0: 9061 1e3e 50b6 b73c 986b ba3e bc59 ec3d
000000f0: a3d5 edbd b827 12be a6fd 72be 9389 373e
00000100: 5562 17be c2b7 a53d 914e 533d c9c3 2a3e
00000110: 80a9 a6be aa0a 9a3e 9515 8a3e d4f4 a23d
00000120: 06c2 9dbc 9e91 8ebe d3ec 15bf 714b d33e
00000130: 9697 79be 8bfc 9d3d 9132 b6bd 8cf7 2c3f
00000140: 0da3 5dbe 065d e33d d085 31be 11e8 bfbe
00000150: 41cc 72be 80e2 d3be 7153 233e 6236 37be
00000160: 7cad 923e 4cea d13d cfc6 d63d 4ba8 2c3e
00000170: 6888 153f db81 db3e f127 5abe 010c 413e
00000180: 1d21 553e c736 0abf cf11 013e 01a9 5ebc
00000190: 3f61 d53e fd88 253e 5636 893e bd40 41be
000001a0: a517 6c3e 141b f1be 7641 613e 9cc5 13bd
000001b0: 6673 d53e ef2b 623e bdb9 38bf 88b2 5b3e
000001c0: a6a3 6a3e e805 8dbc 35f4 bcbc ac7a 4dbc
000001d0: 867d 36be f5c1 dabd 977c 9abd 4cc5 453f
000001e0: dfe4 28bf 2931 153c ee91 0ebf 93a2 55be
000001f0: b583 4c3e fbb9 943e 5148 00bf 4b92 d43d
00000200: 8b05 f53d 5272 61be e0d7 a43e 49fd 8d3d
00000210: 61d8 113e 0881 fdbe 9821 a33e 281a a4be
00000220: 5dee 233d 6246 ce3d b3e6 62be b44a c33d
00000230: a613 5b3c 4a1a ec3d f3ff 583d 7edb 123e
00000240: 96a4 05bf 2a91 9bbe 1f36 993e cfd9 05be
00000250: 5cdb d43e cc10 e8bc 17ca e9be b3e2 873e
00000260: 0405 0a3d dcfb fa3e 050a 5c3c 85b0 a13d
00000270: 2b63 c93d 2302 acbc 1bdc 803e 9116 463f
00000280: 3f34 ef3e 38bd c73e cdc8 57be 3182 17bf
00000290: ad12 3a3d 7a86 b13e 813a 7e3d 9f22 663e
000002a0: 561f e0be 258e 813d f845 ddbd ca6e cdbc
000002b0: 4913 193c d1a7 dc3e 25fa d43e 6347 143f
000002c0: 3d45 efbc 4e6c 26be d5a4 08bd 58d0 583c
000002d0: d485 e73d ee4e 093e 2c04 ef3e d7e1 9b3c
000002e0: 3dfe 0e3d 30f2 8cbd 1e81 9d3d b376 36be
000002f0: 19fa 98be 074a bb3e 03bd 7fbe c8bc 07be
00000300: 1938 873d 1a52 ce3e 3405 533d f7c1 f4be
00000310: 16a6 e43d b08b 753e c3d1 cdbd dc8b a9be
00000320: 0c4a 193e 4080 cebe fc57 0e3f b10e d2be
00000330: 4631 033f 9814 0dbe 26b2 213f ae43 7e3e
00000340: 59b4 f5be 0e64 1ebe 6158 8e3e 2855 9dbc
00000350: 6ba9 cebe f7e1 b53e a933 a9be bcc5 843d
00000360: 0e34 643e 4f22 8a3e 893b 833c 3285 853b
00000370: ac31 bebe cffb 9c3d 848a d6be ffb4 9bbd
00000380: 9d95 33be d1d9 983d 3b39 0f3e 54ee fbbe
00000390: 873c 9fbe 48aa 833d 67dc e43d b593 2d3e
000003a0: 9158 bcbd f056 7abd 390d 5e3d 7ce5 d43e
000003b0: 14db 703c 707d eb3e 22e4 923e eee0 4fbe
000003c0: 2c70 913e e745 583e 3a16 edbe 0c91 99bc
000003d0: 589a 833d 6b57 0bbe a938 6abe 52c9 763e
000003e0: e256 d8be 6451 aabe 4f4e c03e 6615 093e
000003f0: 812a 55be 18fb 353f db12 81be d99c 5abb
0.29667342 0.09239091 1.0567112 -0.9832905 0.13342924 -0.18141432 0.0741002 -0.6702367
0.21771254 -0.0838025 0.17290358 0.61087716 0.45306846 0.009054515 -0.17958565 -0.3918844
-0.14086321 0.24861969 0.41150978 -0.43102443 -0.09271469 -0.32812876 0.32999015 0.57687867
0.22810951 -0.07917919 -0.45303532 -0.7904924 0.24804659 -0.23339386 0.021204315 -0.009817912
-0.3764347 -0.40884104 -0.30961886 0.031395495 -0.45358777 -0.18623307 -1.0111493 0.32000324
-0.281952 0.16303949 -0.26106882 0.59491336 -0.38493332 -0.20629749 -0.029539956 -0.61506474
0.4876888 0.32867336 0.21248284 -0.38285282 -0.12750663 0.30707774 0.37656248 -0.29837838
0.15466905 0.0224258 0.36410213 0.11540553 -0.116130136 -0.14272964 -0.23729572 0.17923574
-0.14783604 0.0809169 0.0515886 0.16676249 -0.32551193 0.3008626 0.2696959 0.079568535
-0.019257557 -0.27845472 -0.5856449 0.41268495 -0.24374232 0.077141844 -0.088963635 0.67565227
-0.2164423 0.11101727 -0.17336202 -0.3748174 -0.23710729 -0.41383743 0.15949799 -0.17891839
0.28647983 0.10249767 0.104871385 0.16861074 0.58411264 0.4287251 -0.21304299 0.18852235
0.20813413 -0.53989834 0.1260445 -0.013590098 0.41675755 0.16165538 0.26799268 -0.18872352
0.23055895 -0.4709097 0.21997628 -0.036077127 0.41689605 0.22087072 -0.72158414 0.21454823
0.2291399 -0.01721473 -0.023065666 -0.012541454 -0.17821321 -0.106815256 -0.07543295 0.77254176
-0.6597423 0.009105959 -0.5569142 -0.20862798 0.19972117 0.29048142 -0.50110346 0.10379466
0.11963948 -0.22016266 0.3219595 0.06933076 0.14242698 -0.49512506 0.31861567 -0.32051206
0.040022243 0.10072018 -0.22158317 0.09535733 0.013371384 0.11528452 0.052978467 0.14341542
-0.52204263 -0.3038419 0.29924104 -0.13071369 0.41573608 -0.028328322 -0.45661995 0.26540145
0.03369619 0.49020278 0.013430123 0.078949966 0.09833368 -0.020997113 0.25167927 0.77378184
0.46719548 0.3901155 -0.21072693 -0.5918303 0.045427967 0.3467291 0.062067512 0.22474144
-0.43773907 0.0632594 -0.10804361 -0.025077242 0.009342977 0.43096784 0.41597095 0.5792143
-0.02920782 -0.16252252 -0.03336032 0.013233267 0.113048226 0.13409016 0.4668287 0.019028587
0.03491043 -0.06882131 0.07690643 -0.17818718 -0.2987831 0.36579916 -0.24974446 -0.13255608
0.06602497 0.40297014 0.051518634 -0.47804233 0.11164491 0.23979068 -0.100497745 -0.33114517
0.14969653 -0.40332222 0.55603004 -0.41026834 0.5124706 -0.13777387 0.6316246 0.24830505
-0.47989157 -0.15467855 0.27801803 -0.019205645 -0.4036363 0.3552396 -0.33047226 0.06483027
0.22285482 0.269793 0.0160196 0.004074716 -0.37147272 0.07665216 -0.41902554 -0.07602882
-0.17537542 0.0746342 0.13986675 -0.49205267 -0.31100866 0.06428963 0.11174851 0.16950877
-0.0919658 -0.061118066 0.05421183 0.41581333 0.01470067 0.4599414 0.28689677 -0.20300648
0.28405893 0.21120416 -0.4630602 -0.018745922 0.06425923 -0.13607566 -0.22873177 0.24100235
-0.42253786 -0.3326522 0.37559745 0.13387069 -0.20816995 0.71086264 -0.25209698 -0.0033357649

bias f4 [36]
00000000: 037f 683e f198 5dbf 3323 df3d cd0a d03c
00000010: 1c97 f83e 76fb 50be 1a88 d0bd 0bd9 0b3f
00000020: 44fc 703c 5e74 d3bd 843d e1be 9b90 f63e
00000030: 78ef cb3e cb72 b9be 9106 c53e e757 46bf
00000040: c90d 62bd 98bf 3e3f 1f1a 1c3e 3f93 413e
00000050: 3db9 2bbf d713 c43e 0053 39bf 083b 1e3f
00000060: 70c4 303f ec5b 03bf d84c b63e a929 7b3c
00000070: b8de e5bd f823 d5bd 5770 843e 869a cb3d
00000080: e251 8ebe b98a 87be 50c7 8ebe c280 303d
0.22704701 -0.86561495 0.108953856 0.025395775 0.48552787 -0.20408425 -0.10182209 0.54628056
0.014708582 -0.1032493 -0.43992245 0.481572 0.39831138 -0.36220393 0.38481572 -0.7747788
-0.055188928 0.745111 0.1524434 0.18903826 -0.67079526 0.38296387 -0.7239227 0.61808825
0.6904974 -0.51312137 0.35605502 0.015329757 -0.11224121 -0.10407251 0.25866958 0.099415824
-0.27796847 -0.26473024 -0.27886438 0.043091543

weight f4 [3, 36]
00000000: 2f71 24bf be46 f33e 3207 e43e dafb 0c3f
00000010: 126f 25be aed0 493c bca1 a53e 6c57 053f
00000020: fb76 cb3e e3ad b5be 10fe 88bd ebce a33e
00000030: d9fa 923c 5284 a4be 7637 36be 0e86 f9bc
00000040: 6c0c fcbe 43c6 a23e 91d6 3ebe e09f c9be
00000050: a0b7 0bbf 8645 c8be f527 febe fc07 073f
00000060: 2a4b 153f 06ea 233e f1c9 ae3e 892e 54be
00000070: 3127 0bbe ab62 f7bd de58 d93d cd0a f0be
00000080: d9c6 17bd da52 99be a95f d6bc a3e8 1fbf
00000090: 250a c33a 1e2a f53e db2f bdbe cbc1 a5be
000000a0: 3b90 203d 38bd 8e3c 0825 68be 9a24 1dbf
000000b0: 27c0 0dbe dd1e 2a3e 507a fb3e 2ffb 3fbf
000000c0: 138b 2dbf db49 203f 37de 69be a8e9 1b3f
000000d0: 8ab7 ad3e c936 75bf fb27 7abc c9c1 453e
000000e0: e7b3 103e e1f4 333d 0a40 8d3e a82e f5be
000000f0: 5270 07bf 8fa0 e53e 0acb a8be 9b4c b63e
00000100: 8eaa b93e fe6e d03c 9649 92be 650b a1be
00000110: 37a2 123f c56c a13e c965 543e e4b1 473e
00000120: e911 e73e 502d 1fbf 9e7e a9bd e723 94be
00000130: 61f9 d53e 8342 dd3d 2735 9dbe 6f66 aebe
00000140: 309a 55be 0eb1 c83e e47d 99be b3fe 933d
00000150: a29d c93e 4da6 68bd 7c13 9f3e 19cb a5be
00000160: 03ee 663e 0f78 003e 4f2d 3b3e 3fda a53e
00000170: 5738 4d3e 5379 6f3e b5d3 9e3e 6c21 b23d
00000180: 80ab acbe a766 a4be 3fc8 99be 8e36 4c3e
00000190: feba 94bd 8161 623e b8b1 d73d a169 0f3f
000001a0: ede8 aabb a2be 5f3e e72a 4fbd be92 bf3e
-0.64235204 0.4751491 0.4453674 0.55071795 -0.16155651 0.0123178195 0.32349956 0.5208652
0.39739212 -0.35484228 -0.066890836 0.31993803 0.01794188 -0.32132202 -0.17794594 -0.03045943
-0.49228227 0.31791887 -0.18636538 -0.39379787 -0.54577065 -0.39115542 -0.4963986 0.5274656
0.58317816 0.16007242 0.34138444 -0.20720877 -0.13589169 -0.12079366 0.10612653 -0.4688324
-0.03705487 -0.29946023 -0.026168661 -0.6246435 0.0014880343 0.47883695 -0.36950573 -0.32374415
0.03920005 0.01742421 -0.22670376 -0.61383975 -0.13842832 0.16613336 0.49116755 -0.7499265
-0.67790335 0.62612695 -0.22838674 0.60903406 0.33929092 -0.9578672 -0.015268321 0.19312204
0.14131127 0.043934707 0.2758792 -0.47887158 -0.5290576 0.4484906 -0.32967407 0.3560532
0.36262935 0.02544355 -0.28571767 -0.31454006 0.5727877 0.31528297 0.20741953 0.19501454
0.45130852 -0.62178516 -0.082761034 -0.2893364 0.41791824 0.10803702 -0.30704615 -0.34062526
-0.20859599 0.39197582 -0.2997886 0.072263144 0.39378077 -0.05679922 0.31069553 -0.32381514
0.22551732 0.12545799 0.18279003 0.3239307 0.20041023 0.23386125 0.31020895 0.08697781
-0.33724594 -0.32109568 -0.30035588 0.19942686 -0.072622284 0.22107507 0.10531944 0.5602055
-0.005215755 0.21850064 -0.050578024 0.37416643

bias f4 [3]
00000000: 29fd e23d 1b80 70be 0527 e2ba
0.11083443 -0.23486368 -0.001725406
