data/NN_trained_models/trained_net_1021.tar (torch_old, 6521 bytes, 4 tensors)

weight f4 [6, 12]
0.19863515 -0.330669 -0.29353967 -0.10600812 -0.31935272 0.035659477 0.32074422 -0.2233461
-0.06870432 -0.33926058 0.2084277 0.48582554 -0.27230322 -0.35702106 -0.9478487 0.1969949
-0.17002921 0.23568787 -0.3202359 0.56942433 -0.30625492 -0.24472132 -0.08871732 -0.43960547
0.36861563 0.3592529 -0.41897723 0.28670907 0.24651404 -0.24486291 -0.2018306 0.196672
-0.12131616 0.09207929 0.0115621025 0.5731194 -0.24983835 0.27486277 -0.14015552 0.44906545
0.006456118 0.29624152 -0.115222804 0.1101102 0.062073726 -0.24571164 0.9576364 0.047431085
0.39354318 -0.6608494 -0.3756084 0.27896973 0.6649228 -0.2681306 -0.024287403 0.7181429
-0.6513543 -0.1773234 -0.3751176 0.115217365 -0.16100952 0.94713575 0.19067381 0.18609156
-0.097673304 -0.15293224 -0.39626482 0.27705702 -0.33341187 -0.08289574 -0.252346 -0.33481783
00000000: 0367 4b3e 724d a9be d54a 96be c91a d9bd
00000010: 3382 a3be ac0f 123d 9638 a43e d7b4 64be
00000020: dab4 8cbd 90b3 adbe 126e 553e 20be f83e
00000030: 546b 8bbe 77cb b6be 36a6 72bf 08b9 493e
00000040: 231c 2ebe 2958 713e f6f5 a3be cbc5 113f
00000050: 72cd 9cbe 3a98 7abe 6db1 b5bd f813 e1be
00000060: 30bb bc3e ffef b73e 2f84 d6be 88cb 923e
00000070: 2d6e 7c3e 58bd 7abe aeac 4ebe 6364 493e
00000080: 9b74 f8bd 1194 bc3d f96e 3d3c f4b7 123f
00000090: a0d5 7fbe d0ba 8c3e ee84 0fbe e8eb e53e
000000a0: d88d d33b f8ac 973e eff9 ebbd 7581 e13d
000000b0: 0541 7e3d d59b 7bbe a927 753f 1947 423d
000000c0: 7e7e c93e 6d2d 29bf bf4f c0be 1fd5 8e3e
000000d0: 6138 2a3f 6a48 89be 60f6 c6bc 37d8 373f
000000e0: 28bf 26bf 4494 35be 6a0f c0be 15f7 eb3d
000000f0: aedf 24be 7d77 723f ff3f 433e c98e 3e3e
00000100: f108 c8bd 459a 1cbe 39e3 cabe 6bda 8d3e
00000110: f6b4 aabe 3ec5 a9bd 7f33 81be 3e6d abbe

bias f4 [6]
-0.71778077 0.19943644 -0.376108 -0.50405735 0.31651306 -0.1729461
00000000: 7bc0 37bf 1139 4c3e 3a91 c0be e709 01bf
00000010: 000e a23e c818 31be

weight f4 [3, 6]
0.14496154 0.84393746 -1.1251637 -0.47160873 0.67609984 -0.46388954 1.0367062 -0.63228476
-0.21678206 1.184862 -0.70262533 1.0266044 -0.8884797 -0.46018973 0.44361988 0.38302138
-0.2905667 0.5341597
00000000: cc70 143e 490c 583f 5d05 90bf b376 f1be
00000010: e114 2d3f ee82 edbe cab2 843f 6add 21bf
00000020: 1efc 5dbe 8fa9 973f 41df 33bf c667 833f
00000030: 6873 63bf fd9d ebbe 2522 e33e 611b c43e
00000040: 29c5 94be b1be 083f

bias f4 [3]
0.11433583 -0.9475531 0.03251131
00000000: e728 ea3d d792 72bf 942a 053d
