data/NN_trained_models/trained_net_683.tar (torch_old, 6521 bytes, 4 tensors)

weight f4 [6, 12]
0	0x405f9d93	3.4939926
1	0xc15497d7	-13.28707
2	0x41924bd7	18.287031
3	0xc0bdb9aa	-5.928914
4	0xc123a58c	-10.227917
5	0xc12d1e3a	-10.81988
6	0xc04cddb8	-3.2010326
7	0xc22da35f	-43.409542
8	0xc1605df6	-14.02294
9	0xbfc34cdd	-1.5257832
10	0x41412d59	12.073571
11	0xc12611cd	-10.379346
12	0x409a7a60	4.8274384
13	0x3f13a49f	0.57673067
14	0x41466aea	12.401102
15	0xc1ef1b62	-29.88837
16	0x4085b951	4.1788716
17	0xc1092093	-8.570453
18	0x3fe0fb83	1.7576755
19	0xc194c828	-18.597733
20	0x4132a729	11.165811
21	0x40a9b294	5.303049
22	0xc1642a2b	-14.260295
23	0xbff6fc2d	-1.9295708
24	0xc166d11d	-14.426053
25	0xc169e819	-14.619164
26	0xc1690c80	-14.565552
27	0xc193b60b	-18.463888
28	0x41c1666a	24.175007
29	0x3fffbbaf	1.9979151
30	0x408271bc	4.0763836
31	0xc194aa0a	-18.583027
32	0x40a9a489	5.301335
33	0xc1dfcc62	-27.974796
34	0x41356831	11.337937
35	0xbeda877a	-0.42681485
36	0x408581eb	4.172109
37	0x42510eab	52.264324
38	0x400c3266	2.190576
39	0xc15ec0eb	-13.922099
40	0xc0bc21ff	-5.87915
41	0x41140dc2	9.253359
42	0x40f01bc9	7.5033917
43	0xc14d717c	-12.840206
44	0x411e90d2	9.9103565
45	0x41625b97	14.147361
46	0x4192c372	18.345432
47	0xc0a8143e	-5.252471
48	0x410a2d9e	8.636137
49	0xc20e2682	-35.537605
50	0xc16a8e78	-14.659782
51	0xc1a40782	-20.503666
52	0xc1def28b	-27.86843
53	0x418bee1a	17.49126
54	0x4198538c	19.040794
55	0x41a198a3	20.19953
56	0xc17fab20	-15.979279
57	0xc09686d6	-4.7039595
58	0xc08c6abd	-4.3880296
59	0xc16024d0	-14.008987
60	0x4171c834	15.111378
61	0x41e9eb8c	29.240013
62	0x418d4d96	17.662884
63	0xc0cd372a	-6.412984
64	0x40099c48	2.1501637
65	0xc12539ea	-10.326639
66	0xc1f6b918	-30.840378
67	0xc13bed9e	-11.745512
68	0x4161cbdc	14.11227
69	0x41703cee	15.014875
70	0xc13ac431	-11.672898
71	0x40bc251f	5.8795314

bias f4 [6]
0	0xc1cd3725	-25.651926
1	0xc0db3065	-6.8496575
2	0x4207a9f6	33.915977
3	0x40b4a007	5.6445346
4	0xc1d2bb3a	-26.34142
5	0xc1de352e	-27.775967

weight f4 [3, 6]
0	0xbf13d6ee	-0.5774983
1	0xbd46de38	-0.048551768
2	0x3efb415b	0.490733
3	0xbfe5c445	-1.7950522
4	0x3fa70d14	1.3050866
5	0x3e302ca8	0.17204535
6	0x3fc3496e	1.5256784
7	0xbfe91742	-1.8210223
8	0x3f633beb	0.887633
9	0x40301ade	2.7516398
10	0x3fc87e42	1.5663531
11	0x3f72c128	0.94825983
12	0xbf40fd8a	-0.7538687
13	0x3fab207f	1.3369292
14	0xbed4e054	-0.415774
15	0xbf392c68	-0.72333384
16	0xbf8b6aba	-1.0891945
17	0xbf51d2c2	-0.81962216

bias f4 [3]
0	0x3fcce4a0	1.6007271
1	0xc08a2866	-4.3174314
2	0x3e8682c4	0.2627164
