data/NN_trained_models/trained_net_13985.tar (torch_old, 8427 bytes, 10 tensors)

weight f4 [6, 12]
0	0xbe56e839	-0.20987023
1	0xbf242ab9	-0.6412769
2	0xbd0b9d6c	-0.034085676
3	0xbe095f2e	-0.13415214
4	0x3dc964f4	0.098337084
5	0xbd8f490d	-0.06996355
6	0x3f5aabaf	0.8541822
7	0x3e99b976	0.30024308
8	0x3f16c67a	0.588966
9	0xbee0af63	-0.4388381
10	0x3e85d4ea	0.26139003
11	0x3f17938e	0.59209526
12	0xbdc0b2c8	-0.094091
13	0xbf2fae1e	-0.68625057
14	0xbfd55c6a	-1.6668828
15	0x3f0fb6bc	0.56138206
16	0xbeb97117	-0.36219093
17	0x3ee9cc2b	0.4566358
18	0xbebe48e1	-0.37164977
19	0x3f82eea3	1.0229076
20	0xbeafc12c	-0.34327066
21	0xbd31b338	-0.043383807
22	0xbf31f114	-0.6950848
23	0xbf8a96a7	-1.0827225
24	0x3f0ece89	0.557839
25	0x3c36d124	0.011158261
26	0xbe95d4bb	-0.29263863
27	0xbe144e71	-0.14483048
28	0x3d620c6d	0.05518763
29	0x3e0e8016	0.13916048
30	0xbf36014b	-0.7109572
31	0xbea9555f	-0.33072945
32	0x3be975b6	0.007124628
33	0xbedd166a	-0.43181163
34	0xbea0d9a5	-0.3141605
35	0x3db2d5c4	0.08732179
36	0x3f26f5f5	0.6521905
37	0xbeeb1381	-0.45913318
38	0x3bf55f5f	0.0074881758
39	0x3f4f325a	0.80936205
40	0xbe318398	-0.17335355
41	0xbf0adb74	-0.5424111
42	0x3e313906	0.17306909
43	0x3eb17124	0.34656632
44	0x3f0d9cbf	0.553173
45	0xbf1c2e37	-0.6100802
46	0xbed9941c	-0.4249581
47	0xbd48c3c6	-0.04901483
48	0xbda41631	-0.08012045
49	0xbf5737a8	-0.840693
50	0xbf5c04ca	-0.8594481
51	0xbe43be6e	-0.19115612
52	0x3eb28928	0.34870267
53	0x3e98d2b2	0.29848248
54	0xbedc1efa	-0.42992383
55	0x3df3bfb4	0.11901799
56	0xbeaed47f	-0.34146497
57	0xbda53658	-0.08067006
58	0xbd2ae5ba	-0.04172299
59	0xbf3b6f58	-0.7321677
60	0x3da46578	0.08027166
61	0xbe9d5942	-0.3073216
62	0xbf7d754d	-0.9900711
63	0x3eac8ab0	0.3369956
64	0x3e2dffba	0.16992083
65	0x3e8b5c50	0.27218866
66	0xbe880496	-0.26566
67	0x3dc30e7f	0.09524249
68	0x3e44f2fa	0.19233313
69	0xbf0d7143	-0.5525095
70	0xbda505db	-0.080577575
71	0xbd2a995b	-0.041650157

bias f4 [6]
0	0xbef2b0b4	-0.4740044
1	0x3e6598ca	0.22421566
2	0x3c9eccd1	0.019384773
3	0x3f390f43	0.7228891
4	0x3f0e36ed	0.5555256
5	0x3c6db119	0.014507555

weight f4 [6, 6]
0	0x3f1e26a5	0.61777717
1	0x3f6fae21	0.93625075
2	0x3f2b2d04	0.66865563
3	0x3f9635eb	1.1735204
4	0x3ec61f54	0.38695776
5	0xbcff698f	-0.031178264
6	0xbeeee773	-0.46660957
7	0xbe88a31e	-0.2668695
8	0xbdf8b55c	-0.121439666
9	0x3d839a2c	0.0642589
10	0xbeac2b77	-0.3362691
11	0x3f90bd04	1.1307683
12	0xbf5918c0	-0.8480339
13	0xbf8a645b	-1.0811876
14	0xbf1c8712	-0.611436
15	0x3f893952	1.0720618
16	0xbe2eebc0	-0.17082119
17	0x3f17e51c	0.5933397
18	0xbf900209	-1.1250621
19	0xbf8814d0	-1.0631351
20	0xbf342ee7	-0.7038407
21	0x3f33e795	0.7027524
22	0xbf542d86	-0.82881963
23	0x3f5a711b	0.85328835
24	0xbf901dbc	-1.1259074
25	0x3e2034c2	0.15645126
26	0xbeaf843d	-0.34280577
27	0xbe8c9775	-0.27459303
28	0x3e789bd5	0.24278195
29	0x3f708b29	0.9396234
30	0xbf1036f2	-0.5633384
31	0xbf2da080	-0.6782303
32	0xbf160a39	-0.5860935
33	0x3f1140be	0.56739414
34	0xbf3da56e	-0.7408055
35	0x3f407fae	0.75194824

bias f4 [6]
0	0x3f0ef27c	0.5583875
1	0x3f1b7568	0.6072602
2	0xbe28f16c	-0.16498345
3	0xbdd4363f	-0.10361909
4	0x3f419f5a	0.75633776
5	0x3e41a177	0.1890925

weight f4 [6, 6]
0	0x3f7016b2	0.9378463
1	0xbf9db402	-1.2320559
2	0xbf9ad639	-1.2096626
3	0xbfa92b49	-1.3216335
4	0xbeb3154e	-0.34977192
5	0xbf6c04dd	-0.9219492
6	0x3e14b551	0.14522292
7	0xbf551018	-0.8322768
8	0xc00c7eec	-2.1952467
9	0xbf5ff052	-0.87476075
10	0xbf84c5df	-1.0372885
11	0xbec72369	-0.38894203
12	0xbf16b7bf	-0.58874124
13	0x3fa06c35	1.2533022
14	0x3ff70097	1.9297055
15	0x3f5d1650	0.8636217
16	0x3f57a145	0.8423045
17	0x3f725198	0.9465575
18	0x3fc14c30	1.5101376
19	0xbf6695c0	-0.9007225
20	0xbfd60e3c	-1.6723094
21	0xbf91d5ab	-1.1393331
22	0xbefc252e	-0.49247116
23	0xbf613dac	-0.8798473
24	0x3f07d184	0.5305407
25	0xbea9cb78	-0.33163047
26	0xc00676bd	-2.1009972
27	0xbf8f9a9d	-1.1219059
28	0xbf70f152	-0.94118226
29	0xbf05b25e	-0.5222529
30	0x3ec0ace1	0.37631896
31	0xbf8a599e	-1.0808599
32	0xbf36366f	-0.7117681
33	0xbf167653	-0.587743
34	0xbf434630	-0.7627897
35	0xbf87d478	-1.0611715

bias f4 [6]
0	0x3ec5a5ad	0.38602963
1	0x3eed0bb1	0.46297982
2	0xbf2f3b30	-0.6844969
3	0x3e9e8f3e	0.3096866
4	0x3edc623e	0.43043703
5	0x3c238179	0.009979599

weight f4 [6, 6]
0	0x3ecba9cd	0.39777985
1	0x3f6a22cb	0.9145934
2	0xbf47e2ad	-0.78080255
3	0x3ee9aefa	0.4564131
4	0x3f4ebe43	0.80759066
5	0x3eb8e48d	0.3611187
6	0x3f5956dc	0.8489816
7	0x3f88c1b9	1.068412
8	0xbf64b587	-0.8933949
9	0x3f7b3977	0.9813456
10	0x3f9da302	1.2315371
11	0x3e18c41a	0.14918557
12	0xbec9fa07	-0.39448568
13	0xbe7824a9	-0.24232735
14	0x3e4f41b3	0.20239906
15	0xbfa264b5	-1.2686983
16	0xba3944db	-0.000706745
17	0xbf4c11f2	-0.7971488
18	0x3ec6c892	0.38824898
19	0x3f86ceaf	1.0531825
20	0xbeecab74	-0.46224558
21	0x3f5f62e2	0.8726026
22	0x3fa17637	1.2614201
23	0x3f27a43a	0.65484965
24	0x3f95a561	1.1691095
25	0x3ea87083	0.3289834
26	0xbdb332ed	-0.08749948
27	0x3f9d007a	1.226577
28	0x3e27969a	0.16366044
29	0x3f21dcea	0.63227713
30	0xbf4fdc33	-0.8119537
31	0xbeeeb0ea	-0.4661935
32	0xbe1d8b5f	-0.15385197
33	0xbf8a962a	-1.0827076
34	0xbd0340f2	-0.03204436
35	0xbf1f2f50	-0.6218157

bias f4 [6]
0	0x3df1f1b1	0.11813677
1	0xbe712132	-0.2354782
2	0xbef26039	-0.47339037
3	0xbf0ca347	-0.5493664
4	0xbdf39c18	-0.11895007
5	0xbe6b47df	-0.22976635

weight f4 [3, 6]
0	0x3f6eef24	0.9333365
1	0x3fdeb4f2	1.739897
2	0xbf002ecf	-0.50071424
3	0x3fcf02d6	1.617274
4	0x3f206908	0.62660265
5	0xbecfb592	-0.40568215
6	0xbf8b5e1d	-1.0888096
7	0xbf164277	-0.5869517
8	0x3f771eff	0.9653167
9	0xbf006360	-0.50151634
10	0xbfcf3d76	-1.6190631
11	0x3f590e50	0.84787464
12	0xbf2fd248	-0.6868024
13	0xbf4425f0	-0.7662039
14	0xbe75a281	-0.23987772
15	0xbf391214	-0.7229321
16	0x3e520c47	0.20512496
17	0xbe89334a	-0.26796943

bias f4 [3]
0	0xbdb9a69d	-0.09064982
1	0xbe97550c	-0.29557073
2	0x3ed0bbc9	0.4076827
