data/NN_trained_models/trained_net_17022.tar (torch_old, 25831 bytes, 10 tensors)

weight f4 [36, 12]
0	0xc08fdb00	-4.4954834
1	0xbf70429c	-0.9385164
2	0xc12b7175	-10.715199
3	0xc082d833	-4.0888915
4	0xc0f9510f	-7.791145
5	0x4095fd98	4.6872063
6	0xc123c530	-10.2356415
7	0x412b6f6a	10.714701
8	0xbede0904	-0.43366253
9	0xbfea0acb	-1.8284544
10	0xc0be0f71	-5.939385
11	0x40c2e69b	6.09065
12	0x40ac6eaf	5.388511
13	0x406071a9	3.5069373
14	0x40fa5ad7	7.823589
15	0x40c59bb0	6.175255
16	0x3f94156c	1.1569037
17	0xc0719e75	-3.7752964
18	0x40979ae8	4.7376595
19	0xc066fc6a	-3.6091561
20	0x40aca520	5.395157
21	0x40bc3d35	5.8824716
22	0x3e7a0a70	0.24418044
23	0x40761130	3.844799
24	0xc0a52fb9	-5.1620755
25	0xc095d1e8	-4.6818733
26	0xc133b9f6	-11.232901
27	0x40b64241	5.6955876
28	0xc0d3d634	-6.619898
29	0xbf63b7e1	-0.8895245
30	0xc05e9a6c	-3.4781752
31	0x4130434f	11.016433
32	0xc11e152f	-9.880172
33	0xbf36de31	-0.7143279
34	0x3e8d1eb1	0.27562478
35	0x3fe94383	1.8223728
36	0xbfa5d74b	-1.2956327
37	0x402107de	2.5161052
38	0xc08e40bf	-4.4454036
39	0x3ff77642	1.9332964
40	0xc0c9935a	-6.2992373
41	0xbf054c89	-0.5206991
42	0xc05818e3	-3.376519
43	0x40abb65c	5.3660107
44	0xc0ab40bf	-5.3516536
45	0xbf60aa30	-0.87759686
46	0x3f2a8749	0.6661268
47	0x40c055ab	6.0104575
48	0xbfffb36b	-1.9976629
49	0x40aac88e	5.336982
50	0x4124f527	10.309852
51	0xbf77e76a	-0.96837485
52	0x409181a8	4.547077
53	0x40509f29	3.2597144
54	0xc06d7521	-3.710274
55	0xc1111f32	-9.070116
56	0x41251f39	10.320123
57	0x3fd61493	1.6725029
58	0x3f322e7e	0.6960219
59	0x4087bcb4	4.241785
60	0x3c4f7d81	0.0126642
61	0x40c04596	6.0084944
62	0x4129a22b	10.602092
63	0xc021d8ab	-2.5288494
64	0x407d52c0	3.9581757
65	0x3f468da2	0.77559865
66	0xbfd293b9	-1.6451331
67	0xc10624c5	-8.383977
68	0x401b943a	2.430922
69	0xc0170d9b	-2.3602054
70	0x4037687a	2.8657517
71	0x4083f534	4.123682
72	0xc10a5e72	-8.648058
73	0x3fd6e4ae	1.6788538
74	0x3feb924e	1.8404024
75	0xc099361d	-4.7878556
76	0xc0b9a2ed	-5.8011384
77	0xc1583a63	-13.514255
78	0x3f719ec0	0.9438286
79	0xc00db431	-2.214123
80	0xbf710229	-0.9414392
81	0x3fa873ad	1.3160301
82	0x4015a625	2.3382657
83	0x3fca1bd3	1.5789741
84	0x402c31a9	2.690531
85	0xbfa3cc7f	-1.2796782
86	0xbfa0d23d	-1.256416
87	0xc0ce30ee	-6.443473
88	0xbecfcf70	-0.4058795
89	0xbdfc6ace	-0.12325059
90	0x405783d2	3.3674207
91	0x405cbabc	3.4488974
92	0xc0668b9b	-3.6022708
93	0x40d77e49	6.7341657
94	0x40af200a	5.472661
95	0xc10affac	-8.68742
96	0xc04ad751	-3.1693919
97	0x40b5fdf1	5.6872487
98	0x401d6b03	2.4596565
99	0xc09544b6	-4.6646376
100	0xbfea24ae	-1.8292444
101	0xc0ce2799	-6.4423337
102	0xc0710847	-3.7661302
103	0xbe190854	-0.14944583
104	0x3f0ea10f	0.55714506
105	0x40b1c8f5	5.555781
106	0xbfb5df98	-1.420886
107	0xc0fae267	-7.840137
108	0x40d54a0f	6.6652904
109	0xbfc5135a	-1.5396531
110	0x3fcb191b	1.5867037
111	0x4150260e	13.009291
112	0x4044c54e	3.0745425
113	0xbfdbcf99	-1.7172729
114	0xc0321bbf	-2.7829435
115	0xc0ccdde6	-6.402087
116	0x414a741d	12.653348
117	0x3fe9a4d0	1.8253422
118	0xc0186256	-2.381002
119	0xc01a32cd	-2.4093506
120	0x3f852256	1.0401103
121	0x3fc16544	1.5109029
122	0xc0878c9a	-4.2359133
123	0xc07b8580	-3.9300232
124	0x3eb9fe51	0.3632684
125	0xc06ab110	-3.667057
126	0x40f43cf7	7.632442
127	0x40f1a0c2	7.5508738
128	0xc0f9931c	-7.7992077
129	0xbd7c0eaa	-0.061537422
130	0x412c27a5	10.759679
131	0xc0cf49cd	-6.477759
132	0x3fc2f34b	1.5230497
133	0x411501f6	9.312979
134	0x3ec5ff7b	0.3867148
135	0x3f48db2a	0.7845942
136	0xc0844d12	-4.134408
137	0x405b6cbb	3.4285114
138	0xc0d2bb35	-6.5853524
139	0xbf8f7480	-1.1207428
140	0x40bc2b97	5.880321
141	0x4136e015	11.429708
142	0x40342111	2.8145182
143	0x408d02a3	4.406572
144	0xbd61b768	-0.05510655
145	0x40696e8f	3.647373
146	0x4028a21a	2.634894
147	0xc084de09	-4.152104
148	0xc05848e8	-3.3794498
149	0xc106cee6	-8.425512
150	0xc0c000af	-6.0000834
151	0xc0ab1127	-5.345844
152	0x400912f8	2.1417828
153	0x3f7978db	0.97450036
154	0x3e1f1d93	0.15538625
155	0xc1036658	-8.212486
156	0xbff3460f	-1.9005755
157	0x407bd842	3.9350743
158	0xc0fa0356	-7.812907
159	0xbf0ff26e	-0.56229293
160	0x3e62c063	0.22143702
161	0x4093741b	4.607923
162	0xc05d38b6	-3.4565864
163	0x40c474b9	6.1392484
164	0xbff17034	-1.8862367
165	0xc0d60295	-6.687815
166	0xc09f97e2	-4.9872904
167	0xc021659b	-2.5218265
168	0x40ef2cf9	7.47424
169	0xc07f3aa8	-3.987955
170	0x408f16e8	4.471546
171	0xbfa2f1ed	-1.273008
172	0x410d97aa	8.849527
173	0x3f1304d3	0.57429236
174	0x403fd762	2.997521
175	0xc0c802e1	-6.2503514
176	0x40e1b0c2	7.052827
177	0x40840e3b	4.126737
178	0x40e325a0	7.098343
179	0x3f834fd4	1.0258737
180	0xc0168dad	-2.3523972
181	0xbfe5e219	-1.7959625
182	0xc154108c	-13.25404
183	0x40641427	3.56373
184	0xc0fadf73	-7.8397765
185	0xc03b7c0f	-2.929447
186	0x3e728830	0.23684764
187	0x413a0c8c	11.628063
188	0xc16b1c26	-14.694372
189	0x3f8f2aaa	1.1184895
190	0x3ff2d34f	1.8970736
191	0x3ebaa206	0.3645174
192	0x3f28e2fb	0.65971345
193	0xc02e328c	-2.7218351
194	0xc11a59f5	-9.646962
195	0x3fc73771	1.5563794
196	0xbf81d37d	-1.0142666
197	0xc07479aa	-3.8199258
198	0x401b4dbe	2.42662
199	0x414cc9d5	12.799275
200	0xc188b4d2	-17.088291
201	0xc090bb06	-4.52283
202	0xbfc8f59c	-1.5699954
203	0xc04ba57e	-3.1819758
204	0xc0b0b0ee	-5.521598
205	0xc0e458fb	-7.135862
206	0x401258be	2.2866664
207	0xc153b4cd	-13.231641
208	0x3fffbf6a	1.998029
209	0x40bbae5b	5.8650336
210	0xc06a75b1	-3.6634333
211	0xc033e44e	-2.8108096
212	0x40fc4a36	7.884059
213	0x3fec43f6	1.845824
214	0x40e2f0fc	7.091917
215	0xbf4795cc	-0.77962947
216	0x400301a4	2.0469751
217	0xc01d21f7	-2.455198
218	0xc1366927	-11.400672
219	0x4052993b	3.2906024
220	0xc01cc80c	-2.44971
221	0x3fa57fd8	1.292964
222	0x3d42c2cd	0.047549058
223	0x410e94ef	8.911361
224	0xc10bbbf4	-8.733387
225	0xc032bf2a	-2.7929177
226	0x3fa91c30	1.3211727
227	0xc11c4993	-9.767962
228	0x3f0afa6e	0.54288375
229	0xc05901de	-3.390739
230	0x3efe7025	0.49694934
231	0xc0042904	-2.0650034
232	0x40996ee0	4.7947845
233	0x40e956cb	7.291845
234	0xc05f3554	-3.48763
235	0xbf9978e1	-1.1990014
236	0xc0342998	-2.8150387
237	0xc0f8bb2a	-7.772847
238	0x40e072d1	7.0140157
239	0xc0aa2129	-5.316548
240	0xc0b713d7	-5.721172
241	0x3fe9cb93	1.8265251
242	0x4163e87e	14.244261
243	0x3f94ccbc	1.162498
244	0x4095a48c	4.6763363
245	0xc12ccd56	-10.800131
246	0x3fff4950	1.9944248
247	0xc14f2e85	-12.948857
248	0x40cb1d32	6.347314
249	0xbf83027e	-1.0235136
250	0x3f7b3a41	0.98135763
251	0x3faf51ae	1.3696802
252	0x40a6f91f	5.2179103
253	0x4046eede	3.1083293
254	0x4021652b	2.5217998
255	0x40d58923	6.6729903

bias f4 [36]
0	0x3ff8e9af	1.9446315
1	0x40902561	4.504563
2	0x404db47d	3.2141411
3	0x3fdc8bc1	1.723015
4	0xc088903e	-4.2676077
5	0xc0f29520	-7.5807037
6	0x412214d4	10.130085
7	0xc023bfcf	-2.558582
8	0x411108ef	9.064681
9	0xc0a3eaf1	-5.1224294
10	0x410d03bd	8.813413
11	0xc03770c3	-2.8662574
12	0x4104bd2a	8.296183
13	0xc0753479	-3.8313277
14	0xbfa50a3b	-1.2893747
15	0x4024a642	2.5726476
16	0x4091206b	4.5352073
17	0xc09ca213	-4.8947845
18	0x3f3e7883	0.74402636
19	0x402cd90d	2.7007477
20	0x404f6813	3.2407272
21	0xc0e75e82	-7.2302866
22	0xc0954dd6	-4.6657515
23	0x3f207f39	0.62694126
24	0x40131750	2.298298
25	0x40c361c4	6.1056843
26	0xbedcdbc4	-0.43136418
27	0xc089604c	-4.293005
28	0xc0cfefd8	-6.498028
29	0xc102de51	-8.179276
30	0x3f4a69d9	0.7906776
31	0xbfbb7087	-1.4643716
32	0x3f865400	1.0494385
33	0x3f8db053	1.1069435
34	0x40969c72	4.7065973
35	0x411d6b2a	9.838663

weight f4 [36, 36]
0	0x41157216	9.340353
1	0xc0a52974	-5.16131
2	0x4185b4b6	16.713238
3	0x4087e27b	4.2463965
4	0xc112c873	-9.173938
5	0xc10278fc	-8.154537
6	0xc0a5e4cd	-5.18418
7	0xc0f4de18	-7.652111
8	0xc1072c5b	-8.448329
9	0x40358a5f	2.8365705
10	0x3f85904d	1.0434662
11	0x3ef7d257	0.48402664
12	0xc1177e72	-9.46837
13	0x41425450	12.145584
14	0xbfd19113	-1.6372398
15	0x41440f14	12.253681
16	0x403bfa94	2.937169
17	0xc118cf08	-9.550545
18	0x411dbb89	9.858285
19	0xc0901f54	-4.503824
20	0xbff5760a	-1.9176648
21	0x41523349	13.137521
22	0x4035b1b4	2.8389711
23	0xc168d4d8	-14.551964
24	0x415b351f	13.700469
25	0x407a4e9f	3.9110487
26	0xc03720a0	-2.8613663
27	0x40c6d44a	6.213414
28	0x4040132a	3.0011697
29	0xc0e1c0a9	-7.054768
30	0xc0ef64a8	-7.481037
31	0x40b996a5	5.799639
32	0x3d7c1f9f	0.061553594
33	0x40523ea8	3.2850742
34	0x40c6be5d	6.2107377
35	0xc0c13fcd	-6.039038
36	0x40daac36	6.833522
37	0x412ca4a4	10.790195
38	0x3ff1402c	1.8847709
39	0x40ba5665	5.823046
40	0xc00a1d51	-2.1580393
41	0xc0697efe	-3.648376
42	0x40750a88	3.8287678
43	0xbfc01550	-1.5006504
44	0x40c1877d	6.047789
45	0x40258cc3	2.5867164
46	0xc0f44810	-7.6337967
47	0x4155e4b4	13.368336
48	0xbfb332fc	-1.3999934
49	0x3f2b18ed	0.6683491
50	0xc12523ad	-10.32121
51	0x3f9e0966	1.2346618
52	0x40f715f9	7.721432
53	0xc015ff4b	-2.3437068
54	0x3fd25c9b	1.6434511
55	0xc1122a0e	-9.135267
56	0xc09c45c8	-4.883518
57	0x416509b4	14.314869
58	0xbfd1d1a4	-1.6392102
59	0x41448077	12.2813635
60	0x414dde52	12.866777
61	0xbf496c81	-0.7868119
62	0xc0bac4e5	-5.836535
63	0xc110378b	-9.01356
64	0x415f8077	13.9688635
65	0x40bfe8e0	5.997177
66	0xc1161dae	-9.382246
67	0xc0928e0a	-4.5798388
68	0xc113e82d	-9.244184
69	0x41151272	9.317003
70	0x40dfc510	6.9928055
71	0xc0a8be1e	-5.2732077
72	0x411389bc	9.221127
73	0x405e07db	3.4692295
74	0x40cb9944	6.362459
75	0xc01894d9	-2.384085
76	0xc0bf52ef	-5.9788737
77	0xc13b321a	-11.699732
78	0xc1551582	-13.317751
79	0x403e6275	2.9747593
80	0xc10129b1	-8.072679
81	0xbc9e7deb	-0.019347152
82	0x4100ad54	8.042316
83	0xc13423a2	-11.258699
84	0xc143e790	-12.244034
85	0x40c4918d	6.1427674
86	0x3f3d4fa3	0.7394964
87	0x4092f221	4.5920568
88	0x4080d23d	4.025664
89	0xc082b083	-4.084047
90	0x4152f540	13.1848755
91	0x40a46aa2	5.1380167
92	0xc138954c	-11.536449
93	0x3fefbfb0	1.8730373
94	0x3ff692f3	1.9263595
95	0xc0c1388c	-6.0381527
96	0x41436995	12.213277
97	0x41906ac2	18.052128
98	0x4093fe32	4.6247797
99	0xc142b6ff	-12.169677
100	0x40419c44	3.0251627
101	0xc081f24c	-4.0608273
102	0x411d7cfa	9.843012
103	0x40eabda2	7.3356485
104	0x40bf4bdf	5.9780116
105	0xbfd0526c	-1.6275153
106	0x41327c80	11.1553955
107	0xc10712ed	-8.442121
108	0xc18961c2	-17.172733
109	0x4106b6a2	8.419588
110	0xc09d77eb	-4.9208884
111	0xc0bde5d3	-5.9343047
112	0x4147fad2	12.498735
113	0x41397449	11.59089
114	0xc0b11196	-5.5333967
115	0x3f5bc554	0.85847974
116	0x40295ceb	2.6462963
117	0x4055c510	3.3401527
118	0xbeb5fcae	-0.35544342
119	0x4150999f	13.037505
120	0xbfab5052	-1.3383887
121	0xc13dc50d	-11.860608
122	0x40e13226	7.0373716
123	0xbf93dcca	-1.1551754
124	0xc0d04980	-6.508972
125	0x3d9461b1	0.07245196
126	0xc182a7e4	-16.331978
127	0xc0976f92	-4.7323694
128	0x418c8889	17.566668
129	0x3fae431e	1.3614233
130	0x40a4d8b5	5.1514535
131	0x4128a566	10.5403805
132	0xc1697485	-14.590947
133	0xc160dac9	-14.053414
134	0xc13642db	-11.391322
135	0x40c2b120	6.0841217
136	0xc0ed76ca	-7.4207506
137	0x410c2ce6	8.760962
138	0xc0cfb426	-6.490741
139	0x3f94bcd9	1.1620132
140	0xc0ce3e94	-6.445139
141	0x402d8496	2.7112174
142	0xc1245cfb	-10.2727
143	0xbf66ca25	-0.901522
144	0xc10957c2	-8.583925
145	0xc118a668	-9.540627
146	0x3f0f7a0d	0.5604561
147	0x3c1683c7	0.009186692
148	0x3fee95d0	1.8639469
149	0x4099c348	4.805088
150	0xc0ad5c70	-5.417534
151	0xc05473fc	-3.3195791
152	0x402f0b5d	2.7350686
153	0xbf6d03e2	-0.9258405
154	0x40b426b1	5.629723
155	0xc0b4a700	-5.6453857
156	0x410dea46	8.869696
157	0xbf3fcc5c	-0.749212
158	0x40f5de7f	7.68341
159	0xc06a1146	-3.6573043
160	0xc0b994bc	-5.799406
161	0xbe875807	-0.26434347
162	0xc0901839	-4.502957
163	0x410cd28e	8.801405
164	0x40db42b4	6.8518925
165	0xbfa2165a	-1.2663071
166	0xbfb22010	-1.3916035
167	0xc0df689d	-6.98152
168	0xbf97f9d7	-1.187312
169	0xc120a917	-10.041282
170	0xbf9b6881	-1.2141267
171	0x3fe0fd93	1.7577385
172	0xbfe723a0	-1.8057747
173	0xc1055e3d	-8.335507
174	0x3ff0b6af	1.8805751
175	0xc08d9b91	-4.42524
176	0x407061cc	3.755969
177	0xc09cfa63	-4.905565
178	0xc08c16b2	-4.3777704
179	0x4120b3d1	10.0439005
180	0xc0b7bb4a	-5.7416124
181	0xc0cab0f6	-6.3341017
182	0xc12e5f67	-10.898292
183	0xc0fbca2e	-7.86843
184	0x41250300	10.313232
185	0x418d1b25	17.638254
186	0xc114922e	-9.285688
187	0x40b72513	5.7232757
188	0xc0161950	-2.345295
189	0x40887011	4.26368
190	0x3fecec80	1.8509674
191	0x4071410e	3.7695956
192	0xc020aef4	-2.5106783
193	0x3fca6948	1.5813379
194	0x412990bb	10.597835
195	0xc176b857	-15.420005
196	0xc134aace	-11.2917
197	0x4182457c	16.283928
198	0xc15b0a64	-13.690037
199	0x4116037d	9.375852
200	0x3fc3c910	1.5295734
201	0xc140e0e4	-12.054905
202	0x40bec5b7	5.961635
203	0x3ff8acfa	1.9427788
204	0xc195939c	-18.697075
205	0xc083df03	-4.120973
206	0x4104c0fc	8.297115
207	0x400df3ce	2.2180057
208	0xc17be94f	-15.74446
209	0x407fec65	3.9988034
210	0x417c19f8	15.75634
211	0x4066119b	3.5948246
212	0x40656830	3.584484
213	0xc13cf642	-11.810122
214	0xc180a1cd	-16.079004
215	0xc0921066	-4.564502
216	0x40f5cc73	7.681207
217	0x3ff2073d	1.8908459
218	0x4098fe8d	4.781073
219	0x40ca319c	6.318556
220	0xbf6cfc96	-0.92572916
221	0x3f7e42e0	0.99320793
222	0x4116fc10	9.436539
223	0x410e9fa3	8.913974
224	0x409307ca	4.594701
225	0xc0024d5f	-2.0359724
226	0xc01b4698	-2.4261837
227	0x404ee0c9	3.2324698
228	0xc098feba	-4.7810946
229	0x400e5ac2	2.2242894
230	0xc1514bbd	-13.080991
231	0x3ee8586e	0.45379966
232	0x412e65e0	10.899872
233	0x412a00b2	10.62517
234	0x41466f9a	12.402246
235	0x3f4c6e01	0.7985535
236	0xc144049a	-12.251123
237	0xc010a591	-2.2601054
238	0xc0a62857	-5.1924243
239	0xc0d5fb0d	-6.686896
240	0x3f488c8c	0.7833946
241	0x3f102d1c	0.5631883
242	0x41124791	9.142472
243	0xc1532776	-13.197134
244	0x41021b07	8.131598
245	0xc086296f	-4.192558
246	0x40c623b6	6.1918592
247	0xbfa01e5f	-1.2509269
248	0xc0a3d58f	-5.119819
249	0xc0795730	-3.8959465
250	0x4098fa25	4.780535
251	0xc08f021d	-4.469008
252	0x3ed2b583	0.41154107
253	0x4182af29	16.335527
254	0xbfab4436	-1.3380191
255	0xc01995dc	-2.3997717

bias f4 [36]
0	0xc1315316	-11.082785
1	0x3fc657af	1.5495509
2	0xbfc69e9d	-1.5517155
3	0xbf92545a	-1.1431992
4	0x3f302ca8	0.6881814
5	0x40ccd0f8	6.400509
6	0x412ed448	10.9268265
7	0x40ae5547	5.44791
8	0x40b14863	5.5400863
9	0x40c5394f	6.1632457
10	0x3f61bf93	0.88182944
11	0xc1171deb	-9.444804
12	0xbf93d4ff	-1.1549376
13	0xbffe0ca5	-1.9847609
14	0x3fc465e5	1.5343596
15	0xc008e5cd	-2.139026
16	0x409a4360	4.8207245
17	0x4012afc2	2.2919774
18	0xc09f298a	-4.9738207
19	0x40165f79	2.3495772
20	0xc00f304c	-2.2373228
21	0x3f95c778	1.1701498
22	0xbfceca21	-1.6155435
23	0xbf3cb066	-0.7370666
24	0xc087b58c	-4.2409115
25	0x40fb7db5	7.859095
26	0x40bcf939	5.9054227
27	0xbf26571a	-0.64976656
28	0xbfecb494	-1.8492608
29	0xc04af360	-3.1711044
30	0xc0464564	-3.0979853
31	0x3f2c1fda	0.672361
32	0x3f7ed630	0.99545574
33	0xc1598348	-13.594551
34	0x40f9e1b7	7.808803
35	0x40174d4e	2.3640933

weight f4 [36, 36]
0	0x40af079b	5.4696784
1	0xbfd33d07	-1.6502999
2	0x4092893a	4.5792513
3	0xc0922567	-4.5670657
4	0xbf063d36	-0.5243715
5	0xc094c385	-4.648867
6	0xc054f57e	-3.3274837
7	0x4016163f	2.3451078
8	0xc0504cff	-3.2546995
9	0x408b2953	4.3487945
10	0xc04837da	-3.128409
11	0x3f8911f6	1.0708606
12	0xbf51d545	-0.8196605
13	0xc0513418	-3.2688046
14	0xc098179a	-4.752881
15	0xbf7d1425	-0.98858863
16	0x3ff52390	1.9151478
17	0xbf168f7b	-0.58812684
18	0xc0813038	-4.037136
19	0xbf0058ef	-0.501357
20	0xc0130bf6	-2.297605
21	0x3f5605de	0.836027
22	0x3da5e132	0.08099593
23	0x3fc8cbfa	1.5687249
24	0x408318bd	4.09677
25	0x40d2707b	6.5762305
26	0xc00dd9b2	-2.216412
27	0xbf9e9dc1	-1.2391893
28	0xc0b2da42	-5.589143
29	0xc07994b6	-3.8997016
30	0xc03a5d71	-2.9119532
31	0x3e8bc2f6	0.2729718
32	0x3f14d896	0.58142984
33	0xbc67b950	-0.014143303
34	0x40a3c4eb	5.117788
35	0x3f3c420b	0.73538274
36	0xc1053ce4	-8.327366
37	0x401c0a17	2.4381158
38	0xc0ed34de	-7.4127035
39	0x40d2b90e	6.5850897
40	0x3d4b8c36	0.049694262
41	0xc0b41629	-5.627705
42	0x3f1786bc	0.59189963
43	0x3fb740c8	1.4316645
44	0x3dbb6850	0.091507554
45	0xbeb32b36	-0.34993905
46	0x4010e644	2.2640543
47	0x3e2347b5	0.15945323
48	0x4089bc9c	4.3042736
49	0x40c71448	6.2212257
50	0x40a56cb6	5.1695204
51	0x3f6b6bf6	0.9196161
52	0xbfea7ae9	-1.8318759
53	0xbfd1f43a	-1.6402657
54	0x40b83873	5.756891
55	0x3f832c87	1.0247964
56	0x3ede4972	0.4341541
57	0x40854c26	4.1655455
58	0x3e7c4fd3	0.24639826
59	0x40df2b4e	6.974036
60	0xc0fd9417	-7.9243274
61	0xc0c08645	-6.0163903
62	0x40dcd9e9	6.9016004
63	0x3f363189	0.71169335
64	0x40dcfe4f	6.9060435
65	0x40dbf602	6.8737803
66	0x40d26c08	6.5756874
67	0x3f844b23	1.033543
68	0x3f63ed4a	0.8903395
69	0xc0f0e639	-7.5281034
70	0xc0d27ba2	-6.577592
71	0xbd7da6cf	-0.06192666
72	0xc0aa14e5	-5.3150506
73	0xbeb1a45d	-0.34695712
74	0x40c05023	6.0097823
75	0x3f53b201	0.8269349
76	0xbfe9439a	-1.8223755
77	0x3d88c96e	0.06679045
78	0x3f20a384	0.62749505
79	0x404d03a9	3.2033484
80	0xbf5e4876	-0.86829317
81	0x409f5dd6	4.9802046
82	0xbf9c6d18	-1.2220793
83	0xc0c01d3c	-6.0035686
84	0xc0b363a3	-5.6059127
85	0xc0b0365d	-5.506636
86	0x409a80ae	4.828208
87	0x40e031e6	7.006091
88	0x3e0a6d59	0.13518275
89	0xc09ff5a4	-4.9987354
90	0x40d24e7f	6.572082
91	0x40bb3849	5.8506207
92	0x3f83a5ee	1.0285013
93	0x3f947638	1.1598577
94	0x3cc77109	0.024345892
95	0x3f06bbb7	0.5263018
96	0xc0adbaa3	-5.429033
97	0x40ccd2b7	6.400722
98	0xbf1cc324	-0.6123526
99	0x40c10c39	6.032742
100	0x3f821a3c	1.0164256
101	0xc0d5a7d8	-6.6767387
102	0xbf045ea6	-0.5170692
103	0xbf81098e	-1.0081041
104	0xbf914b26	-1.1351058
105	0xc0abdedf	-5.370956
106	0x4090fc0d	4.530768
107	0x3f3c7db2	0.73629296
108	0xc01eaf53	-2.479451
109	0x4108f950	8.560867
110	0xc0365aae	-2.8492846
111	0x3fc36e51	1.5268041
112	0xc069cfd1	-3.653309
113	0xc090cfe0	-4.5253754
114	0x406d608e	3.7090182
115	0x4082ad99	4.083691
116	0xbfc0185b	-1.5007433
117	0x3fc76ae9	1.5579501
118	0x3f42595c	0.759176
119	0xc033ffab	-2.8124797
120	0xc031a08b	-2.7754238
121	0x403da1ea	2.9630075
122	0x4060da77	3.513334
123	0xbf2d9dd9	-0.6781898
124	0xc037e42f	-2.8733022
125	0x40452393	3.0802963
126	0x3f998a5a	1.1995347
127	0xc108661a	-8.524927
128	0xc0148aa3	-2.3209617
129	0xc012ac0a	-2.2917504
130	0xc005971c	-2.087348
131	0x4051b823	3.2768638
132	0xc02fe616	-2.7484183
133	0xc0b60d0f	-5.689094
134	0x4006a009	2.1035178
135	0xc00c5618	-2.1927547
136	0x4013d8b0	2.3101006
137	0xc0ef6e39	-7.482205
138	0x3f7de2de	0.99174297
139	0xc0a3eb18	-5.122448
140	0xc0819828	-4.0498238
141	0xbff8a3f1	-1.9425031
142	0xc0ac6927	-5.387836
143	0x40793748	3.893999
144	0xbf8a8814	-1.0822778
145	0x4055f821	3.3432696
146	0x40957b4c	4.671301
147	0xc042f706	-3.046327
148	0xc08198fc	-4.049925
149	0xc047f670	-3.1244164
150	0x3ff54056	1.9160259
151	0xc0629155	-3.5401204
152	0xc04e74f0	-3.2258873
153	0x4056c954	3.356038
154	0xc08ef781	-4.467713
155	0x4030871c	2.7582464
156	0xc00827ad	-2.1274216
157	0xc04abf77	-3.167936
158	0xc042fdf3	-3.0467498
159	0xc073e9b3	-3.8111389
160	0xc01b8ed3	-2.4305923
161	0x4082238d	4.0668397
162	0xc03071dd	-2.7569497
163	0xc0713f70	-3.769497
164	0xc08883d9	-4.2660947
165	0xc005ddd3	-2.091664
166	0xc04ef22d	-3.2335312
167	0xc0530a2d	-3.297496
168	0x4093f621	4.623795
169	0x40634723	3.5512168
170	0x3fdaa82d	1.7082573
171	0xc05f0325	-3.484567
172	0xc03f48ff	-2.9888303
173	0xc086016a	-4.1876726
174	0xc09148d7	-4.5401416
175	0xc0940032	-4.625024
176	0xc0991745	-4.7840905
177	0xbfa35a6a	-1.2761967
178	0x404b8b9d	3.1803963
179	0x4063303b	3.5498188
180	0x3e8681bf	0.26270863
181	0x40f59245	7.674105
182	0xc03c3a2a	-2.94105
183	0x40e8b8d6	7.272563
184	0x3fee8d2c	1.8636832
185	0xc0beee4d	-5.9665895
186	0xc0bdd799	-5.932568
187	0x3f400075	0.750007
188	0x3f20336b	0.6257846
189	0xc0bcfaec	-5.90563
190	0x3f9de0b7	1.2334203
191	0x3f115a59	0.56778485
192	0x40d6e546	6.7154875
193	0x4100a5a4	8.04044
194	0x40e1deae	7.0584326
195	0x40e47eba	7.1404696
196	0xc0a97ac2	-5.296235
197	0x40bba91d	5.8643937
198	0x41062b57	8.385581
199	0xc0498ac7	-3.1490953
200	0x40fcea63	7.9036117
201	0xbff3d9fe	-1.9050901
202	0x3f856ecf	1.0424441
203	0x40f0c9eb	7.524648
204	0x3f011ff1	0.50439364
205	0xbfdd6398	-1.7296019
206	0x400ab0d9	2.167044
207	0x40e0faaf	7.030601
208	0x40ebaf03	7.3651137
209	0x4102523d	8.145078
210	0x40f6214b	7.691564
211	0x3fa6099b	1.2971681
212	0xc0742a94	-3.8150988
213	0x40dea08c	6.957098
214	0xc02e2785	-2.721162
215	0xbf6b7e77	-0.91989845
216	0xc0168e29	-2.3524268
217	0xc095c2eb	-4.6800437
218	0x4095a836	4.6767836
219	0x3febedc7	1.8431939
220	0xc00ea871	-2.2290308
221	0x402b6773	2.678189
222	0x4026b89d	2.605018
223	0x4014e7f5	2.3266575
224	0x4048186a	3.12649
225	0x3ff1ebce	1.8900087
226	0x3fea3c9f	1.829975
227	0xc0832944	-4.0987873
228	0x40a11a1b	5.0344367
229	0x4019e2ed	2.4044755
230	0xbf9f51b1	-1.2446805
231	0xc06d609d	-3.7090218
232	0x40529c1e	3.2907786
233	0xc0991097	-4.783275
234	0xc081762e	-4.045676
235	0xbf7baaee	-0.98307693
236	0xc0ad1167	-5.4083743
237	0x40b4d74f	5.651283
238	0xbfa92610	-1.3214741
239	0x400ed05d	2.2314675
240	0xbfc1d89e	-1.5144231
241	0x3fe07e54	1.7538552
242	0xc091ec1e	-4.560073
243	0xc05e0707	-3.469179
244	0x401f97bf	2.4936368
245	0xc0725e4c	-3.7870054
246	0xc0bdc34d	-5.9300904
247	0xc065ef18	-3.5927181
248	0xbf9695c4	-1.1764455
249	0xc0854dc8	-4.165745
250	0x3ffbd7fe	1.967529
251	0xc06ff5d1	-3.7493784
252	0xc035e675	-2.842191
253	0xc059b9b8	-3.4019604
254	0xc01af2c8	-2.4210682
255	0x409693db	4.705549

bias f4 [36]
0	0x3f76f5b7	0.9646868
1	0x407e3f98	3.9726315
2	0x3f1453d1	0.57940394
3	0xc04e1086	-3.2197585
4	0xc0614dd4	-3.5203753
5	0xc0984dbd	-4.7594895
6	0x3fbff234	1.499579
7	0xc0274562	-2.6136098
8	0xc06d3b44	-3.7067423
9	0x3ea99761	0.33123305
10	0x3fad6481	1.3546296
11	0x40511c4d	3.2673523
12	0xc00a132b	-2.15742
13	0x4072533f	3.786331
14	0xbf3fa984	-0.74868035
15	0xc012fc9d	-2.2966683
16	0xbfbc3c4f	-1.4705905
17	0x40792422	3.8928304
18	0xc0af5a04	-5.479738
19	0xbfc705c9	-1.554864
20	0x404da9cd	3.2134888
21	0x3ff0be4b	1.8808073
22	0x40656beb	3.5847118
23	0x400c8602	2.1956792
24	0x3fc1dfd4	1.5146432
25	0xc0ab6d40	-5.357086
26	0x3ce147c9	0.02750005
27	0xbeffbb12	-0.4994741
28	0xbf7b8fdb	-0.9826638
29	0xc0dc0b55	-6.8763833
30	0xc07cc30c	-3.9494047
31	0xbf8d5006	-1.1040046
32	0x3d76d34c	0.060260102
33	0xc04a3c80	-3.1599426
34	0xbee61ca0	-0.44943714
35	0xc04dc7d1	-3.2153208

weight f4 [36, 36]
0	0xc10d7137	-8.84014
1	0x411f3f62	9.952974
2	0xc0551138	-3.329176
3	0x3fdb8c78	1.7152243
4	0xc0200b72	-2.5006986
5	0x40feddd5	7.964579
6	0xc0a2704e	-5.076209
7	0xc02013e1	-2.5012133
8	0xc0c77b80	-6.2338257
9	0x40c51838	6.1592064
10	0x4031a197	2.7754877
11	0x3e8f0252	0.27931458
12	0xc09943b7	-4.789516
13	0xbeb0eca4	-0.34555542
14	0xbf8fa8fe	-1.1223447
15	0xc0f47a4f	-7.6399302
16	0xbf422ef1	-0.75852877
17	0xc091e36d	-4.559012
18	0x411a4e91	9.644181
19	0xc0913f36	-4.538966
20	0xc0350f64	-2.8290644
21	0xbfae7eb1	-1.3632413
22	0xc1192ac4	-9.572941
23	0xc039cc22	-2.9030843
24	0xc08d8ce0	-4.4234467
25	0x3fd21828	1.6413622
26	0x4094a36a	4.644948
27	0xc09053ff	-4.5102534
28	0xbf1f501c	-0.6223161
29	0x40d512ae	6.65853
30	0xbfb24b1b	-1.392917
31	0x40f01498	7.502514
32	0x3f110844	0.5665324
33	0x41067931	8.404588
34	0x3fdcb2db	1.7242082
35	0x407983bb	3.8986652
36	0x402fa0ed	2.7441971
37	0x3f354660	0.7081051
38	0x402c7df7	2.6951883
39	0x4070d46c	3.7629652
40	0x402703cb	2.6096065
41	0x3f2e70bd	0.68140775
42	0xbea81dda	-0.32835275
43	0x3f373657	0.7156729
44	0x402cae66	2.6981444
45	0x3f2287fd	0.6348875
46	0x3fcccca6	1.5999954
47	0x3ec468fb	0.38361344
48	0x403ea641	2.9788973
49	0xbf85c610	-1.0451069
50	0x3f00feee	0.5038899
51	0x4022c78b	2.5434291
52	0x3f919166	1.1372497
53	0x403657e8	2.8491154
54	0x3efee496	0.49783772
55	0x402ecdfc	2.7313223
56	0x40303d60	2.753746
57	0x3f275986	0.65370977
58	0x4031d32e	2.7785144
59	0x405e9169	3.4776251
60	0xbfc92407	-1.571412
61	0x3f23997f	0.6390609
62	0x3f2e9fd4	0.6821263
63	0x4030ed7e	2.7644954
64	0x403dec64	2.9675531
65	0x3f0b566c	0.54428744
66	0x3f23a42c	0.6392238
67	0x3f063a2d	0.5243252
68	0x40530014	3.2968798
69	0xbf8e8bf3	-1.1136459
70	0x3f03ad28	0.5143609
71	0x3eb54461	0.3540373
72	0x400e5554	2.223958
73	0x405dc489	3.4651206
74	0x401a02d9	2.4064238
75	0x4072c6f8	3.793394
76	0x3ff76c63	1.9329952
77	0x4064123b	3.5636127
78	0xbfdbc5b9	-1.7169715
79	0x4037f8cc	2.8745604
80	0x4002f91e	2.046455
81	0x40624836	3.5356574
82	0x405d1e4c	3.4549742
83	0x4038cd51	2.8875315
84	0x40032a31	2.0494502
85	0x4038d139	2.88777
86	0x402abd3e	2.6678004
87	0xc03cb14b	-2.948321
88	0x403b2bea	2.9245553
89	0x400c7fde	2.1953044
90	0x4055bf8f	3.3398168
91	0x40004948	2.0044727
92	0x400aea5c	2.1705542
93	0x402b6679	2.6781294
94	0x40068b31	2.1022456
95	0x403f6d46	2.9910445
96	0x3f3f376a	0.7469393
97	0x4065227b	3.5802295
98	0x40326a01	2.78772
99	0x400abf67	2.1679323
100	0x3ffa279d	1.9543339
101	0x4059afd5	3.401357
102	0x402910d8	2.641653
103	0x403153ba	2.7707353
104	0x3f35bfd6	0.70995843
105	0x405ffdc3	3.4998634
106	0x40338e62	2.8055654
107	0x405dd0f8	3.4658794
108	0x3f8095ca	1.0045712
109	0x4060ee77	3.5145547
110	0x403ae1a9	2.9200232
111	0x3f3a22cf	0.72709364
112	0x3f68b1db	0.90896386
113	0x3ec33b94	0.38131392
114	0x40452512	3.0803876
115	0x40389903	2.884339
116	0x3f3e832c	0.744189
117	0x404ee8c2	3.2329564
118	0x40388ad8	2.8834743
119	0x4037723e	2.8663478
120	0x3f619054	0.8811085
121	0x4040ccf8	3.0125103
122	0x403fe395	2.9982655
123	0x3ebc955a	0.36832696
124	0x402718e5	2.6108944
125	0x3fa58e26	1.2934005
126	0x404ffcb1	3.249798
127	0x3fab6bb9	1.3392249
128	0x3f7348c8	0.9503293
129	0x403a2bca	2.9089227
130	0x3f863b83	1.0486912
131	0x3f02c1ca	0.5107695
132	0x3f85fd6f	1.0467967
133	0x3ebfeebb	0.37486824
134	0x3e74d32f	0.23908685
135	0x3fb707e7	1.4299287
136	0x3f26ab5d	0.6510523
137	0x3f68543e	0.90753543
138	0x3e9c7c2c	0.30563486
139	0x403943cb	2.8947628
140	0x3f59255f	0.8482265
141	0x3f82fd63	1.0233577
142	0x4042b1eb	3.0421093
143	0x3fa70d2a	1.3050892
144	0xc03c9d8e	-2.9471164
145	0xbf1f549e	-0.6223849
146	0xc0363cb9	-2.8474562
147	0x4025bfc5	2.5898297
148	0xc0267cd6	-2.6013694
149	0xbee087d5	-0.43853632
150	0xbf228945	-0.63490707
151	0xbef9d5fe	-0.48796076
152	0xc02ca2e0	-2.697441
153	0x40027fa8	2.0390415
154	0xc043848b	-3.0549648
155	0xc06894a2	-3.6340718
156	0x401ac3a9	2.4181921
157	0xbec5921b	-0.38588032
158	0xc03f613c	-2.9903097
159	0xbef5a87e	-0.47980112
160	0xc046c4d6	-3.105764
161	0xbf1023a2	-0.5630437
162	0xbea02c72	-0.3128391
163	0xc03b639f	-2.9279554
164	0xc0454639	-3.082411
165	0xc05ec77e	-3.480926
166	0xc047c6d9	-3.1215117
167	0xbf04a544	-0.51814675
168	0xbf19f1d4	-0.60134625
169	0xbf212f78	-0.62963057
170	0xbeb90ee3	-0.3614417
171	0xbec22e63	-0.37926015
172	0xbf46e573	-0.7769386
173	0xbf0c880f	-0.5489511
174	0xbf074eb5	-0.5285447
175	0xc03e7585	-2.9759228
176	0xc044bb35	-3.0739262
177	0x3ff090af	1.8794154
178	0xbec44404	-0.38333142
179	0xbf0ba1c5	-0.54543716
180	0x4032d005	2.7939465
181	0x3e9f9623	0.31169233
182	0x3f5dbbbf	0.866146
183	0x3f3fac39	0.74872166
184	0x40318f3f	2.774368
185	0x3f244b8c	0.64177775
186	0x3f312a98	0.6920562
187	0x3ee71660	0.45134258
188	0x401f1fef	2.486324
189	0x3f1c4d17	0.6105513
190	0x3f1f112e	0.6213559
191	0x3f1c3943	0.61024874
192	0x402be230	2.6856804
193	0x3ee70778	0.45122886
194	0x3f38eeeb	0.7223956
195	0x3f85acb8	1.0443335
196	0x3ee4d561	0.44694045
197	0x402b5db0	2.6775932
198	0x3f438787	0.76378673
199	0x402d665f	2.7093732
200	0x40279a6b	2.6188
201	0x3f0c743e	0.5486487
202	0x402cd454	2.7004595
203	0x3f700ebc	0.9377248
204	0x40122e4b	2.2840755
205	0x3ecc8023	0.3994151
206	0x3f4d1af1	0.80119234
207	0x4033d7e2	2.8100514
208	0x40234774	2.5512362
209	0x3f37a654	0.7173817
210	0x3f034782	0.5128099
211	0x3f0ce810	0.550416
212	0x401e2556	2.4710288
213	0x3f39c120	0.7256031
214	0x3f363034	0.711673
215	0x3ef5ccdf	0.48007867
216	0xbf3c1135	-0.73463756
217	0xc0614cfc	-3.5203238
218	0xc0300cd8	-2.750784
219	0xc07c4264	-3.9415522
220	0xbf5731b8	-0.8406024
221	0xc071fea8	-3.781168
222	0x3fae9ed6	1.3642223
223	0xc03357ef	-2.802242
224	0xbf51e539	-0.8199039
225	0xc0694cf2	-3.6453214
226	0xc0636f34	-3.5536623
227	0xc03a5a09	-2.9117453
228	0xbf43dd37	-0.7650942
229	0xc02f5123	-2.7393272
230	0xc0336996	-2.8033195
231	0x400e83ab	2.2267864
232	0xc0437db1	-3.0545466
233	0xbf296be7	-0.6618027
234	0xc064d0d6	-3.5752463
235	0xbf58c7db	-0.84679955
236	0xbf6423bc	-0.89117026
237	0xc03a3a94	-2.9098253
238	0xbf3c1b62	-0.7347928
239	0xc0438006	-3.054689
240	0xbf204dfe	-0.62619007
241	0xc0682956	-3.627523
242	0xc0308033	-2.7578247
243	0xbf3f763b	-0.7478978
244	0xbf337449	-0.7009931
245	0xc0768ef8	-3.8524761
246	0xc02b5692	-2.6771588
247	0xc03e82b2	-2.976727
248	0xbf310341	-0.6914559
249	0xc06b05d1	-3.67223
250	0xc0353689	-2.8314536
251	0xc0720444	-3.7815104
252	0x40271a3e	2.6109767
253	0x3ed106a0	0.40825367
254	0x400dddb0	2.2166557
255	0x40354450	2.8322945

bias f4 [36]
0	0xbfbbf20f	-1.4683245
1	0x403fb740	2.9955597
2	0x403a763d	2.9134667
3	0x403e9a08	2.9781513
4	0xc050ab37	-3.2604501
5	0x400ac101	2.16803
6	0xc04b52d7	-3.1769311
7	0x3fdafe33	1.7108825
8	0xc0193382	-2.3937688
9	0x3fec29c5	1.8450247
10	0x3f740448	0.9531903
11	0xbf1224be	-0.57087314
12	0x40ab1074	5.3457584
13	0xbfcfb0a5	-1.6225783
14	0xbf587a89	-0.84561974
15	0xbf85960a	-1.0436413
16	0x40735833	3.8022583
17	0x4077ee8d	3.873935
18	0xc0333e87	-2.8006914
19	0x3f427d81	0.75972754
20	0x4047ddba	3.122908
21	0x40182b66	2.3776488
22	0x404b8897	3.1802118
23	0x40a7a4ff	5.238891
24	0x40f5ef7f	7.6854854
25	0x3fcf5ec5	1.6200796
26	0x3fba064a	1.4533169
27	0x3fa82a54	1.3137918
28	0xbf5c1f2b	-0.8598506
29	0x3f7b31cd	0.98122865
30	0xc0563b7f	-3.3473814
31	0x41228efd	10.159909
32	0xbfee14ea	-1.8600132
33	0xc04cda90	-3.20084
34	0xbf778783	-0.9669115
35	0x4027bb8c	2.620822

weight f4 [3, 36]
0	0xbf0717d3	-0.5277073
1	0xbdbe84bb	-0.0930266
2	0x3e7f9149	0.24957766
3	0x3ea66471	0.32498506
4	0x3e630f51	0.22173811
5	0x3eb9cfc7	0.36291334
6	0xbe72669d	-0.23671956
7	0xbe18cc87	-0.14921771
8	0xbce71070	-0.02820608
9	0x3e7768b3	0.24161033
10	0x3ee3363f	0.44377324
11	0xbea87e05	-0.32908645
12	0xbe5310ad	-0.2061183
13	0xbe5cc191	-0.21558215
14	0xbec35049	-0.3814719
15	0xbe807f94	-0.25097334
16	0x3e868a95	0.26277605
17	0x3ecba969	0.39777687
18	0x3d8c70f4	0.068574816
19	0xbdc99a19	-0.09843845
20	0xbd0e59cc	-0.034753606
21	0x3e6f20b3	0.23352318
22	0xbf133dd1	-0.575162
23	0xbe5f7b1d	-0.21824308
24	0x3ee8c103	0.45459756
25	0x3df6bd2f	0.12047803
26	0x3e8ab4aa	0.2709096
27	0xbea8c7fa	-0.3296507
28	0xbe2bd5c1	-0.1678076
29	0xbe3ba157	-0.18323265
30	0x3e7b023b	0.2451257
31	0x3eb920a9	0.3615773
32	0xbec7f0f9	-0.39051035
33	0x3e461df5	0.19347365
34	0xbe9ae4d3	-0.30252704
35	0x3eb1c657	0.34721634
36	0x3e8a518d	0.27015343
37	0x3e892901	0.26789096
38	0xbe3adbbe	-0.18247887
39	0xbe3048c6	-0.17215261
40	0xbeb9b875	-0.36273542
41	0xbde40450	-0.11133635
42	0x3e539c46	0.20665082
43	0x3edc69a9	0.43049362
44	0xbecd8211	-0.40138295
45	0xbe3024c4	-0.17201525
46	0xbe9ef234	-0.3104416
47	0x3e2f0cd6	0.1709474
48	0x3edd46b9	0.4321802
49	0x3e3084b8	0.17238128
50	0x3e682dba	0.22673693
51	0x3cc21131	0.023689838
52	0xbea86b81	-0.3289452
53	0xbcec1e35	-0.028822998
54	0xbf176ab3	-0.59147185
55	0x3ef89d37	0.48557445
56	0x3efaaeeb	0.48961577
57	0x3d1f03d2	0.038822003
58	0x3de2f383	0.110816024
59	0x3f0e999f	0.5570316
60	0xbec6b861	-0.38812545
61	0xbe80901b	-0.25109944
62	0xbe82bb0f	-0.2553334
63	0x3edbca8f	0.42927977
64	0x3e94d9f3	0.29072532
65	0x3ed3fa9d	0.4140214
66	0x3debdca4	0.11516693
67	0xbe3d6fca	-0.18499675
68	0x3e4f799c	0.20261234
69	0xbe230554	-0.15920001
70	0x3d83b094	0.06430164
71	0xbdaae849	-0.08345086
72	0x3f5c9a1c	0.8617265
73	0x3df63b6c	0.120230526
74	0x3e53050f	0.20607398
75	0x3e8d4dd4	0.2759844
76	0x3d5ba7e5	0.053626914
77	0x3da615a0	0.081095934
78	0xbe9ed9e0	-0.310256
79	0xbe845c4c	-0.25851667
80	0x3e1476b4	0.14498407
81	0x3dce2b8c	0.100669
82	0x3e06111d	0.13092466
83	0xbe3ca001	-0.18420412
84	0xbd6163d4	-0.055026844
85	0xbe6ebe00	-0.23314667
86	0xbe751cb1	-0.23936726
87	0xbe54c7b5	-0.20779307
88	0x3e31a749	0.1734897
89	0xbe24625b	-0.16053145
90	0x3ca997e3	0.020702308
91	0xbe1166a9	-0.14199318
92	0xbbe347bf	-0.006936043
93	0x3dc8e29c	0.09808847
94	0x3eaf12ac	0.34193933
95	0x3e617356	0.22016653
96	0xbe113023	-0.14178519
97	0x3eb77bfa	0.35836774
98	0x3e575639	0.21028985
99	0x3dbb604c	0.091492265
100	0xbe9d1288	-0.306782
101	0xbd546b69	-0.051860247
102	0xbec81960	-0.3908186
103	0xbe8fa1a8	-0.2805302
104	0x3ea12db4	0.3148018
105	0xbd617af9	-0.055048916
106	0xbea67cf4	-0.32517207
107	0x3ea1aaf6	0.31575745

bias f4 [3]
0	0x3f03aa89	0.5143209
1	0xbe8fb77b	-0.28069672
2	0x3ea4c3f4	0.3218075
